Task6/run_12_06_2022-11_15_24/model.pth (torch, 51823 bytes, 18 tensors)

input_layer.weight f4 [40, 2]
0.48117852 0.52035904 -0.14739197 0.5780904 -0.13938423 0.124650925 -0.30733255 0.36612225
0.55711746 -0.46022257 0.5481749 0.12004597 0.46551207 0.085745454 0.3040223 -0.08680836
0.48545325 0.091577664 -0.29350993 0.16099605 -0.29091713 -0.07563852 -0.25570616 0.4174427
-0.49762937 -0.28804007 -0.17895627 -0.37841794 0.05902875 -0.62400216 0.56867135 -0.5362057
0.48688433 0.10615743 -0.20408256 0.39030185 0.09813244 0.5103284 0.06945427 -0.2018805
0.17051052 -0.17000845 0.2651983 0.56046414 0.36469325 -0.2734523 0.36313894 0.11362502
0.3193616 -0.38578287 -0.62333524 -0.24402705 -0.48447847 0.51259154 0.181278 0.26010484
0.1995899 -0.009236035 0.49307176 -0.44546378 0.03873171 -0.42987764 0.19359806 -0.21633878
0.19329442 -0.13210142 0.5225101 -0.3738832 -0.37586862 -0.3761465 0.5673893 0.20741433
0.6054139 -0.5223408 -0.62469006 -0.49167278 -0.42372906 0.25689438 0.2249157 0.5229586
00000000: 085d f63e 4036 053f eced 16be bcfd 133f
00000010: bdba 0ebe fc48 ff3d b15a 9dbe 6074 bb3e
00000020: 409f 0e3f 4ba2 ebbe 3155 0c3f a9da f53d
00000030: 9957 ee3e 509b af3d d0a8 9b3e 95c8 b1bd
00000040: 548d f83e 128d bb3d ef46 96be 26dc 243e
00000050: 17f3 94be 5ee8 9abd ebeb 82be 0dbb d53e
00000060: 47c9 febe fd79 93be 5040 37be ffbf c1be
00000070: 21c8 713d 9bbe 1fbf 7294 113f c744 09bf
00000080: e748 f93e 1169 d93d 05fb 50be a5d5 c73e
00000090: a9f9 c83d e2a4 023f 0a3e 8e3d c3b9 4ebe
000000a0: 4f9a 2e3e b216 2ebe 12c8 873e 947a 0f3f
000000b0: 13b9 ba3e f101 8cbe 59ed b93e 3cb4 e83d
000000c0: 5d83 a33e 5585 c5be e692 1fbf 3ae2 79be
000000d0: 900d f8be 3339 033f f1a0 393e 762c 853e
000000e0: 4b61 4c3e bd52 17bc e773 fc3e d413 e4be
000000f0: 24a5 1e3d ec18 dcbe 923e 463e ea87 5dbe
00000100: f9ee 453e 9845 07be 39c3 053f 9e6d bfbe
00000110: da71 c0be 4696 c0be 6d40 113f 6c64 543e
00000120: 68fc 1a3f 20b8 05bf b0eb 1fbf 89bc fbbe
00000130: 04f3 d8be a987 833e 4d50 663e 9de0 053f

input_layer.bias f4 [40]
-0.003589923 -0.0006708515 -0.007875534 -0.0029070473 0.00863248 0.0037701533 0.00061153027 -0.001778524
0.0013843549 0.004933873 -0.0038099147 -0.00032872014 0.0026951088 -0.0010734199 -0.0061654034 0.0017322865
0.0073173167 -0.0002512697 0.0034191855 0.0028287475 0.008258154 -0.004477742 0.0045078774 -0.0053595104
-0.00074474904 4.3713182e-05 -0.009528201 0.00017616685 0.004242601 -0.0042113196 -0.0016370921 -0.005092678
0.001588051 -0.0059693563 -0.0031341359 0.0036689676 -0.004481562 0.0018896123 0.00247178 -0.0075876317
00000000: ea44 6bbb 15dc 2fba 6208 01bc 2984 3ebb
00000010: 3f6f 0d3c ad14 773b 1a4f 203a 5d1d e9ba
00000020: 3e73 b53a 54ac a13b c3af 79bb 1258 acb9
00000030: 6ca0 303b ffb1 8cba 2707 cabb e40d e33a
00000040: 1ac6 ef3b d9bc 83b9 6a14 603b 8262 393b
00000050: 354d 073c 06ba 92bb d1b6 933b d59e afbb
00000060: 433b 43ba ac58 3738 2c1c 1cbc 6eb9 3839
00000070: 8405 8b3b 1cff 89bb b293 d6ba 7be0 a6bb
00000080: 2626 d03a 979a c3bb 1366 4dbb 1073 703b
00000090: 11da 92bb deac f73a 96fd 213b aba1 f8bb

hidden_layers.0.weight f4 [40, 40]
-0.23553944 -0.31080648 0.2422751 -0.18422504 0.27665552 -0.108376175 0.26103887 -0.35475433
-0.23040353 0.13931051 0.09652351 -0.11608872 0.27202716 0.3101261 -0.3313523 -0.24408361
0.41788316 -0.15375946 -0.16155803 -0.44176686 -0.26151794 0.11426773 -0.060476318 -0.33134595
0.010427895 -0.3117698 -0.38685587 -0.25124523 -0.39953113 -0.29097685 0.4560146 0.08604793
0.14053956 -0.4260235 -0.29988992 -0.151946 0.07096802 -0.40175357 -0.19643389 -0.27301884
0.00050340017 -0.17020647 -0.031635277 -0.30937967 -0.313311 -0.2667736 -0.15664165 -0.3604013
0.382282 -0.09050739 0.39298743 0.1420563 -0.38591534 0.31631008 -0.12512451 -0.17493063
-0.37930915 -0.45394477 0.13010466 -0.09958937 0.177721 -0.375224 0.33883762 -0.33540434
-0.07872685 0.095976084 0.2355572 0.36813682 0.4156586 -0.3619018 0.1151958 -0.19628431
-0.050048593 -0.34170243 0.416325 -0.33557674 0.24393752 0.16124271 0.14841405 -0.24735716
0.4146238 0.100064196 0.058671053 -0.40237167 0.19175838 -0.0685643 -0.20917451 0.39206943
0.101686716 -0.25258222 -0.23096658 -0.021957828 0.25501427 -0.116458565 -0.26016754 -0.15612227
-0.34107146 0.16262724 0.3530731 -0.42962578 0.1060688 0.23553151 0.0828558 -0.16262285
0.23837347 0.24000905 0.17049198 -0.08033141 -0.12087469 0.048981767 -0.08044842 -0.13593894
0.29179913 0.3923786 -0.044998832 -0.10232351 0.0068312525 -0.02700504 0.10965519 0.127668
-0.4152993 -0.16936988 0.38415563 0.1771783 -0.021901477 -0.27529755 -0.27931836 -0.4086747
-0.14885937 0.15384309 0.29110712 0.21003878 -0.40308028 -0.27391592 -0.0710535 0.44244763
0.06593003 -0.11884772 0.18805377 -0.17352302 -0.29513463 0.33231318 -0.2070547 -0.09162502
-0.4534119 0.3057742 0.34493294 0.16596343 -0.31821358 -0.4497026 -0.37002534 0.34073633
0.21937396 0.38475126 0.2396442 0.11526981 -0.0035751837 -0.34644866 -0.39152378 -0.42770723
0.18710326 -0.22430491 -0.091981396 -0.26296777 -0.08269488 -0.32088104 -0.2979203 0.15164064
-0.13531621 0.28153595 -0.14662686 -0.33508483 -0.08084178 -0.22131935 -0.13948867 -0.43402395
0.2557048 -0.31798905 0.22939433 0.20720781 0.32624525 -0.3500166 0.32857832 -0.21553612
0.16966783 0.42823958 -0.06480975 -0.0034428597 -0.10493833 -0.3806841 0.2191489 -0.4529327
0.28351834 0.34195665 0.43144697 -0.10729211 -0.37450296 0.1022582 0.25179708 -0.4542225
-0.104384124 -0.27379754 -0.039856486 -0.22456911 -0.18686849 -0.14551711 -0.43426958 0.37425452
0.38210237 -0.071397714 -0.051644746 -0.1862646 -0.41152406 -0.44377968 0.16993602 -0.25086886
-0.29398105 -0.035632096 -0.15239027 -0.14762016 0.014594681 -0.09740437 -0.15736341 -0.2189751
-0.37155956 0.38348857 -0.18247096 0.12061207 -0.15856186 0.036852546 0.4257439 0.21022062
-0.39566493 0.18085039 0.4338616 0.11939164 0.3056948 0.4508985 -0.06966041 0.09420769
-0.3185144 -0.095420025 0.3377399 0.23314197 -0.28780785 -0.36637276 -0.31218553 -0.45027542
-0.35249916 -0.11322086 0.30825803 0.07542934 -0.34641066 -0.3652355 0.22853164 -0.33832636
00000000: 4031 71be 0722 9fbe f716 783e 7da5 3cbe
00000010: cba5 8d3e 54f4 ddbd e3a6 853e 5ca2 b5be
00000020: e7ee 6bbe 6aa7 0e3e 1eae c53d ecbf edbd
00000030: 2547 8b3e d9c8 9e3e 02a7 a9be 0ef1 79be
00000040: c8f4 d53e 1f73 1dbe 786f 25be 442f e2be
00000050: aee5 85be 3305 ea3d 04b6 77bd 2da6 a9be
00000060: c3d9 2a3c 4ba0 9fbe f911 c6be 37a3 80be
00000070: 588f ccbe ebfa 94be bf7a e93e e639 b03d
00000080: 9ae9 0f3e c11f dabe 2c8b 99be bb97 1bbe
00000090: ae57 913d a5b2 cdbe f725 49be 20c9 8bbe
000000a0: 9df6 033a 9b4a 2ebe fe93 01bd 0367 9ebe
000000b0: 4d6a a0be 8d96 88be ab66 20be 8586 b8be
000000c0: 77ba c33e f05b b9bd a635 c93e 3577 113e
000000d0: b296 c5be 65f3 a13e a420 00be 0421 33be
000000e0: cf34 c2be 736b e8be 283a 053e 83f5 cbbd
000000f0: 7efc 353e 5c1d c0be 207c ad3e 1eba abbe
00000100: 8b3b a1bd 1c8f c43d e835 713e 6e7c bc3e
00000110: 34d1 d43e 314b b9be c7eb eb3d c1fe 48be
00000120: c1ff 4cbd 9ff3 aebe 8d28 d53e b7d0 abbe
00000130: c2ca 793e cf1c 253e daf9 173e 324b 7dbe
00000140: 9249 d43e 75ee cc3d 0f51 703d a903 cebe
00000150: 4f5c 443e 716b 8cbd d831 56be 53bd c83e
00000160: 2041 d03d 7552 81be 8182 6cbe e7e0 b3bc
00000170: 3b91 823e d481 eebd ae34 85be 84de 1fbe
00000180: eba0 aebe c187 263e ffc5 b43e e9f7 dbbe
00000190: 993a d93d 2c2f 713e 4db0 a93d 9b86 26be
000001a0: 2d18 743e efc4 753e 7395 2e3e cb84 a4bd
000001b0: 268d f7bd 1ba1 483d 24c2 a4bd 9433 0bbe
000001c0: b266 953e d9e5 c83e b250 38bd fd8e d1bd
000001d0: b3d8 df3b ac39 ddbc e692 e03d 66bb 023e
000001e0: 1ca2 d4be 4c6f 2dbe 0cb0 c43e 3a6e 353e
000001f0: ba6a b3bc cdf3 8cbe d102 8fbe cf3d d1be
00000200: 976e 18be 0b89 1d3e fe0b 953e 6814 573e
00000210: 8a60 cebe b53e 8cbe 7f84 91bd 7f88 e23e
00000220: 5306 873d 6f66 f3bd 2b91 403e 05b0 31be
00000230: e31b 97be f424 aa3e 2606 54be e6a5 bbbd
00000240: 9b25 e8be 708e 9c3e 0d9b b03e 51f2 293e
00000250: e4ec a2be 6b3f e6be f673 bdbe fe74 ae3e
00000260: 91a3 603e 1efe c43e 4a65 753e 9412 ec3d
00000270: a14d 6abb b861 b1be ce75 c8be 71fc dabe
00000280: ff97 3f3e 30b0 65be be60 bcbd b6a3 86be
00000290: ef5b a9bd 854a a4be 0289 98be af47 1b3e
000002a0: 5590 0abe 7b25 903e 5a25 16be 3d90 abbe
000002b0: 6090 a5bd 8aa1 62be 1ed6 0ebe 6338 debe
000002c0: bdeb 823e 76cf a2be 59e6 6a3e 492e 543e
000002d0: 9e09 a73e 6035 b3be 6b3b a83e 80b5 5cbe
000002e0: 67bd 2d3e 3842 db3e f9ba 84bd 9aa1 61bb
000002f0: e8e9 d6bd 07e9 c2be 9268 603e cbe6 e7be
00000300: 5129 913e f114 af3e 9ee6 dc3e f7bb dbbd
00000310: dabe bfbe bf6c d13d 8ceb 803e da8f e8be
00000320: 58c7 d5bd 312f 8cbe 8e40 23bd 72f5 65be
00000330: 745a 3fbe 7002 15be 9558 debe 4a9e bf3e
00000340: eca2 c33e f738 92bd 7189 53bd 26bc 3ebe
00000350: 48b3 d2be 1737 e3be b503 2e3e e271 80be
00000360: af84 96be f6f2 11bd 320c 1cbe bd29 17be
00000370: 871e 6f3c f17b c7bd e023 21be 023b 60be
00000380: 0e3d bebe 9d58 c43e abd9 3abe 7603 f73d
00000390: 0a5e 22be b2f2 163d 1bfb d93e 1344 573e
000003a0: 9894 cabe d830 393e 1c23 de3e 9b83 f43d
000003b0: 0784 9c3e 2bdc e63e 1eaa 8ebd f6ef c03d
000003c0: 5214 a3be 936b c3bd 3fec ac3e c5bc 6e3e
000003d0: 8d5b 93be 3695 bbbe c8d6 9fbe 808a e6be
000003e0: c57a b4be 57e0 e7bd ffd3 9d3e b37a 9a3d
000003f0: bd5c b1be 2600 bbbe 3304 6a3e 1d39 adbe

hidden_layers.0.bias f4 [40]
0.0014284808 -0.0007355684 -0.0011601701 -0.0029780334 0.0022639926 -0.0070056426 -0.00112377 0.0034173117
-0.0008274542 -0.0003051264 -0.004833833 -0.0035198845 -0.004072328 0.0022960545 -0.0006037393 -0.0010809413
-0.0026525676 0.0009102132 0.0037733545 0.0027436998 0.00046677684 0.0010983951 0.0033376203 0.0015167159
0.0039650393 -0.0038500002 0.00033660978 -0.003088138 -0.0030076734 0.0036310724 -0.0031487413 0.00046206525
0.0016159151 -0.003248455 -0.0044271504 -0.00011738076 -0.008120027 -0.002609632 -0.0013013611 -0.0012573033
00000000: dd3b bb3a 29d3 40ba d910 98ba 1c2b 43bb
00000010: 7e5f 143b 978f e5bb 774b 93ba faf4 5f3b
00000020: 83e9 58ba 5ff9 9fb9 2165 9ebb ddad 66bb
00000030: 2a71 85bb 6779 163b 4244 1eba 5fae 8dba
00000040: b3d6 2dbb 609b 6e3a 624a 773b a5cf 333b
00000050: bab9 f439 06f8 8f3a fabb 5a3b 8acc c63a
00000060: 29ed 813b 4950 7cbb 007b b039 5c62 4abb
00000070: 631c 45bb 49f7 6d3b 1d5b 4ebb 5941 f239
00000080: 1dcd d33a 08e4 54bb a111 91bb 512a f6b8
00000090: dd09 05bc 5c06 2bbb 6f92 aaba 19cc a4ba

hidden_layers.1.weight f4 [40, 40]
-0.13534088 -0.04927552 0.33416423 0.35163957 0.06991069 0.2168068 -0.42472172 0.0010753246
-0.4041818 0.15476051 -0.3248793 -0.16308972 0.3186949 0.43585014 -0.27423218 -0.25333598
0.05596347 0.1802442 -0.073471576 -0.1427827 -0.30076015 0.19493543 0.44679055 -0.22068211
0.21467714 0.22306837 0.36584765 -0.051281784 0.014582486 0.33486205 0.28779382 0.45078585
-0.13164748 0.1800056 0.3187589 -0.3096007 0.091639936 -0.101304464 0.29385048 -0.20472449
0.032121036 0.2735315 -0.41830736 -0.38529384 -0.23336908 0.2930569 0.3062033 -0.3115235
0.08740077 -0.24218279 -0.21190044 0.39378548 0.22056647 -0.124725625 0.06718154 0.088390194
0.1070386 -0.15618832 -0.26876578 0.3022183 0.06132925 0.19132759 -0.17267913 0.22115378
0.3320626 0.27751404 0.12398555 0.44903558 -0.0009152911 0.097152114 0.4340556 0.44391593
-0.19257848 0.41118264 0.16854607 -0.051281936 0.39834648 -0.2364764 0.29659542 0.4520741
-0.31483188 -0.26950818 -0.4522272 -0.08220219 -0.4146962 -0.15299627 0.13848913 0.32256606
0.2541157 0.25351372 0.18936604 -0.2831386 -0.36243194 0.018894987 0.43343142 0.025719054
-0.03928718 -0.3098405 -0.22635534 -0.35185117 0.36547998 -0.07447317 -0.40328836 0.048931107
0.033184152 -0.056374755 0.16346252 0.24546042 -0.42927387 -0.34964094 -0.022081383 -0.42329583
-0.41465342 0.40300453 -0.034754157 -0.2255901 -0.15649281 -0.35635346 0.35615605 -0.09889706
-0.25705078 -0.34698814 0.26730627 -0.06281169 -0.048929263 -0.12001738 -0.22012551 0.0808781
0.35037398 -0.2644117 0.02213736 -0.34761798 -0.21442303 0.40025303 0.004664747 0.43975735
-0.0805223 -0.24830821 -0.27218518 0.40434173 -0.35160542 0.2391562 0.112921074 0.13476346
0.25732252 -0.119195014 0.28194442 -0.36314246 -0.1605833 0.3338469 0.13443014 -0.061275855
-0.107341014 -0.27913636 0.27743924 -0.014076986 -0.014545768 0.108520254 0.33707598 -0.23234384
-0.15716113 0.30967075 0.25770304 -0.22431557 -0.4512346 0.08479177 0.24029994 0.10922681
0.32404384 -0.36256674 0.23018597 -0.2836848 0.25691804 0.33949238 0.14451565 0.36924303
-0.30084017 -0.4080404 -0.43868932 0.2865478 0.15971988 -0.3339397 0.22115558 0.41657582
-0.45030442 0.33105737 0.06971574 0.042538807 0.41081822 0.4132363 0.19257116 0.3609362
0.18987398 0.07428602 -0.4011122 0.08510814 -0.32474482 0.14064023 0.080636844 0.0100769205
-0.31165433 -0.27664185 0.33692738 0.22141372 0.24109857 -0.13500865 -0.07949858 -0.11709214
0.31413773 -0.19616944 0.28714392 0.31512406 -0.4170468 0.003167694 -0.0866833 -0.2522911
0.1976626 -0.056468546 0.39854684 -0.2854051 0.21323237 -0.38997415 -0.22839679 0.030764608
0.3614298 0.24027932 -0.3734635 0.04975121 -0.2693655 0.020376109 -0.3796032 -0.13403279
0.31399202 -0.41807815 -0.43528113 0.082967155 0.061522886 -0.08445552 0.39800972 -0.2750102
-0.27693665 -0.3414668 -0.08509741 -0.11707325 0.28239143 -0.025228696 0.1451261 -0.18990359
0.37013486 0.38552618 -0.40893757 -0.117179446 -0.38714707 0.1940426 -0.39863402 -0.21575548
00000000: cd96 0abe 21d5 49bd 9317 ab3e 1a0a b43e
00000010: 562d 8f3d 9a02 5e3e 2075 d9be e8f1 8c3a
00000020: ebf0 cebe 8a79 1e3e 9456 a6be fe00 27be
00000030: fa2b a33e c027 df3e 2968 8cbe 41b5 81be
00000040: f439 653d f091 383e 4478 96bd a135 12be
00000050: 3cfd 99be 279d 473e bbc1 e43e 7efa 61be
00000060: 53d4 5b3e 096c 643e 6250 bb3e d90c 52bd
00000070: 61eb 6e3c 0a73 ab3e b659 933e 67cd e63e
00000080: 99ce 06be 6353 383e 5e34 a33e fc83 9ebe
00000090: b8ad bb3d b778 cfbd 9273 963e 4ca3 51be
000000a0: 5991 033d 520c 8c3e 622c d6be 3c45 c5be
000000b0: 4ef8 6ebe 8e0b 963e aec6 9c3e 0280 9fbe
000000c0: 2dff b23d c4fe 77be 6efc 58be 409e c93e
000000d0: 2ddc 613e 2670 ffbd 7a96 893d eb05 b53d
000000e0: 0e37 db3d d5ef 1fbe ab9b 89be 5bbc 9a3e
000000f0: 6134 7b3d 61eb 433e ccd2 30be 2376 623e
00000100: 1c04 aa3e 5216 8e3e 23ec fd3d fee7 e53e
00000110: 25f0 6fba b0f7 c63d 893c de3e f348 e33e
00000120: 4b33 45be 8886 d23e 5797 2c3e 020d 52bd
00000130: 12f4 cb3e df26 72be 5bdb 973e 4276 e73e
00000140: a531 a1be fafc 89be 538a e7be 9f59 a8bd
00000150: 0f53 d4be 0eab 1cbe 18d0 0d3e 6127 a53e
00000160: 741b 823e 8dcc 813e 2ce9 413e 8bf7 90be
00000170: ae90 b9be a9c9 9a3c b9ea dd3e c4b0 d23c
00000180: 98eb 20bd 6aa3 9ebe b2c9 67be d625 b4be
00000190: 3120 bb3e 6485 98bd d07b cebe fc6b 483d
000001a0: 1bec 073d 37e9 66bd b862 273e fa59 7b3e
000001b0: c9c9 dbbe 2304 b3be 04e4 b4bc 3bba d8be
000001c0: 744d d4be 9c56 ce3e 605a 0ebd 1701 67be
000001d0: a73f 20be f673 b6be 165a b63e 8b8a cabd
000001e0: 299c 83be 6ea8 b1be 5edc 883e 6aa3 80bd
000001f0: 0d6a 48bd accb f5bd 9568 61be 6ba3 a53d
00000200: 3864 b33e f860 87be 6959 b53c fcfa b1be
00000210: b691 5bbe f7ed cc3e bcda 983b e027 e13e
00000220: e0e8 a4bd 8244 7ebe db5b 8bbe e105 cf3e
00000230: a005 b4be 5de5 743e 2a43 e73d 6fff 093e
00000240: c7bf 833e 841c f4bd 055b 903e cfed b9be
00000250: f36f 24be fbed aa3e 0ea8 093e 64fc 7abd
00000260: 9bd5 dbbd f6ea 8ebe 840c 8e3e 29a3 66bc
00000270: 5f51 6ebc de3f de3d 3995 ac3e 8beb 6dbe
00000280: d9ee 20be 2a8d 9e3e a7f1 833e fbb2 65be
00000290: 3908 e7be 4fa7 ad3d 3011 763e 4eb2 df3d
000002a0: 13e9 a53e 59a2 b9be dfb5 6b3e 223f 91be
000002b0: c38a 833e f2d1 ad3e e9fb 133e 6c0d bd3e
000002c0: b907 9abe acea d0be e39b e0be 65b6 923e
000002d0: 9c8d 233e 25fa aabe 9c76 623e 6d49 d53e
000002e0: 4d8e e6be 5a80 a93e 20c7 8e3d 2c3d 2e3d
000002f0: c456 d23e b593 d33e 6031 453e a1cc b83e
00000300: 536e 423e 4523 983d 945e cdbe 2d4d ae3d
00000310: f444 a6be fe03 103e ee24 a53d ab19 253c
00000320: 2891 9fbe 00a4 8dbe bf81 ac3e 47ba 623e
00000330: 8be2 763e b53f 0abe 27d0 a2bd 01ce efbd
00000340: a9d6 a03e a4e0 48be 8704 933e f157 a13e
00000350: 2887 d5be 1699 4f3b 0487 b1bd 4d2c 81be
00000360: 1168 4a3e 904b 67bd 550e cc3e 9e20 92be
00000370: 9659 5a3e b1aa c7be d9e0 69be 0f06 fc3c
00000380: 540d b93e c80b 763e 9c36 bfbe edc7 4b3d
00000390: 46ea 89be cceb a63c 5a5b c2be e43f 09be
000003a0: 90c3 a03e 570e d6be 2bdd debe afea a93d
000003b0: 6cff 7b3d 04f7 acbd eec7 cb3e 23ce 8cbe
000003c0: a4ca 8dbe bdd4 aebe 8d47 aebd 1ac4 efbd
000003d0: 9c95 903e 69ac cebc f09b 143e 1676 42be
000003e0: 5182 bd3e b063 c53e 4460 d1be c7fb efbd
000003f0: 2438 c6be 1ab3 463e c219 ccbe 01ef 5cbe

hidden_layers.1.bias f4 [40]
-0.001235561 -0.0009421073 0.00064718624 0.000720321 -0.0002535354 0.0014805685 0.0015987457 0.0019512209
-0.0008493248 0.0029466632 -0.005035803 -0.0013076304 -0.0031660164 -0.00092709635 5.325169e-05 0.00020979682
0.0036162233 -0.0021383208 -0.0005270373 2.2693586e-05 -0.00042040308 0.00047488912 8.322809e-05 -0.0032742172
-0.00048025945 -0.002453734 -0.00069276104 -0.0003516554 0.0002854895 -0.0023946962 -0.00014242987 0.00062106794
0.0010092809 0.0025429223 -0.0017843205 0.00062830833 -0.0010042896 -0.0013284836 -0.0017058922 0.0020589842
00000000: 8cf2 a1ba c0f7 76ba efa7 293a edd3 3c3a
00000010: f2ec 84b9 a30f c23a 018d d13a 1cc0 ff3a
00000020: 39a5 5eba ce1c 413b 6103 a5bb cc64 abba
00000030: f17c 4fbb 6208 73ba 915a 5f38 e8fc 5b39
00000040: 29fe 6c3b 1223 0cbb e028 0aba 1b5e be37
00000050: 8c69 dcb9 8afa f839 be8a ae38 4094 56bb
00000060: 55cb fbb9 d3ce 20bb 689a 35ba 645e b8b9
00000070: c1ad 9539 56f0 1cbb 3a59 15b9 2acf 223a
00000080: d949 843a 28a7 263b dcdf e9ba 0fb5 243a
00000090: 5ea2 83ba 8320 aeba 3e98 dfba 06f0 063b

hidden_layers.2.weight f4 [40, 40]
-0.24692798 -0.11269233 0.05562988 0.38266245 -0.122729406 0.26407096 0.12618446 0.27747765
0.28844208 0.18554415 -0.13765968 -0.1280466 0.17743576 0.24856313 -0.023597954 0.22940932
-0.2746504 0.25711814 -0.056606393 -0.31409034 -0.22243556 -0.34831357 0.092111714 -0.27139062
-0.13132244 -0.02798274 -0.27896094 0.0104869 -0.057697143 0.14486988 0.32919413 -0.2752415
0.24890384 -0.0095310025 -0.26069152 -0.20710957 0.11644352 0.09516557 -0.015547099 -0.22657394
0.22928463 0.06667853 -0.44334394 -0.080865666 -0.12468206 -0.1937377 -0.2533109 -0.37011933
0.44941267 -0.41709286 0.42383495 -0.35864326 -0.109884605 -0.18690294 -0.2455396 0.16173108
0.2650776 -0.29895175 -0.21107887 0.23283292 -0.05452243 0.11043926 0.23827118 -0.16775028
-0.25261694 0.1679306 -0.16711661 -0.30190375 -0.2303426 -0.21277985 0.45556593 0.08722027
0.19803299 0.060293406 -0.30844885 0.32971656 -0.07088731 -0.11827485 0.3724367 -0.23330216
0.09298788 -0.3879472 0.23391342 0.18141492 -0.3750616 0.25437775 0.050344683 -0.23576944
0.38924262 0.19616938 0.160472 -0.16954787 -0.25051892 -0.24570036 0.17199226 0.1232737
-0.27327707 0.41510445 0.2654584 -0.17424636 0.23579243 -0.1932725 0.143323 0.37946734
-0.40408728 -0.22675472 -0.025943628 0.06727011 -0.3752509 -0.30008972 -0.04410965 -0.065609336
0.09796654 0.058230106 0.09384268 0.030159658 0.052532665 -0.026270866 0.16359237 0.31190136
-0.2275659 -0.23630759 0.20085737 -0.32989237 0.29669932 0.21055509 0.06628592 -0.19825926
0.013776231 -0.36058217 -0.41081804 0.42993766 -0.4094214 -0.37896413 -0.17676851 0.026163833
0.10465742 -0.2248457 -0.044528313 -0.10196978 0.38134164 0.39624038 0.18751922 -0.0033386042
0.34178665 -0.3678791 0.19020085 -0.26621947 0.3561858 -0.40331945 0.16929217 -0.37512103
0.26607773 0.08330568 0.39162728 -0.34427378 0.29407668 -0.30447543 -0.24711159 0.174135
-0.07648686 -0.3599668 -0.38850185 -0.118433855 0.12669586 0.40051377 0.33575115 0.0074137906
-0.27992526 -0.40687442 0.4079469 -0.2545378 -0.080592185 -0.36834756 -0.3149958 0.08876998
-0.113032006 0.051944226 -0.0041080117 0.023287904 -0.09070028 -0.017368529 0.19852075 0.33306804
0.38552874 -0.37235093 -0.38585353 -0.06906695 -0.03479069 0.2521242 0.42925152 0.117413715
-0.32478812 -0.05128364 0.29545543 0.16828035 -0.32281512 0.026677798 -0.44090083 -0.18361995
0.3197181 -0.19751985 0.27893206 -0.37209132 0.40389606 0.21713565 0.29601493 0.12451449
0.032453906 -0.22448501 -0.2518154 -0.31341383 0.37689003 -0.15862307 0.011930943 -0.42849445
0.122397706 -0.155848 -0.3657536 0.056526545 -0.42113551 -0.044665895 -0.37265453 0.28782317
-0.36311343 0.07507191 0.22560956 -0.36596373 0.29571068 0.3720551 -0.28039986 0.038549967
0.13768718 0.3782776 0.35686165 -0.3830006 -0.37180492 -0.4034578 -0.20374197 -0.091454424
-0.163513 0.30108154 -0.3147864 -0.36425376 -0.3565251 -0.2697171 0.44705376 0.057598144
-0.07988635 -0.13413443 -0.3494211 -0.15494642 0.24017213 0.3085022 0.32955724 0.03259194
00000000: b0da 7cbe 3ccb e6bd 28dc 633d 55ec c33e
00000010: 8e59 fbbd 4f34 873e 8036 013e 8d11 8e3e
00000020: aeae 933e 49ff 3d3e a9f6 0cbe a61e 03be
00000030: b8b1 353e 5587 7e3e 7f50 c1bc 47ea 6a3e
00000040: fa9e 8cbe fda4 833e 1bdc 67bd 73d0 a0be
00000050: 26c6 63be 2856 b2be 11a5 bc3d b6f3 8abe
00000060: 6479 06be 0f3c e5bc f8d3 8ebe 3fd1 2b3c
00000070: d753 6cbd c558 143e 228c a83e 74ec 8cbe
00000080: a6e0 7e3e ec27 1cbc 5c79 85be 8814 54be
00000090: f179 ee3d 2be6 c23d 42b9 7ebc 0003 68be
000000a0: 97c9 6a3e c18e 883d fafd e2be e69c a5bd
000000b0: 4f59 ffbd 2d63 46be f7b1 81be 4880 bdbe
000000c0: 6b19 e63e 328d d5be e500 d93e 17a0 b7be
000000d0: 2e0b e1bd 7c63 3fbe bc6e 7bbe d59c 253e
000000e0: 40b8 873e 3410 99be 0f25 58be c16b 6e3e
000000f0: e952 5fbd fb2d e23d 5cfd 733e bbc6 2bbe
00000100: 0257 81be 00f6 2b3e 9e20 2bbe 2193 9abe
00000110: eede 6bbe f6e2 59be f03f e93e 8aa0 b23d
00000120: 29c9 4a3e 38f6 763d 02ed 9dbe 9cd0 a83e
00000130: 5e2d 91bd 163a f2bd 06b0 be3e c3e6 6ebe
00000140: 6e70 be3d 04a1 c6be 0087 6f3e d5c4 393e
00000150: 1308 c0be cd3d 823e 3a36 4e3d 8b6d 71be
00000160: cf4a c73e a0e0 483e c652 243e f59d 2dbe
00000170: 0444 80be e098 7bbe bd1e 303e ec76 fc3d
00000180: f9ea 8bbe 9288 d43e 2aea 873e a36d 32be
00000190: 9273 713e 3ae9 45be 44c3 123e 8b49 c23e
000001a0: 87e4 cebe 6432 68be bb87 d4bc e9c4 893d
000001b0: e320 c0be 5ca5 99be 52ac 34bd 305e 86bd
000001c0: aea2 c83d b182 6e3d 9730 c03d 6311 f73c
000001d0: 7e2c 573d 0036 d7bc c284 273e 89b1 9f3e
000001e0: 0907 69be 9efa 71be 8ead 4d3e a7e7 a8be
000001f0: f9e8 973e c19b 573e eac0 873d 7a04 4bbe
00000200: b3b5 613c 3a9e b8be be56 d2be ca20 dc3e
00000210: af9f d1be 9607 c2be ce02 35be 8955 d63c
00000220: a156 d63d f43d 66be 5263 36bd 88d5 d0bd
00000230: 363f c33e 05e0 ca3e 0a05 403e 7ccc 5abb
00000240: a9fe ae3e a65a bcbe 03c4 423e eb4d 88be
00000250: fc5d b63e e37f cebe ed5a 2d3e dd0f c0be
00000260: 573b 883e 2b9c aa3d 5f83 c83e a744 b0be
00000270: 3891 963e 34e4 9bbe d20a 7dbe 7250 323e
00000280: 25a5 9cbd 924d b8be b7e9 c6be 738d f2bd
00000290: 8fbc 013e 2410 cd3e 93e7 ab3e 62ef f23b
000002a0: 5d52 8fbe d851 d0be 6bde d03e c752 82be
000002b0: 840d a5bd 0d98 bcbe 2147 a1be 09cd b53d
000002c0: 537d e7bd 78c3 543d 809c 86bb 46c6 be3c
000002d0: 12c1 b9bd 7248 8ebc 0649 4b3e e587 aa3e
000002e0: 0664 c53e c8a4 bebe 988e c5be f972 8dbd
000002f0: af80 0ebd 6c16 813e dbc6 db3e 9a76 f03d
00000300: a14a a6be cb0e 52bd ef45 973e af51 2c3e
00000310: 0648 a5be 668b da3c c1bd e1be de06 3cbe
00000320: 17b2 a33e a542 4abe 2fd0 8e3e c182 bebe
00000330: 77cb ce3e cf58 5e3e 458f 973e 7401 ff3d
00000340: 63ee 043d 66df 65be f3ed 80be c777 a0be
00000350: bbf7 c03e 166e 22be 007a 433c a063 dbbe
00000360: a6ab fa3d 9e96 1fbe 0e44 bbbe 6188 673d
00000370: 139f d7be 96f3 36bd 93cc bebe 8f5d 933e
00000380: 01ea b9be 4dbf 993d 3106 673e 995f bbbe
00000390: 6467 973e 027e be3e 9290 8fbe 92e6 1d3d
000003a0: defd 0c3e 9aad c13e 92b6 b63e a818 c4be
000003b0: 375d bebe 0592 cebe bca1 50be 754c bbbd
000003c0: f46f 27be 5c27 9a3e af2b a1be 787f babe
000003d0: 758a b6be 5c18 8abe 3be4 e43e 08ec 6b3d
000003e0: 749b a3bd 895a 09be 53e7 b2be 46aa 1ebe
000003f0: afef 753e 00f4 9d3e babb a83e 207f 053d

hidden_layers.2.bias f4 [40]
0.0010147073 0.0010449522 -0.0011801396 0.0012192808 -3.0157218e-05 0.00056990073 -0.0005743737 0.001002845
-0.00051968615 -0.0008101103 0.0006645087 0.0021559312 0.0010720376 -0.0007327997 -0.0024257733 -0.0009836286
0.00013545493 -0.0011490309 0.0013176195 -0.00036724063 0.0011647225 -0.00082505925 0.00019145105 0.00025256124
-0.0020045221 0.00083898555 -0.00032218234 0.0003188307 0.0011186262 5.782235e-05 0.0027174475 0.00015437132
-0.0008303705 0.0003126484 0.0029298328 0.0018994196 0.0013265442 0.0014143788 0.0006514762 -0.0014122975
00000000: edff 843a c7f6 883a eaae 9aba 46d0 9f3a
00000010: 22fa fcb7 6465 153a 9191 16ba e571 833a
00000020: 8c3b 08ba 955d 54ba 6d32 2e3a 864a 0d3b
00000030: 9d83 8c3a 5b19 40ba b9f9 1ebb 19ed 80ba
00000040: e808 0e39 149b 96ba f9b3 ac3a 348a c0b9
00000050: 9aa9 983a ca48 58ba 40c0 4839 326a 8439
00000060: 4d5e 03bb 5eef 5b3a 95ea a8b9 bb28 a739
00000070: de9e 923a 4786 7238 3417 323b bcde 2139
00000080: 39ad 59ba f5ea a339 7002 403b f2f5 f83a
00000090: 70df ad3a ad62 b93a d4c7 2a3a d71c b9ba

hidden_layers.3.weight f4 [40, 40]
0.2280701 -0.22085208 0.16076343 -0.3705276 -0.41387576 -0.26587322 -0.078277044 0.15394863
0.23123477 -0.28885323 -0.093211964 0.15012728 -0.100994855 0.007158061 0.2952989 -0.13118643
0.23535468 0.37061077 0.15215111 -0.08076318 -0.2888211 -0.30190006 -0.0884798 0.14222227
0.24962482 -0.02199391 0.36798406 -0.18103564 0.091043614 -0.2339275 0.12304574 0.38976127
0.160082 0.030724805 -0.16797484 -0.37473658 -0.31229433 -0.39120385 0.32481822 -0.19041918
-0.06838464 -0.40883628 -0.1271185 0.38846123 0.08436393 -0.08184255 0.23811434 0.35153952
0.35470015 -0.33777034 0.0324174 -0.37496245 -0.31470153 0.3501256 -0.363144 -0.2242851
0.21888904 0.44413802 -0.44344795 -0.2944708 -0.17927277 0.35422593 0.26583612 0.28517058
0.29216754 -0.11424606 0.33642006 -0.012675386 0.042828828 -0.12107489 0.19311245 0.20395605
-0.048242796 0.4016367 -0.11819184 0.11585686 0.41480342 0.25701645 -0.16672745 -0.2068351
0.08919245 -0.0039982474 0.033273652 0.29448935 0.16033456 -0.25766554 -0.3722629 0.43141833
-0.051359992 -0.17999817 -0.33754838 0.43896568 0.23169501 -0.29043886 -0.3935102 0.39449358
0.1964743 -0.066032946 -0.37927693 0.27526516 -0.3105456 0.22509502 -0.43428203 -0.4053017
-0.43781146 0.41361186 0.4142499 -0.38854504 0.35260457 -0.27646217 -0.42571622 0.21880315
0.25811157 0.25819448 0.08010451 0.4390167 -0.39340132 0.20933239 -0.14626078 0.02258147
0.31409037 -0.3265032 0.19930501 -0.0913626 0.2948876 -0.010891168 0.22633173 0.43795693
-0.16235003 -0.44957814 0.4321922 -0.25173154 0.10339472 0.28440094 -0.07115036 0.35804474
0.2957682 -0.09251758 0.11959984 0.03549415 0.44693157 0.31560618 -0.30354702 0.043032218
0.2461301 0.34912747 0.15614708 0.19342405 -0.08405045 0.009283229 -0.3150464 0.37633178
0.359858 -0.25104716 -0.39080834 0.3553877 -0.40441662 0.29352736 -0.44364193 -0.2333337
-0.1925862 0.4285169 -0.07674693 0.39375436 0.1325985 0.4416226 0.3023473 0.33641347
0.39780822 -0.13485874 -0.12634055 0.14755821 0.40281484 -0.16820489 -0.35914734 -0.35768396
-0.21094765 0.0733427 -0.05272481 -0.12248537 -0.21348594 0.11856375 -0.37626573 0.44933593
-0.07038413 0.085113466 0.15008688 -0.17720087 0.36022916 -0.002829356 0.03712631 -0.4350787
0.056040518 0.15649329 0.06357919 -0.045040347 0.34431532 0.3602977 0.31389892 -0.07916454
0.080340736 -0.31947544 -0.34022877 -0.079237 0.051870644 -0.26793548 -0.3805444 0.20764437
0.16560227 -0.30175588 0.30083063 -0.3402337 0.34709305 0.2411939 -0.15355697 0.43206656
-0.2563758 -0.20716377 0.36389822 -0.11945906 -0.18517958 0.071413636 -0.07810854 0.28946626
0.3728466 0.20283662 0.097988784 0.11585528 0.01165477 0.05490431 0.0068606692 0.31005105
0.25437057 -0.046521116 0.17236017 0.02639486 0.16092704 0.37310138 -0.31246325 0.064912006
-0.09471631 -0.44640675 -0.4433857 -0.059769243 0.3266267 -0.30108887 0.1486726 0.2632165
-0.33266556 0.19601575 0.085971154 -0.41534972 -0.0085415 -0.428556 0.3989693 0.21379963
00000000: 358b 693e 0c27 62be 2b9f 243e cbb5 bdbe
00000010: 86e7 d3be 8920 88be b74f a0bd b6a4 1d3e
00000020: cfc8 6c3e 92e4 93be eae5 bebd f7ba 193e
00000030: 64d6 cebd 2b8e ea3b 6b31 973e bc55 06be
00000040: d100 713e b2c0 bd3e 80cd 1b3e 2b67 a5bd
00000050: 5ce0 93be a592 9abe e634 b5bd b7a2 113e
00000060: a69d 7f3e 932c b4bc 6868 bc3e 6861 39be
00000070: 1375 ba3d b18a 6fbe 68ff fb3d ca8e c73e
00000080: 89ec 233e 96b2 fb3c 9901 2cbe 79dd bfbe
00000090: 0be5 9fbe df4b c8be 934e a63e 3ffd 42be
000000a0: 3f0d 8cbd fd52 d1be 5a2b 02be 64e4 c63e
000000b0: ffc6 ac3d 119d a7bd 3fd4 733e fdfc b33e
000000c0: 429b b53e 3cf0 acbe 1cc8 043d 14fb bfbe
000000d0: 8f20 a1be aa43 b33e 03ee b9be feaa 65be
000000e0: 7324 603e 0f66 e33e 9c0b e3be e0c4 96be
000000f0: 4893 37be 1a5d b53e ac1b 883e e101 923e
00000100: fc96 953e d7f9 e9bd 403f ac3e 6cac 4fbc
00000110: 486d 2f3d 1df6 f7bd 45bf 453e dbd9 503e
00000120: 3d9a 45bd 53a3 cd3e 900e f2bd 5d46 ed3d
00000130: 1d61 d43e a997 833e 9aba 2abe 95cc 53be
00000140: 88aa b63d bb03 83bb f449 083d 4fc7 963e
00000150: be2e 243e bdec 83be 3e99 bebe dde2 dc3e
00000160: db5e 52bd 7151 38be 24d3 acbe 1cc0 e03e
00000170: 7541 6d3e 67b4 94be 2b7a c9be 10fb c93e
00000180: 8f30 493e 483c 87bd 9630 c2be 8eef 8c3e
00000190: d5ff 9ebe 4f7f 663e 375a debe b483 cfbe
000001a0: d328 e0be efc4 d33e 9018 d43e 60ef c6be
000001b0: 9688 b43e 738c 8dbe 7af7 d9be ef0d 603e
000001c0: 3327 843e 1132 843e d50d a43d ccc6 e03e
000001d0: e66b c9be 3b5b 563e 63c5 15be c6fc b83c
000001e0: 74d0 a03e 6d2b a7be 9d16 4c3e 511c bbbd
000001f0: 82fb 963e df70 32bc 81c3 673e e43b e03e
00000200: 163f 26be 1b2f e6be 4c48 dd3e f5e2 80be
00000210: 9cc0 d33d 009d 913e 48b7 91bd a451 b73e
00000220: ee6e 973e db79 bdbd c3f0 f43d 5062 113d
00000230: 37d4 e43e 2297 a13e 846a 9bbe 8d42 303d
00000240: 8709 7c3e d6c0 b23e 05e5 1f3e f410 463e
00000250: a422 acbd af18 183c c34d a1be 8fae c03e
00000260: 4f3f b83e 4189 80be 0818 c8be 60f5 b53e
00000270: b20f cfbe 3849 963e 0925 e3be 08ef 6ebe
00000280: 5135 45be 9166 db3e 7f2d 9dbd 2c9a c93e
00000290: e7c7 073e 5c1c e23e 44cd 9a3e 633e ac3e
000002a0: 85ad cb3e 6918 0abe 6b5f 01be 8019 173e
000002b0: bf3d ce3e e73d 2cbe 29e2 b7be 5a22 b7be
000002c0: a902 58be b334 963d f8f5 57bd 9cd9 fabd
000002d0: 0f9c 5abe 8dd1 f23d e7a5 c0be 5c0f e63e
000002e0: 8e25 90bd f84f ae3d 60b0 193e 2574 35be
000002f0: f56f b83e b76c 39bb c211 183d a3c2 debe
00000300: be8a 653d c73f 203e ce35 823d 3a7c 38bd
00000310: 194a b03e f178 b83e 5cb7 a03e 0521 a2bd
00000320: af89 a43d 4992 a3be 7732 aebe 0247 a2bd
00000330: 5076 543d d72e 89be b7d6 c2be baa0 543e
00000340: a493 293e bf7f 9abe 7906 9a3e 1d33 aebe
00000350: 2eb6 b13e 89fb 763e 0a3e 1dbe d437 dd3e
00000360: b043 83be bd22 54be de50 ba3e f4a6 f4bd
00000370: b79f 3dbe 5041 923d 5ff7 9fbd ec34 943e
00000380: c0e5 be3e 67b4 4f3e 58ae c83d 8845 ed3d
00000390: a6f3 3e3c 57e3 603d 77cf e03b 03bf 9e3e
000003a0: dc3c 823e ed8c 3ebd 2f7f 303e 093a d83c
000003b0: 0fca 243e 2507 bf3e 2ffb 9fbe 96f0 843d
000003c0: a0fa c1bd 6d8f e4be 7303 e3be 98d0 74bd
000003d0: 9d3b a73e 5228 9abe a13d 183e 50c4 863e
000003e0: 2453 aabe 5ab8 483e a511 b03d b8a8 d4be
000003f0: a6f1 0bbc b16b dbbe b445 cc3e 4aee 5a3e

hidden_layers.3.bias f4 [40]
-0.00041133273 -0.0008717922 0.0006837106 -0.00023968228 0.0008152252 0.0011655334 0.0006036512 0.00049200933
-0.00043512488 0.00022561291 0.00038694183 -0.000515 0.0014027935 -0.0003004947 -0.002045134 0.00021069201
-0.0003932619 -0.0008400727 0.00053407886 -0.0005511355 0.0013300644 0.0009344788 0.0006528666 -0.0015427158
0.00059299724 0.00021215565 -0.00018643048 0.00090581225 -0.0001007684 0.00012966346 -0.0012461466 0.00014545042
-0.0019296717 -0.00050328264 0.00038429082 -0.0012225012 -0.0006000478 -0.0010385523 -0.0004238787 0.0019013779
00000000: 25a8 d7b9 fc88 64ba 0b3b 333a 3953 7bb9
00000010: d6b4 553a d0c4 983a 593e 1e3a 30fa 003a
00000020: 7921 e4b9 8192 6c39 74de ca39 1101 07ba
00000030: f0dd b73a b78b 9db9 a807 06bb 35ed 5c39
00000040: b82e ceb9 5338 5cba 6d01 0c3a 147a 10ba
00000050: 8e55 ae3a d0f7 743a 2325 2b3a f434 caba
00000060: 5f73 1b3a 1976 5e39 8d7c 43b9 0874 6d3a
00000070: 9f53 d3b8 45f6 0739 be55 a3ba 0d84 1839
00000080: 0aed fcba baee 03ba a47a c939 553c a0ba
00000090: 874c 1dba 0820 88ba 093c deb9 a837 f93a

hidden_layers.4.weight f4 [40, 40]
-0.056131255 0.44669473 0.28287402 -0.36882976 -0.025678182 0.29040894 -0.19562168 -0.057427354
0.22759041 0.3832654 0.4146469 -0.32904738 -0.43037748 0.32211137 -0.03564495 0.41247597
0.32419038 -0.17835204 0.13101837 0.15347645 -0.16371757 0.40979704 0.037217174 -0.14950688
-0.41774195 0.3656457 -0.45258147 0.34708858 -0.15987231 -0.08408939 0.061521817 0.44864523
-0.30049485 -0.32379252 0.27406624 -0.2217698 -0.1681871 0.26335528 -0.18865871 0.27198157
-0.17807631 0.351063 0.45484877 0.06327855 -0.151825 0.25650346 0.12742889 0.0017593817
0.40727827 -0.026821725 0.1607357 -0.13549194 -0.08306521 -0.019922178 0.030514367 0.19981146
0.3444092 0.27954608 -0.1918325 0.40892088 0.30808854 0.16418259 0.049482852 -0.2585555
-0.27297783 0.0024699937 -0.33937225 0.15973105 -0.41449082 -0.40738422 -0.20524824 0.26250628
0.35746855 -0.38340244 -0.28858832 0.101259775 -0.08332776 -0.3744642 0.12733635 -0.3798319
0.028552638 0.18605891 0.42108423 -0.38948533 0.34085733 0.06342975 0.39735505 0.4492002
-0.113821924 -0.07125019 -0.110259645 0.35913768 -0.19774891 0.3013488 0.18765871 0.42923564
0.32331884 0.37033162 -0.37513274 -0.2403103 -0.32391486 0.22649235 0.09272983 0.17389818
0.17110148 0.019365905 0.17423339 -0.24763656 0.2964864 -0.39308545 -0.4194848 0.15496773
0.42854428 -0.16689935 0.4298378 -0.16202936 -0.34689173 -0.07111431 0.2526363 -0.23754673
0.42802984 -0.20410563 -0.20207042 -0.190112 -0.3476775 0.42585567 -0.25781536 -0.2052871
-0.13829423 0.3843164 0.2128173 0.1678986 -0.11994912 0.230768 0.08286291 0.36358297
0.1012927 0.33505347 0.31494653 0.079791114 -0.43731278 0.09296009 -0.3443133 0.07849847
-0.05092235 0.36310276 -0.32764632 -0.38149616 0.20344642 0.30148983 -0.099300854 0.1235573
0.3663078 0.04531165 -0.12749527 0.2639305 0.41141438 -0.077349 0.30954996 0.038046386
-0.09601633 -0.03970671 -0.44287914 0.21913868 -0.2484396 -0.38886663 -0.063189976 -0.18628286
-0.29007888 -0.09679631 -0.048562862 0.13872746 0.062404253 -0.060804456 0.10051017 -0.2954293
0.38602304 0.22284076 0.28862122 -0.40763295 0.31161556 0.08011922 -0.44161934 0.4333687
-0.00970206 0.087316975 0.37801382 0.2939737 0.4056203 -0.42610174 0.45081735 0.11091163
0.006231915 -0.35855305 -0.24584185 0.44318944 0.3394021 0.35550794 -0.03777543 -0.25418788
0.106664896 -0.21738766 -0.29741305 0.14729232 0.3577603 -0.3495507 -0.40304315 0.062254567
-0.1609058 -0.24329008 -0.09402341 -0.027437974 -0.12603605 0.3386077 0.2533734 0.14303187
-0.14654797 -0.040160947 0.29559425 0.03818702 -0.43981665 0.044077944 0.23958153 -0.11653442
-0.08388847 -0.06234407 0.28027856 0.37754795 -0.35800257 0.3015792 0.18729542 0.15993722
-0.2593796 -0.26122004 0.45382348 0.116912015 -0.101248845 -0.09152077 0.30448627 -0.11390938
0.3084181 -0.12932843 0.10759986 0.12015086 -0.23403192 0.01186215 0.09156259 -0.44583234
-0.08992948 0.04415539 0.37534398 0.10004294 -0.38740358 -0.13319062 0.45234063 -0.059915744
00000000: e3e9 65bd 2cb5 e43e ddd4 903e 41d7 bcbe
00000010: 0d5b d2bc 7bb0 943e 0d51 48be f238 6bbd
00000020: 760d 693e 5d3b c43e 994c d43e e678 a8be
00000030: 705a dcbe c8eb a43e 7000 12bd 0d30 d33e
00000040: 48fc a53e eba1 36be ae29 063e ee28 1d3e
00000050: 94a5 27be ebd0 d13e 0971 183d 5518 19be
00000060: 46e2 d5be ea35 bb3e c2b8 e7be 98b5 b13e
00000070: 91b5 23be 0f37 acbd 4dfe 7b3d d4b4 e53e
00000080: 76da 99be 22c8 a5be 6952 8c3e 9f17 63be
00000090: 3d39 2cbe 81d6 863e c02f 41be 2b41 8b3e
000000a0: a359 36be 88be b33e f0e1 e83e 2f98 813d
000000b0: 0378 1bbe 6c54 833e b87c 023e 0e9b e63a
000000c0: c786 d03e 3cb9 dbbc e697 243e 66be 0abe
000000d0: 181e aabd d633 a3bc 44f9 f93c 609b 4c3e
000000e0: 6756 b03e aa20 8f3e bd6f 44be 145e d13e
000000f0: c8bd 9d3e 7b1f 283e 88ae 4a3d 6361 84be
00000100: c0c3 8bbe 9edf 213b 33c2 adbe 8990 233e
00000110: 2438 d4be aa94 d0be 982c 52be 3967 863e
00000120: 1e06 b73e 534d c4be d9c1 93be 4961 cf3d
00000130: bfa7 aabd c6b9 bfbe 7664 023e 5479 c2be
00000140: 39e7 e93c 3a86 3e3e 5a98 d73e 9f6a c7be
00000150: da84 ae3e 75e7 813d 1f72 cb3e 92fd e53e
00000160: 781b e9bd 9feb 91bd cfcf e1bd e5e0 b73e
00000170: b17e 4abe 644a 9a3e 9b29 403e c6c4 db3e
00000180: 0c8a a53e 1b9c bd3e 6611 c0be e713 76be
00000190: 2bd8 a5be 9ced 673e 23e9 bd3d 5d12 323e
000001a0: 3a35 2f3e 3fa5 9e3c 3d6a 323e 7094 7dbe
000001b0: 11cd 973e 7f42 c9be b6c6 d6be dcaf 1e3e
000001c0: 286a db3e aae7 2abe b313 dc3e 06eb 25be
000001d0: cb9b b1be 61a4 91bd 8c59 813e 733f 73be
000001e0: ba26 db3e 1101 51be 8ceb 4ebe b8ac 42be
000001f0: c902 b2be c109 da3e 6000 84be c836 52be
00000200: 019d 0dbe 1fc5 c43e c7ec 593e 9ced 2b3e
00000210: e2a7 f5bd 724e 6c3e 08b4 a93d 8c27 ba3e
00000220: 8c72 cf3d 218c ab3e ac40 a13e 8669 a33d
00000230: 76e7 dfbe dc61 be3d d549 b0be cec3 a03d
00000240: f493 50bd 9be8 b93e 42c1 a7be 7753 c3be
00000250: 4254 503e e05c 9a3e 3f5e cbbd 9c0b fd3d
00000260: b28c bb3e b598 393d 1f8e 02be e621 873e
00000270: e8a4 d23e 2769 9ebd 557d 9e3e 87d6 1b3d
00000280: 36a4 c4bd 81a3 22bd 0ec1 e2be e465 603e
00000290: f366 7ebe 8719 c7be bf69 81bd efc0 3ebe
000002a0: 3885 94be 253d c6bd dae9 46bd 920e 0e3e
000002b0: 9a9b 7f3d 180e 79bd 47d8 cd3d 8242 97be
000002c0: d0a4 c53e 5e30 643e 29c6 933e 44b5 d0be
000002d0: 138c 9f3e 8c15 a43d ee1b e2be 81e2 dd3e
000002e0: 64f5 1ebc 3ed3 b23d 078b c13e b983 963e
000002f0: 77ad cf3e 022a dabe 88d1 e63e a325 e33d
00000300: 1835 cc3b 4494 b7be f7bd 7bbe bae9 e23e
00000310: 1dc6 ad3e 2305 b63e 69ba 1abd ea24 82be
00000320: 2073 da3d df9a 5ebe 8646 98be ccd3 163e
00000330: 5c2c b73e 4ff8 b2be ac5b cebe a5fe 7e3d
00000340: 7dc4 24be 0921 79be 588f c0bd 9ac5 e0bc
00000350: 980f 01be fd5d ad3e 29ba 813e f276 123e
00000360: ac10 16be ce7f 24bd 2158 973e fe69 1c3d
00000370: a62f e1be 138b 343d dc54 753e 99a9 eebd
00000380: b8cd abbd 7f5c 7fbd ac80 8f3e f74d c13e
00000390: 1d4c b7be 9768 9a3e 5fca 3f3e 95c6 233e
000003a0: 67cd 84be a2be 85be 8d5b e83e 916f ef3d
000003b0: 8e5b cfbd 3e6f bbbd a0e5 9b3e 5249 e9bd
000003c0: fae8 9d3e ac6e 04be 515d dc3d a711 f63d
000003d0: 10a6 6fbe 7759 423c 2b85 bb3d 2344 e4be
000003e0: f22c b8bd 48dc 343d 162d c03e 50e3 cc3d
000003f0: c359 c6be 1f63 08be 3199 e73e 366a 75bd

hidden_layers.4.bias f4 [40]
0.00017769147 0.00025309055 -1.6476853e-05 -0.00029987647 -0.0011793817 -0.00016266841 -4.5570738e-05 0.00027981313
-0.00021746001 -0.0004269035 -0.00020529561 -0.00043330182 0.00078001607 -7.214717e-05 0.00056395074 5.1224928e-05
-0.0006119877 -0.0006175123 -0.00027064251 -0.00038627457 0.0014006929 0.00046689878 6.595463e-05 -7.8727535e-06
0.0002700938 0.00016981759 0.0011360428 0.00039827407 -0.0014518655 0.00040847904 0.0008441715 6.701207e-05
-0.00045154462 0.00042877276 -0.00020795135 0.00011690727 -0.00047177006 0.00058124826 -0.0004912763 0.00029575115
00000000: b152 3a39 3db1 8439 c637 8ab7 bd38 9db9
00000010: 7c95 9aba f891 2ab9 3523 3fb8 e2b3 9239
00000020: fa05 64b9 05d2 dfb9 9f44 57b9 c92c e3b9
00000030: fe79 4c3a b84d 97b8 18d6 133a 59da 5638
00000040: cd6d 20ba 8de0 21ba 06e5 8db9 e584 cab9
00000050: 7497 b73a 18ca f439 1f51 8a38 3815 04b7
00000060: 609b 8d39 1011 3239 45e7 943a 71cf d039
00000070: 864c beba 2129 d639 644b 5d3a d588 8c38
00000080: 4bbd ecb9 e8cc e039 840d 5ab9 1d2c f538
00000090: e857 f7b9 e95e 183a ffc8 00ba 0c0f 9b39

hidden_layers.5.weight f4 [40, 40]
0.20216689 -0.1803353 -0.3687262 -0.2703686 0.20709677 0.099646725 0.057598975 -0.277121
-0.21479584 -0.19240825 -0.057927396 -0.087610185 0.04816411 -0.15227757 -0.052679196 -0.2906834
0.22450964 -0.3790132 0.083538465 -0.4347206 -0.26032743 0.44035485 -0.08606833 -0.08460633
0.2348494 -0.39358076 -0.1054738 -0.014757758 0.051696096 -0.07533896 -0.32086408 -0.41943005
0.004759982 0.37996942 -0.20445682 0.058072064 0.29077113 -0.445214 0.40351194 0.38652223
-0.20029385 0.39745644 0.31135875 0.37821922 0.39573696 0.10442971 0.25013888 -0.24451596
0.07661398 0.43774903 -0.1573377 0.10598717 -0.2332606 0.16840363 0.14756832 0.3441051
0.0013459693 0.21828605 0.27704743 0.0730194 -0.4307042 0.3225034 -0.29299983 0.2105483
-0.342247 0.13313404 -0.08577342 -0.4088516 0.20876418 -0.106028944 -0.18871616 -0.14310081
0.31021795 0.26688534 0.12475165 0.19140223 0.23513621 0.18972334 0.38823634 0.27588668
-0.23472734 -0.06937798 0.21306409 0.36351803 -0.37943092 -0.2262202 -0.22609706 0.43116733
0.44801795 -0.20413446 -0.14101185 0.008748948 0.026761504 -0.12992115 -0.33251777 -0.24280344
-0.03752958 0.049209803 0.017433878 -0.4189384 0.40415514 -0.2653629 -0.111436486 0.42376718
0.003250505 -0.3648866 0.26310685 -0.17168997 0.442323 -0.13257898 -0.34168804 -0.33899415
0.002542846 -0.0729226 0.3551751 0.027222682 -0.27464166 0.050808314 -0.33749098 0.067699
0.1205471 -0.43044683 -0.3122962 -0.22943312 -0.15956469 -0.08296195 0.19128796 -0.36034727
0.23599714 -0.31638113 0.4008764 -0.26066425 -0.3491698 0.32701457 0.37111694 -0.15467413
0.40005964 0.051470213 0.16565225 -0.026921298 -0.12462031 -0.16527823 -0.39150417 0.33298537
0.24167168 0.41474363 -0.44877288 0.45095265 0.30451182 0.12454922 -0.1957798 0.32188353
0.29271996 0.39266434 -0.37672082 0.0693666 0.16446629 -0.44893417 0.4271228 0.28507683
-0.3669693 -0.39155555 0.018690366 0.36609 0.13234335 0.06420428 -0.029028885 -0.4534472
0.2749135 0.29061973 -0.32123727 -0.08331735 0.44417167 -0.17484954 -0.31287467 0.26068288
0.2112765 0.39304176 -0.19607772 0.11148572 0.10936493 0.3716797 0.25610334 0.10731137
-0.064344846 -0.08143805 -0.24614136 0.19187722 0.38870484 -0.23271689 -0.31234738 0.34014067
0.061734192 -0.21466763 0.29508367 -0.37193656 -0.2245649 -0.14656562 -0.014285351 0.09655843
0.21859626 -0.1592798 -0.044124134 -0.23762213 -0.3002016 0.09966511 0.33668345 0.39394706
-0.35620904 0.21607023 -0.14074528 -0.022405606 -0.019138642 0.39436707 0.38274685 -0.36932492
0.09932712 0.2667886 0.12231594 -0.010459083 -0.21532574 -0.32165378 -0.44900617 -0.008490639
-0.17576472 0.10766125 -0.19286019 0.37919217 -0.32214013 0.40511146 -0.18129842 0.07102818
-0.16743346 0.19275676 0.3601532 0.42665836 -0.31632426 0.31299192 0.3020231 -0.37474415
0.1844148 0.08819668 0.25050783 0.3998195 0.010460803 -0.16894229 -0.20577167 0.058936093
-0.06699394 -0.32692978 0.0127649335 0.26131782 0.015132271 0.2869331 -0.17244953 0.3579098
00000000: d604 4f3e d1a9 38be aec9 bcbe c16d 8abe
00000010: 2d11 543e 9513 cc3d e7ec 6b3d cee2 8dbe
00000020: 71f3 5bbe ab06 45be 4745 6dbd f86c b3bd
00000030: bb47 453d a7ee 1bbe 24c6 57bd 74d4 94be
00000040: dbe5 653e 050e c2be 3716 ab3d b393 debe
00000050: a349 85be 3176 e13e 9844 b0bd 1546 adbd
00000060: 5c7c 703e 6b83 c9be a602 d8bd 86ca 71bc
00000070: 49bf 533d 504b 9abd 4c48 a4be 89bf d6be
00000080: a0f9 9b3b 5a8b c23e 215d 51be f9dc 6d3d
00000090: f4df 943e 17f3 e3be 1e99 ce3e 3ee6 c53e
000000a0: d519 4dbe 697f cb3e 6a6a 9f3e f3a5 c13e
000000b0: 099e ca3e 3edf d53d 3412 803e 6462 7abe
000000c0: cae7 9c3d a420 e03e 221d 21be cd0f d93d
000000d0: dedb 6ebe 0072 2c3e 261c 173e 8b2e b03e
000000e0: 3c6b b03a 6186 5f3e 29d9 8d3e 328b 953d
000000f0: 4385 dcbe 2a1f a53e 1304 96be f999 573e
00000100: 003b afbe 4a54 083e faa9 afbd ff54 d1be
00000110: 47c6 553e b425 d9bd cf3e 41be 0589 12be
00000120: e3d4 9e3e 32a5 883e cb7d ff3d f2fe 433e
00000130: 8cc7 703e d646 423e eac6 c63e 0541 8d3e
00000140: 5d5c 70be 0b16 8ebd 792d 5a3e 091f ba3e
00000150: c544 c2be 45a6 67be fd85 67be f7c1 dc3e
00000160: 9c62 e53e a008 51be 6965 10be bf57 0f3c
00000170: f13a db3c 0d0a 05be c53f aabe 77a1 78be
00000180: 9eb8 19bd 3890 493d 7ed1 8e3c 187f d6be
00000190: 6ced ce3e a5dd 87be d038 e4bd 03f8 d83e
000001a0: 6d06 553b 6bd2 babe f1b5 863e 7fcf 2fbe
000001b0: 2978 e23e c9c2 07be bcf1 aebe a490 adbe
000001c0: e0a5 263b 7258 95bd 83d9 b53e 1a02 df3c
000001d0: d59d 8cbe 611c 503d 9ecb acbe c6a5 8a3d
000001e0: 66e1 f63d 8763 dcbe 4ae5 9fbe 84f0 6abe
000001f0: ed64 23be f4e7 a9bd fee0 433e 707f b8be
00000200: 3ca9 713e b5fc a1be ac3f cd3e c975 85be
00000210: 62c6 b2be 746e a73e 0a03 be3e e562 1ebe
00000220: 9ed4 cc3e 6ed2 523d bea0 293e 0e8a dcbc
00000230: ef38 ffbd b23e 29be 3c73 c8be 0f7d aa3e
00000240: c878 773e 4759 d43e 8fc5 e5be 44e3 e63e
00000250: f9e8 9b3e a913 ff3d 807a 48be ebcd a43e
00000260: 64df 953e 4d0b c93e 8de1 c0be 1310 8e3d
00000270: da69 283e b3da e5be d7af da3e 97f5 913e
00000280: 66e3 bbbe f879 c8be 8a1c 993c 2670 bb3e
00000290: 0485 073e 897d 833d fccd edbc 3b2a e8be
000002a0: 76c1 8c3e 1ccc 943e 3679 a4be 49a2 aabd
000002b0: 786a e33e c20b 33be 1c31 a0be 3a78 853e
000002c0: de58 583e c53c c93e 99c8 48be a052 e43d
000002d0: b8fa df3d cd4c be3e fa1f 833e 10c6 db3d
000002e0: 3bc7 83bd fec8 a6bd 7b0c 7cbe 767b 443e
000002f0: 5204 c73e 564d 6ebe ffeb 9fbe eb26 ae3e
00000300: fedc 7c3d d5d1 5bbe 3515 973e 786e bebe
00000310: 57f4 65be 4c15 16be 1b0d 6abc 6dc0 c53d
00000320: b3d7 5f3e 3e1a 23be 82bb 34bd 3753 73be
00000330: 06b4 99be 391d cc3d c661 ac3e 6eb3 c93e
00000340: 0861 b6be 8441 5d3e 881f 10be f68b b7bc
00000350: a4c8 9cbc 7bea c93e 65f7 c33e 2818 bdbe
00000360: 046c cb3d 8498 883e c880 fa3d 935c 2bbc
00000370: 5a7e 5cbe ceaf a4be 23e4 e5be 521c 0bbc
00000380: abfb 33be 807d dc3d 247d 45be 7a25 c23e
00000390: 8def a4be c56a cf3e 4ba6 39be 3977 913d
000003a0: ad73 2bbe 0762 453e 0066 b83e f772 da3e
000003b0: 41f5 a1be 7a40 a03e c6a2 9a3e 77de bfbe
000003c0: 3cd7 3c3e 76a0 b43d 9042 803e 24b5 cc3e
000003d0: ca63 2b3c 35ff 2cbe cfb5 52be f966 713d
000003e0: 1e34 89bd 5763 a7be 0324 513c 73cb 853e
000003f0: 58ed 773c e5e8 923e 9c96 30be f43f b73e

hidden_layers.5.bias f4 [40]
-0.00082632614 -0.0010662162 0.00025376858 -0.00024090418 -0.0002725313 0.0007602308 -0.00036214927 0.00064072676
0.0002579515 0.00047389933 0.00022831178 0.00028889277 0.0006448633 3.2102165e-05 0.0006115916 0.00050440704
7.281326e-05 -0.00026225593 0.00021170011 -0.00031440926 0.00058387354 0.00021942962 0.00061772286 0.00029181121
-0.00017526982 -0.0002142799 7.934331e-06 0.00019196198 -0.0003604832 0.0005929192 0.0005087846 0.00013567724
-5.9292302e-05 -0.00014353592 7.622091e-06 0.00023227351 -0.00041617858 1.1225748e-05 -0.000475187 0.0004234032
00000000: cf9d 58ba 47c0 8bba 3e0c 8539 399b 7cb9
00000010: 88e2 8eb9 3a4a 473a dade bdb9 72f6 273a
00000020: aa3d 8739 b175 f839 fa66 6f39 8876 9739
00000030: 0b0c 293a 70a5 0638 3853 203a 2f3a 043a
00000040: 52b3 9838 657f 89b9 d1fb 5d39 4cd7 a4b9
00000050: 170f 193a b116 6639 aeee 213a 3dfe 9839
00000060: a2c8 37b9 53b0 60b9 b11d 0537 6749 4939
00000070: 3cff bcb9 226e 1b3a f55f 053a 9544 0e39
00000080: a0b0 78b8 2182 16b9 43c1 ff36 728e 7339
00000090: 8b32 dab9 3856 3c37 8522 f9b9 37fc dd39
