Task1/models/model_cluster-11_06_2022-15_15_32.pth (torch, 10625 bytes, 12 tensors)

input_layer.weight f4 [20, 1]
00000000: e0ba 89c0 4385 51bf 2b81 9840 d34c b5bf
00000010: 8975 763f 0642 60c0 1b6d 2cc0 13f5 b5bf
00000020: 6fb4 413f 84be 0b40 ed82 41c0 f777 b1be
00000030: 1236 243f 8712 aebf 71dd 8640 a288 72c0
00000040: 4ced d3be 4429 11bf 8151 d63d 9bd3 0940
-4.304062 -0.81843966 4.7657676 -1.416407 0.96273094 -3.5040298 -2.6941593 -1.4215416
0.75665945 2.1835032 -3.023616 -0.34661838 0.64145005 -1.3599404 4.2145314 -3.7895894
-0.4139198 -0.5670359 0.104647644 2.1535404

input_layer.bias f4 [20]
00000000: 26db 5d40 0c13 133f 8972 27bf b9b2 323f
00000010: ca1e b83f e41a f73f 0ea4 873f 2783 683f
00000020: 3434 773f 7bb8 c83f ac6f 4d3f 087e 08c0
00000030: 3866 10c0 45cf 6440 db68 40c0 c7ca 2b40
00000040: 6a2a d6bf 9637 aa3e b44a bebf 0f77 1240
3.4665008 0.5745094 -0.6540914 0.6980396 1.4384396 1.9305081 1.059694 0.9082512
0.9656403 1.5681299 0.8024852 -2.1326923 -2.256239 3.5751507 -3.0063999 2.6842515
-1.6731694 0.33245534 -1.4866548 2.2885168

hidden_layers.0.weight f4 [20, 20]
00000000: 9810 993f bd83 19bf b4d7 67bf 8ef4 283f
00000010: c0cd 86bf 73c5 b03e a294 dcbc 4638 183f
00000020: c75f bbbe a003 77bf c499 473d 32a7 20bd
00000030: 4887 6dbe ddc4 1dbe bd91 f1be fe15 ecbc
00000040: fa88 253f 81c7 8abe 7998 7ebe 1b98 27bf
00000050: b327 1c40 b01d ce3e 3be5 b7bf ea5c de3f
00000060: 1e74 bbbe 016e f63f 56fb 0440 3e55 d73f
00000070: a80b 503d 4cf6 50bf f7db 8a3f d84a 9d3d
00000080: 2f28 04bf 1b73 4f3f 0665 bfbf 112e db3f
00000090: 4e8a 4b3e a8d0 533f 41c8 f6be 1ca0 07bf
000000a0: 53b0 7fbd 311d 99be 6897 603f b2d6 c2bd
000000b0: 343c 163f 09d6 5f3d 8645 8abf 8f37 69bf
000000c0: 25af af3d 3d0d 433d 8337 dfbe c841 e53d
000000d0: ebdc d33e 7def c7be 555d d43e ed00 6ebc
000000e0: 7c48 263f a1cb 853d fb12 4a3e ecb4 8b3e
000000f0: a370 e1bf 0b23 2dbe 4f59 9f3f 389e 45bf
00000100: e60f 303f ca43 d9bf 9ae9 ffbf 5caa 96bf
00000110: 5b4f 143d 40eb 053f 2c9f 02bf 5b5f 1ebb
00000120: bba1 e93e 2edf 5dbf ebb6 913f c89b b6bf
00000130: 63fc 44bf 221b 00bf 7c00 ee3d ac58 903f
00000140: aa10 8e3f 9080 93bc 921a cd3e 8c6d 6d3f
00000150: c929 6ebd f83a 883f f142 2e3f 6c18 893e
00000160: c537 0a3f 458a 893c 0786 433f 763a 4dbe
00000170: dc41 55be 7834 5c3e c7ad 74bf 805e 733f
00000180: 98f3 bb3d 152f 073e 8f90 c1be df67 803e
00000190: f8f8 5e3f ffe4 323f 15e0 eabd 5338 f2be
000001a0: b973 81bc 253d a13e 4b99 a7be 801b e6be
000001b0: 9aff cbbe e6ae 5ebd a96f 3b3f 2f78 3bbf
000001c0: 693d 23be 83d4 c6be 0a01 1f3d 6398 25be
000001d0: 08ac 593e a877 dbbe 4f35 a7be f07c dbbe
000001e0: 04f3 95bf eb5f 103f 8253 e93e 5997 52be
000001f0: 9105 a6bd 7a76 3bbf ae7a edbe ac83 11bf
00000200: afed 62be 23eb 993e db98 a73e d244 e1be
00000210: 449e c2be 25e4 443e 4c4d 9d3d 58ec 49bf
00000220: 1db6 59be ad27 263e 4a0a c63e 2834 ee3e
00000230: 354d 80be 8d3a 3a3d 9553 9e3e c94d 1a3f
00000240: b621 58bf 0f4c 563f f7bd 813f 002c 843d
00000250: 06f8 053e b9ad ff3e 0432 8dbe 5186 cebe
00000260: b880 b5bc b510 c43e 0dcc 3fbf 506e 033f
00000270: 4f90 46bf 6544 003f 6307 2cbf 872b 98bd
00000280: a525 703f a0dd d5be 280b bdbf 8cc3 593f
00000290: fc21 5abf 6b3f e43e bfb2 ee3e de0e 703f
000002a0: c6c2 7a3e e0c4 f1be f4b9 5dbc e494 aa3f
000002b0: ef77 813f 9778 c13e 8567 17bf 9502 5b3f
000002c0: 2e44 2c3e 67d8 b23d 9a73 633f bf6f aebf
000002d0: f2d7 e0bf 95a0 043f b7ce 8b3f dd14 eabf
000002e0: 3aa8 213f bbbe 62bf 67a8 3ebf 3fd2 68bf
000002f0: 23a0 22be cb30 b03f e806 66bf 6ee4 d3bf
00000300: 6c88 49bf bb8b d8bd 4690 4f3f 0c99 8dbf
00000310: 4643 dabe 2310 b0be 62b6 87be 96d4 c13e
00000320: 001a 963f a406 c73e 6699 4ebe 3cfe 7a3f
00000330: 19fe c2be 382d 99be a7ad ddbc bd6b fd3e
00000340: b885 23bf a81c 22bf f88d 373f 87af 913f
00000350: b70c aebd 75b7 28bf 6032 69bd cbfd 7bbe
00000360: 53cf 123f e03b 60be f30a 333f 815a 72bc
00000370: 1ed5 fb3f add3 5bbf 3918 14c0 7e9b 863f
00000380: 75db 0cc0 b5d5 4a3f 2c6a fa3f cf1c 0c40
00000390: f05b 5b3e 7b51 efbf 9054 3b3f ab74 d83f
000003a0: a525 453f 84d6 74be 2753 0cbe 48d5 2c3f
000003b0: 10dc 4f3f cdb5 093f 906b 523f 3032 04c0
000003c0: 5052 ab3f 0e14 03bf 1861 83bf 2812 753f
000003d0: 28a9 5cbf d873 933f c08d 693f ba3d f93e
000003e0: 41d8 00be 4914 a3bf 8f50 f23c 4766 8d3f
000003f0: dc52 4e3d 65fc bfbe 5631 a8be 009f 3abe
1.1958189 -0.5996664 -0.9056351 0.6599816 -1.053154 0.34525642 -0.026926342 0.59460866
-0.3659651 -0.96489906 0.048730627 -0.03922195 -0.23196137 -0.15407129 -0.47181502 -0.02881908
0.64662135 -0.27105334 -0.24862851 -0.6546647 2.439923 0.40257025 -1.436683 1.7372105
-0.36612028 1.925232 2.0778403 1.6822889 0.050792366 -0.8162582 1.0848378 0.07680291
-0.51623815 0.8103501 -1.4952705 1.7123433 0.19876978 0.8274026 -0.48199657 -0.5297868
-0.062424015 -0.29905084 0.8773103 -0.09513606 0.5868561 0.05464748 -1.0802467 -0.911004
0.08578328 0.047620047 -0.4359704 0.111941874 0.41379485 -0.39049903 0.41477457 -0.014526588
0.6495435 0.0653298 0.19733803 0.2728647 -1.7612499 -0.16907899 1.244913 -0.7719455
0.6877426 -1.6973813 -1.9993165 -1.177074 0.03620849 0.5231209 -0.51024127 -0.0024165723
0.45631203 -0.8666867 1.1383947 -1.4266291 -0.7694761 -0.500414 0.11621186 1.127706
1.1098835 -0.01800564 0.40059334 0.9274528 -0.05814532 1.0642996 0.68070894 0.26776445
0.5399135 0.016789565 0.76376384 -0.20041832 -0.20825905 0.2150439 -0.95577663 0.9506607
0.09177321 0.13201554 -0.37805602 0.25079247 0.87098646 0.6988067 -0.114685215 -0.47308597
-0.015802251 0.31491962 -0.3273414 -0.44942856 -0.39843446 -0.054366015 0.73217255 -0.7323026
-0.15941395 -0.3883401 0.03881935 -0.16171412 0.21257031 -0.42864728 -0.3265786 -0.42868757
-1.1714787 0.5639636 0.45571524 -0.20565547 -0.081065305 -0.73227656 -0.4638266 -0.5684154
-0.22160982 0.30062208 0.32733807 -0.43997818 -0.38011372 0.19227655 0.07680759 -0.78876257
-0.21260877 0.16226073 0.38679725 0.46524167 -0.25058904 0.045465995 0.30923143 0.6027494
-0.8442644 0.83709806 1.0136098 0.06453705 0.13082895 0.49937227 -0.2757722 -0.4033685
-0.022156104 0.38293996 -0.7492073 0.513402 -0.7756395 0.5010436 -0.6719877 -0.07430177
0.9380744 -0.4177065 -1.476903 0.85064006 -0.85208106 0.44579634 0.46620747 0.93772686
0.24488363 -0.47220516 -0.013533104 1.3326688 1.0114726 0.37787315 -0.59142333 0.85550815
0.16822883 0.08732682 0.8884827 -1.3627852 -1.7565901 0.5180753 1.0922459 -1.8287617
0.6314732 -0.8857228 -0.7447571 -0.9094581 -0.158814 1.376489 -0.8985429 -1.6554086
-0.7872379 -0.105735265 0.8107952 -1.1062331 -0.4262945 -0.3438731 -0.26506335 0.37857503
1.1726685 0.38872254 -0.20175704 0.9804418 -0.38084486 -0.29917312 -0.027060343 0.4949626
-0.63875914 -0.63324976 0.71701 1.1381692 -0.08498519 -0.65904933 -0.056932807 -0.24608533
0.573476 -0.2189784 0.6993858 -0.014792086 1.9674413 -0.85869867 -2.3139784 1.0516202
-2.2008946 0.7923234 1.9563651 2.1892583 0.2142179 -1.8696741 0.7317591 1.6910604
0.77010566 -0.23909956 -0.13703595 0.6751294 0.81195164 0.5379303 0.8219538 -2.0655632
1.3384495 -0.51202476 -1.0264006 0.9573083 -0.8619561 1.1519728 0.9123192 0.48679906
-0.12582494 -1.2740566 0.029579429 1.1046838 0.05037199 -0.3749725 -0.3285014 -0.18224716

hidden_layers.0.bias f4 [20]
00000000: adf1 903e 1723 4b40 ed6e d2be 3907 1e3f
00000010: 3f86 923f a9d1 b6bf 23b0 d63e 02d7 2740
00000020: afeb b43f 866b 903e 6f78 32bf 7431 60bf
00000030: cc93 9cbf d484 0240 e9fc 2e3f 224b 0f3e
00000040: 9323 c63f 926d 7cbe 6afa 2abf 8fce 31c0
0.28309384 3.1740167 -0.41100255 0.6172977 1.1447219 -1.4282733 0.41931257 2.622498
1.4134425 0.28207034 -0.6971502 -0.8757546 -1.2232604 2.0393572 0.6835466 0.13993505
1.5479606 -0.24651173 -0.6678835 -2.7782323

hidden_layers.1.weight f4 [20, 20]
00000000: 9bd1 18bf 61ed 18bd 3d5e 16be 0981 753e
00000010: 28ca 593f 8230 593e 6b27 453f 4bc0 7b3f
00000020: 0cdc e13e 585b a6bc 32db 7ebd 9212 b43e
00000030: e531 55bf 2a4a 40bf 3112 7bbf 3e46 363f
00000040: 142f b3be b0d4 b03e 3129 2bbe dc43 8fbf
00000050: 26d4 723e e38d 3c3f ab68 d73e be1e 083f
00000060: 4d2a bf3d ff1d dd3e 6757 1cbf 7c0a 64be
00000070: a202 083f d5ed 25bf ca57 85bc 72e5 d13f
00000080: 7f33 493f 70dd 233f 8bec 113f 7b47 96bf
00000090: 4fbb 9b3e 6900 e43d 7fe9 4e3f aad3 533f
000000a0: 271f 783f 9996 9fbd 2296 163f c53e 07bf
000000b0: 64ab 2fbe fafe 413f 1dfa 443e 966a b3bf
000000c0: a6f6 423e 4c70 3bbf 62f6 943f 7648 523f
000000d0: 021a 80bc 30f6 823e e0de 0d3e 7573 2fbd
000000e0: 23f8 c8bd 4b88 4abe 85f0 533f 5b04 693f
000000f0: 8c6d 563f 513a 7e3f 4003 7a3f b638 983e
00000100: 19be 4fbd 62de 9e3f be19 9b3e 2caa 86bf
00000110: afbe ab3f 1f05 253d a13b 493f 6de9 0440
00000120: e05c 2d3e dc15 673f 9216 ad3e 6b26 b7bf
00000130: 3bcf f73f 65dd 4b3f aafe 823f 697c 3e40
00000140: 0bf9 b93e 1b8d 2440 bda5 373e 84d6 55be
00000150: bd5e cc3e 7ae7 313f 7930 933e cd26 10be
00000160: 7328 0f3f d4a2 ea3e a64a 21be 433a ad3f
00000170: cbe7 d73e 8de2 933f 5ad2 293d 7bb2 4ebf
00000180: 6e8a 8b3f cb7a 523e 6136 713e 8da6 043e
00000190: d023 363e ae56 90bf c535 853d 5d86 793f
000001a0: 4faa 5d3f dd36 70be a304 3c3d e996 adbe
000001b0: 8340 aabe c6f1 aa3d 636b 9d3d a789 18bf
000001c0: 55cc df3e c911 5bbf 1b5b a53d 0eb4 dabe
000001d0: 6411 59bf 0cae d2bd 9826 e4bd 4642 963f
000001e0: 0259 8f3f 6d84 ee3e c0cb 0f3f 2711 55bf
000001f0: f9e8 a5be c8ff 533f ee71 a4be f7d9 97bf
00000200: d6d4 883f 9591 14be 0f2b 1b3f ec08 7f3e
00000210: abf5 683f feee 943e e8a3 873f 0b3b ccbe
00000220: cc72 273f ce09 3a3f 138e 083f 5968 8f3f
00000230: 90ff 0c3c dc40 c0bf 3e1c 9ebc 62f8 12bf
00000240: 7444 b73f d64e 003e f2fa 0bbe ee4a d0be
00000250: 2820 58bf e085 4ebf e712 a63e 9af8 45bf
00000260: c060 b93e 6a76 c73f 46b0 edba 1b32 c9be
00000270: 1690 34be 1e1b c03e 61e3 a03e 97e2 08bf
00000280: 4f07 4e3f 4d64 223d dc4f 01be 87e7 cbbe
00000290: 1370 16bf 57ae 0b3f 25ad f5be ba7f 84bf
000002a0: 2a09 ac3e 05a2 983d 88f4 6f3f 76dd 003f
000002b0: b4a3 d33e fa05 553f 8a7e 123e 3d63 05bf
000002c0: aa2b 61bf 83b6 5a3d 4ce5 3c3f 4e30 503f
000002d0: 887e fdbe 16bd 99bf fbc3 1bbe e036 01be
000002e0: da7d a9be d8e1 d3bf bf0b e3bd 0e6f 1a3f
000002f0: 3151 85bf 2eec a43d 9c4c 03bf 45e3 03c0
00000300: 7cb7 f83b 972e 93bf a5d5 ba3d 7b9e 803f
00000310: 0f30 88bf 84da a3bf 958e edbe cf8a c4bf
00000320: b7a6 a03e 66d3 713f f2e4 503e c789 0ebf
00000330: 297f de3e 9e8a 2b3e 35be 55be 0530 cebe
00000340: 3a01 343f 1b2b 0ebf f6bd aabe e1d1 5c3f
00000350: 9eef ad3b 85d1 b13f b6d2 9e3f ff57 e8be
00000360: 7d1e 2d40 ecfe 5b3f 2c0b 833d 14d4 fcbe
00000370: 26da 0a3f ac11 633f b135 e33e bfaf 91be
00000380: 1115 483f 03bd 3c3f 415a ffbe 9d41 edbd
00000390: f0ee 9f3f 1ac1 3dbf b90f 793e 3183 4e3f
000003a0: 42a9 4b3f 6124 903f 2efc 893f ef06 f7be
000003b0: 2a65 f53f a3e2 423f 3f9a 213f 1e53 aa3d
000003c0: 76d8 89be 0edd 1ebf bf38 853e ee7c 243f
000003d0: cb21 e9be 1de9 313e ea40 d2be af5a 03be
000003e0: af5b 313e 2a39 1cbe ce81 e5bd aa61 133f
000003f0: 11c1 8d3d 266b 243f a6b1 c0be 5567 55be
-0.5969483 -0.037335757 -0.14684387 0.23975004 0.8507409 0.2120991 0.7701327 0.9834029
0.44113195 -0.020307228 -0.06222076 0.35170418 -0.8327926 -0.75113165 -0.9807463 0.7120093
-0.34996855 0.34537268 -0.16714932 -1.1192584 0.2371374 0.73654 0.42072043 0.5317191
0.0933424 0.43186948 -0.61070865 -0.22269624 0.5312902 -0.6481603 -0.016277213 1.6398146
0.785942 0.6400976 0.5700156 -1.1740564 0.30416343 0.11132891 0.80825037 0.8274485
0.96922535 -0.07792396 0.58822834 -0.52830154 -0.17155224 0.7577969 0.19236036 -1.4016902
0.19039401 -0.73218226 1.163769 0.82141817 -0.015637401 0.2557845 0.13854551 -0.042834718
-0.09812953 -0.19778554 0.8278888 0.9102227 0.83760905 0.99307734 0.9766121 0.29730767
-0.0507184 1.2411616 0.30293077 -1.0520682 1.3417567 0.040288087 0.7860661 2.0767472
0.1692996 0.9026773 0.33806282 -1.4308599 1.9360117 0.79634696 1.0233967 2.9763434
0.36322817 2.5711124 0.17934318 -0.20882612 0.3991603 0.6949383 0.2874792 -0.14077301
0.55921096 0.45827353 -0.15751132 1.3533405 0.42169032 1.1553513 0.041460373 -0.8074109
1.090162 0.20554654 0.235559 0.12954159 0.17787099 -1.1276453 0.06504396 0.9747065
0.86587995 -0.23458429 0.04590286 -0.33904198 -0.33252344 0.08346896 0.07686498 -0.5958504
0.4371058 -0.85574013 0.080740176 -0.42715496 -0.8479216 -0.10287103 -0.11140174 1.1738975
1.1199038 0.46585408 0.5617027 -0.832293 -0.32404307 0.82812166 -0.3211817 -1.1863393
1.0689952 -0.1450866 0.6061258 0.24905747 0.9099986 0.29088587 1.0596895 -0.39888796
0.6540954 0.7267121 0.5334179 1.1203719 0.008605853 -1.5019794 -0.019300576 -0.5741025
1.4317765 0.12530074 -0.13669947 -0.40682167 -0.84424067 -0.8067303 0.32436296 -0.7733246
0.36206627 1.5583012 -0.0018134199 -0.3929604 -0.1763309 0.3752069 0.31423476 -0.5347075
0.804799 0.039646436 -0.1262812 -0.3982508 -0.5876476 0.54562896 -0.4798366 -1.0351479
0.33600742 0.07452778 0.937325 0.5033792 0.41335833 0.83212245 0.14306083 -0.5210455
-0.8795725 0.053396713 0.7378738 0.8132371 -0.49510598 -1.201083 -0.1521148 -0.1261859
-0.3310383 -1.6553297 -0.11086225 0.60325706 -1.0415403 0.0805286 -0.5128877 -2.0607464
0.0075902324 -1.1498593 0.09122781 1.0048364 -1.0639666 -1.2801061 -0.46397844 -1.5354861
0.31377193 0.94463193 0.20399836 -0.5567898 0.4345639 0.16752097 -0.2087334 -0.4027101
0.7031437 -0.55534524 -0.33348054 0.8625775 0.0053081056 1.3892065 1.2408054 -0.45379636
2.7049859 0.85935855 0.06398615 -0.49380553 0.5423912 0.8869884 0.443769 -0.28454396
0.78157145 0.7372591 -0.49873546 -0.1158478 1.2494793 -0.74122775 0.24322404 0.8066893
0.7955514 1.1261102 1.0780084 -0.48247477 1.9171498 0.7612707 0.63125986 0.083166346
-0.2692296 -0.6205605 0.26019856 0.6425313 -0.45533594 0.17374082 -0.4106515 -0.12827562
0.17320131 -0.15256181 -0.11206399 0.575709 0.0692159 0.64225996 -0.37635535 -0.208402

hidden_layers.1.bias f4 [20]
00000000: 2629 0940 85be bcbd 9a8f d7bf 3e18 63be
00000010: d06a 853f 513d 27bf 4045 0dbf cf47 41bf
00000020: 01fc 31bf 954e bcbe 310b b23e 54f3 413f
00000030: 0897 c3be 23f2 a0be c966 ac3e a054 debe
00000040: 2a6d b8be a0a9 d33e ddab 19bf c8f7 9cbf
2.1431365 -0.09216026 -1.6840699 -0.22177216 1.0423222 -0.65327936 -0.5518379 -0.75500196
-0.6952515 -0.36778703 0.34774163 0.75761914 -0.38201165 -0.31434736 0.3367217 -0.4342394
-0.36020786 0.4134035 -0.6002787 -1.2263117

hidden_layers.2.weight f4 [20, 20]
00000000: 63cf 9bbf a712 373e 0ae0 893f c901 88bf
00000010: b54c abbf ea9e 353f f849 203f b97e b3bf
00000020: ce06 953e 8db9 82bf a8d4 a0bf d0b8 d3bd
00000030: 47e6 ddbf 6c63 69bf 6ad1 50be bc21 b4bf
00000040: 4b42 ed3c bcfb 063f a452 2640 ea74 b1bf
00000050: 0908 8c3f 2a96 2dc0 61ec 91bf 06c6 dbbf
00000060: f875 f9bf 8cc5 7bbf 998a b5be 67dc 053d
00000070: 242f 87bf 032d 5140 8541 dcbe 9a3c fcbf
00000080: 8d61 aebf 9d21 bd3d b799 e7bf 6bc5 293f
00000090: 99c7 cbbe a44a 203f c64c 5abf f47a 90bf
000000a0: 44aa 593f 62f7 a0bf 28a5 ce3e 689f 3cbf
000000b0: f79f e3bf 90b4 113f cd15 e4bc cdb5 0a3d
000000c0: 2d8d 4d3e ac20 3d3e 8421 b63d 8cb5 cdbe
000000d0: 4ed9 a5bf f747 963d d079 6abf 2c62 be3d
000000e0: 06ff b6bd 76cd 6d3f c875 33be 37cd 4ebf
000000f0: 1c39 ce3e a081 1a3e 8100 113f 7e77 06bf
00000100: d9a6 c8bf b451 f5be 15b5 f1bd 0ca5 c6be
00000110: 428f c03e 792f 493f 45a9 f33e 5663 8fbc
00000120: 9a6c 14bf 2523 81bd f31f bf3d c540 a7bf
00000130: d661 68be 2d69 13be e8fe 6ebd baba 643e
00000140: 270e 80be 1787 473f 5c02 58be 3355 4a3e
00000150: 469f 9c3f 8efc ac3e 9619 dd3e ab51 363e
00000160: b5ca febe e876 5fbf 605e bc3e 27ac 67bd
00000170: b0f5 883e 713d d2be 4fc9 b2bd e282 793e
00000180: 5766 bdbe 859e 1c3e 3fc9 003d dc60 7fbf
00000190: c61c 443e 1069 70bf ba50 f1be b71b ecbe
000001a0: 44a5 14be 0625 873f 927a 7e3e a387 7bbf
000001b0: 8ea6 2a3f 0b19 7b3f 3e48 3abf 22f9 88bf
000001c0: c8ca 54be b611 5e3e f9cb 85bf c7f8 1340
000001d0: 5471 3abd 0f23 ff3e e6e8 073e e209 1d3f
000001e0: 9ced 62bd cca1 313e ec5b 39be 692c 2abe
000001f0: 14a1 39bf 2aec c13e 22f4 5abf f17c 4abf
00000200: 071f 5f3d b0d8 463d 79fc 33bf 6ccb b6be
00000210: 0a52 203f d659 b63e cb37 e3be dbae e13f
00000220: b528 07bf 6c12 b03e c923 95bf 6eec 5d3f
00000230: c345 9ebf 963c b2bd e47b 113f e5fa 073f
00000240: d231 613f c150 043f 4731 333e 3bae 65bf
00000250: a82e 903f bb7b 2ebf 1e15 4d3f 9e97 66be
00000260: 67b6 923d 55a5 07bf 8fff 383e e8c9 15bf
00000270: d116 9c3f 9e47 fbbd bbfa 36be d365 b4be
00000280: 4f6c 7ebf 1f53 dc3e 61d6 6e3f aa44 5e3f
00000290: 891c 5e40 1486 d8bd a555 0e3f b09c ae3f
000002a0: 41af a43f 6fb4 1bbf 6c26 a33c 751c dd3f
000002b0: f90f 8d3f e16b 81bf 15f8 a13f ce27 de3c
000002c0: eddd 85bd 2787 a9bf 2bfc 48bf 7a4c 983f
000002d0: 5256 d3be 4701 123f 37fd 22bd 0cd4 9d3f
000002e0: 84ca 613f 8fa1 1bbf e619 bfbe ee1e 02bf
000002f0: 1056 2dbe abbc 61bf f64c b2be cc61 c13d
00000300: 56c2 623f 0744 83be 589d 36be 3498 ebbe
00000310: a3d2 483e 822d 9f3d cf79 e7be 0bfc dd3e
00000320: 19c8 c63e fdc4 7cbf 3681 38bf e80f 6cbf
00000330: b037 adbf cf12 3cbf 048b 003d 6293 32be
00000340: 9873 4ebe d54d 423f 3e11 a9be e163 0fbf
00000350: b1f6 47bf cb05 b0be 0099 0fbf 91c0 23bf
00000360: a124 f93e 8a62 383e 861a c63d 97f8 f2be
00000370: de94 803f 3c54 bb3e 02fe 20bc cbc7 26be
00000380: 8953 02bf c5ce 8bbe f19b 3bbe 2f52 f2bc
00000390: 01f2 ca3e 0dc4 933f c3fa 193f 84ab 3e3f
000003a0: 3cc9 76bf 2e6c b73e e975 d9be 4d7e 1c3e
000003b0: 380d 483e b91a d53e af4f 173e f4b7 90be
000003c0: 3035 253d 619f e3bd 1aa6 e73e a19d 283f
000003d0: 6e4a 113f ec3e 5bbf 85ba 72bf d403 5cbf
000003e0: f83f 03bd b8c9 883f 7d75 b73f 3763 1a3f
000003f0: 38ef 823e 08ee 0dbf a9f3 d5be 225d 20bf
-1.2172664 0.17878209 1.0771496 -1.0625545 -1.3382784 0.7094561 0.6261287 -1.4023048
0.29106754 -1.0212876 -1.2564898 -0.103379846 -1.73359 -0.9116733 -0.20392385 -1.4072795
0.028962275 0.52727866 2.598794 -1.3863804 1.0939952 -2.7122903 -1.1400262 -1.7169807
-1.9489126 -0.9834831 -0.35457304 0.032680895 -1.0561261 3.2683723 -0.43018737 -1.9705994
-1.362352 0.09234927 -1.8093785 0.6631686 -0.39800718 0.6261389 -0.85273397 -1.1287522
0.8502543 -1.2575495 0.4036038 -0.73680735 -1.7783192 0.5691614 -0.027842427 0.033864785
0.20073386 0.18469495 0.08893111 -0.40177572 -1.2956941 0.07337945 -0.9159212 0.092960685
-0.089353606 0.92891634 -0.17525399 -0.80781883 0.40277946 0.1508851 0.56641394 -0.5252608
-1.5675918 -0.47913897 -0.11802117 -0.38797796 0.37609297 0.7858806 0.4759008 -0.017503422
-0.5797821 -0.063055314 0.09332266 -1.3066641 -0.22693571 -0.1439559 -0.058348566 0.22336856
-0.25010797 0.77940506 -0.2109465 0.19759063 1.2236106 0.33786434 0.43183583 0.17804591
-0.49764028 -0.8729081 0.36790752 -0.05656066 0.26749945 -0.410625 -0.08729803 0.24366334
-0.36992142 0.15294845 0.031441923 -0.9975717 0.19151601 -0.9391031 -0.47131902 -0.46114895
-0.14516169 1.0558174 0.24851444 -0.9825384 0.6666039 0.9808509 -0.7276648 -1.0701029
-0.2078048 0.21686444 -1.0452873 2.3120592 -0.045518234 0.49831435 0.13272437 0.61343205
-0.055402383 0.17346877 -0.18101472 -0.16618504 -0.7251141 0.3787549 -0.8552877 -0.79096895
0.05447295 0.048546493 -0.7030712 -0.35702074 0.6262518 0.35615414 -0.44378504 1.7631487
-0.5279649 0.34389055 -1.1651546 0.8668889 -1.236504 -0.08702962 0.5682967 0.5311721
0.87966645 0.5168572 0.17499267 -0.8971898 1.1264238 -0.6815755 0.8011035 -0.22518775
0.07163697 -0.5298665 0.18066238 -0.5851121 1.2194463 -0.12269519 -0.17869084 -0.35233936
-0.99384016 0.43032166 0.93295866 0.86823523 3.4704916 -0.105724484 0.55599433 1.3641567
1.2865983 -0.60822195 0.019915782 1.7274309 1.10205 -1.0111047 1.2653834 0.02711859
-0.065364696 -1.324437 -0.7850978 1.1898339 -0.41276795 0.570332 -0.039792266 1.2330337
0.8819964 -0.60793394 -0.37324446 -0.50828445 -0.16927361 -0.8817851 -0.34824342 0.094424814
0.88577783 -0.25637838 -0.1783346 -0.4601456 0.19611602 0.07772352 -0.4521012 0.43356356
0.38824537 -0.9873808 -0.7207216 -0.9221177 -1.353262 -0.734662 0.031382576 -0.17439035
-0.20161283 0.7590001 -0.33020967 -0.5601178 -0.78110796 -0.3437942 -0.56092834 -0.6396571
0.48660758 0.1800634 0.09673028 -0.47455284 1.0045431 0.36587703 -0.009826185 -0.16287152
-0.50908715 -0.2730619 -0.18321206 -0.029580204 0.3963776 1.1544205 0.60148257 0.7448046
-0.9640081 0.35824722 -0.4247277 0.15282555 0.19536293 0.4162195 0.1477649 -0.28265345
0.040333927 -0.111143835 0.45243913 0.6586552 0.56754196 -0.85642886 -0.94815856 -0.8594334
-0.032043427 1.068656 1.433273 0.6030764 0.25573134 -0.5544133 -0.4178746 -0.6264211

hidden_layers.2.bias f4 [20]
00000000: 37a9 05c0 2b66 923f 5a5b 5dbd d631 62bf
00000010: dcb2 86bf 5fee fa3e 7552 143f 2570 44bf
00000020: 14af 8abf 6fb3 763f 7ded ef3e 7fd9 953e
00000030: ea7b 5c3f cf1d b63f 9cfb fc3e 14c3 e8bd
00000040: cd70 673e 4857 a73e 4a2d 773f 03b0 003e
-2.088453 1.1437429 -0.054042198 -0.88357294 -1.0523334 0.49009988 0.5793832 -0.7673362
-1.083468 0.96367544 0.46860877 0.292675 0.8612658 1.4227847 0.49410713 -0.11365333
0.22601624 0.32683778 0.9655348 0.12567143

hidden_layers.3.weight f4 [20, 20]
00000000: c429 8d3f 5a8a 14c0 8524 3e3f bba2 52be
00000010: ed52 0fbf 5e0c 3ebf 786e 77bd 771f 56be
00000020: c4b4 433e 180e ae3e 6e4e 183f 9c78 22bf
00000030: 8ec8 123f 41ab 91bf dcd7 2c3f 86cb b9be
00000040: 91ef 15bf b900 be3d 4510 693e dd10 56bf
00000050: 324e e0be 3a32 00bf 3482 57bf 7927 583d
00000060: 7a1c 1c3f 8fcf 02bf 6eb5 193e 15da b53f
00000070: 2f56 3cbf d9d9 313d f2ae 8dbe e35f 26bf
00000080: 4ba3 96be 46f2 8a3e aae8 34bf 3608 f43e
00000090: d35a 3c3d 5f12 073f b076 c1be f9e0 d5be
000000a0: c38c 14c0 e0d1 a9bf b8dc 47bf beae 7ebe
000000b0: ee1b 9d3e 29ea 14bf 2391 e93e 0c65 023f
000000c0: 8dbb 593f cbf8 903f ff0d 8fbf c2e0 9dbf
000000d0: 2c41 90be 7f5e bcbe dc4b df3f fff6 7fbd
000000e0: 9567 1d3e d057 0f40 b618 e63e e73b 2e3d
000000f0: d528 253f a09c de3f e150 95be 2e98 1ebf
00000100: b13c 2abe 7e19 f4be 97c6 043f 86bd 08bf
00000110: a42f 153f 3745 9ebf f531 1fbf 814c d83e
00000120: a3bf 79bf 489c 823e 604c 5c3e 25db 12be
00000130: 46fc 813f cfc0 d33e c83c 5bbc a477 9e3f
00000140: e48c e73d 4716 e6bc 9627 28bf 5b83 933c
00000150: 2617 12be eca9 a63d 126c 0b3f a640 3fbf
00000160: 9f2f 15bf c8b4 b33e 1f0f eabf 654b c4be
00000170: b510 453e 46f6 e0be d1e7 98be 010f 743e
00000180: 9d4c 393d 8f82 933f 04e6 893c 0425 2bbf
00000190: 920a 813d c6d0 d33e c755 033f 14c2 043d
000001a0: 2347 c2be 7724 383f 82d5 193f b1f3 f5be
000001b0: ec86 d03e 4982 1abe 0201 803e 15c8 163e
000001c0: db35 81bd 2ef6 c7be eb81 c03e b294 1f3f
000001d0: 47e0 3f3e 7ac0 453f 0966 273e 5b2f 3bbf
000001e0: 6920 8bbf 0772 cbbf a873 09bf 941c 003f
000001f0: 7593 26bf c92c 22c0 2f2e 06c0 1f73 ddbe
00000200: 0f40 09bf 0dda cc3e 618e 18be 41e2 69be
00000210: ec76 3cbf 0fcf 883f c699 483e 8e94 97bf
00000220: 2071 e23e c018 f5bc 30ee 963f e2a7 a2bf
00000230: 0889 3a3e ae64 673e 9632 473f 291e a73e
00000240: 4cea 41bf 1476 883c 4786 96bf 1bc0 05bf
00000250: 583d 3cbf 5edc 84bf 2cfe 84be e3e0 f1be
00000260: 4eb5 eebc 01a4 5fbf 3040 6ebf 6341 9c3e
00000270: 78ed 61be 61c8 6abe 1db4 9b3d 1548 16bf
00000280: ac60 24bf f3d3 bdbe 8278 3d3e 03d6 ed3d
00000290: d77f 1bbe 1d01 153f 22ee 693f b9c2 2ebe
000002a0: 85c3 f43e da03 033e 972f 393e 7430 803e
000002b0: 126c 4abe ea51 be3e 09b0 c33e d551 93be
000002c0: c1be 14bf 9b82 b5bc 5cf4 553f a89b 0a3f
000002d0: 61c8 b7bc 2097 acbf e846 c13e 26f4 93bd
000002e0: 6325 aabe 3790 67bd ab93 a3bf 1a90 5e3f
000002f0: 103b bbbf e849 6f3f e43f 663e 1316 1ebf
00000300: aa38 bebf b0ea 23be f30f 22bf 6e76 a5bf
00000310: f923 f3bf 8e9f e5be 76da 3fbf cee7 26be
00000320: 00b7 90be a70f 743e 7713 2b3f d594 cdbe
00000330: 204d 1f3f 0b44 5bbe 1d83 cc3d 5dc8 af3e
00000340: 0397 d43e 1b78 6bbf b0b2 0f3f b245 2d3f
00000350: 1bff 173f 2ceb 493f cebb 103e 5431 8a3c
00000360: 395e 9a3e 6c84 97bc 9ce0 e13e b90d 693f
00000370: f3dc 26bd 721d 05bf 6d5f 6b3d ce94 d2bd
00000380: 1fed 33bf a324 713e 9db6 983e 75aa 23bf
00000390: 7ced 3f3f 3742 6a3f 961a 2ebf 6f00 58bf
000003a0: 9b34 46be 23fb e1be a68c 01bf fd57 6a3c
000003b0: 55eb 9bbd 44b3 e63e ff45 113f 3bad 73bf
000003c0: ba11 0bbf a7eb c4be f64c dbbe f810 7bbe
000003d0: 39ad 4fbf 6231 613e 5a91 36be 3add e2be
000003e0: e979 8e3f 57e9 d43d 5814 75bf 8e74 adbe
000003f0: 4941 3c3d 93ff 793e 5449 7e3f 22b9 093f
1.1028371 -2.3209443 0.74274474 -0.20569889 -0.5598591 -0.7423762 -0.060408086 -0.2091044
0.19111925 0.33995128 0.59494674 -0.63465285 0.5733727 -1.1380388 0.67516875 -0.3628809
-0.58568674 0.092774816 0.22760113 -0.8361948 -0.43809658 -0.5007664 -0.8418305 0.05277202
0.6098095 -0.5109796 0.15010616 1.4207178 -0.73569006 0.043420646 -0.27672535 -0.6499006
-0.29421458 0.27137965 -0.7066752 0.47662514 0.045985054 0.5276241 -0.37785864 -0.41773203
-2.3210914 -1.3267174 -0.78071165 -0.24871346 0.3068537 -0.581698 0.45618543 0.50935435
0.85051805 1.1325926 -1.1176146 -1.2334216 -0.28174722 -0.36790845 1.7445025 -0.062491413
0.15371545 2.2397346 0.44940728 0.042537596 0.6451543 1.7391548 -0.29163268 -0.6195096
-0.16624714 -0.476757 0.51865524 -0.5341419 0.5827582 -1.2364873 -0.62185603 0.42245868
-0.9755804 0.25509858 0.2151351 -0.1434141 1.0155113 0.4135804 -0.013381191 1.2380261
0.1130617 -0.028086795 -0.65685403 0.018006971 -0.14266643 0.08137879 0.5446178 -0.7470802
-0.5827579 0.35098863 -1.8285865 -0.3833877 0.19244654 -0.43937892 -0.29864362 0.23833849
0.04523908 1.1524218 0.016833313 -0.66853356 0.06300844 0.4137022 0.5130276 0.03241165
-0.37944898 0.7193064 0.6009141 -0.48037484 0.40727937 -0.15088762 0.2500077 0.14724763
-0.063091 -0.39055008 0.3759912 0.62336266 0.18737899 0.7724682 0.16347517 -0.73119134
-1.0869266 -1.5894173 -0.536921 0.50043607 -0.6506875 -2.5339835 -2.0965688 -0.43251893
-0.5361337 0.4001011 -0.14898063 -0.22840215 -0.7361896 1.0688189 0.1958991 -1.184221
0.44226933 -0.029919028 1.1791439 -1.2707484 0.18216336 0.22597 0.77811563 0.32640198
-0.75748134 0.016657867 -1.1759728 -0.52246255 -0.73531103 -1.0379751 -0.25975168 -0.47241887
-0.029139187 -0.87359625 -0.9306669 0.30518636 -0.22063243 -0.22928001 0.07602713 -0.5870374
-0.6421001 -0.37075767 0.18503001 0.11613085 -0.15185486 0.58204824 0.91378987 -0.17066468
0.4780542 0.12794438 0.1808456 0.25036967 -0.19767788 0.3717187 0.38220242 -0.2877337
-0.5810357 -0.022157004 0.8357599 0.5414376 -0.022434415 -1.348362 0.3774941 -0.07224302
-0.3323165 -0.05653402 -1.277944 0.8693863 -1.46274 0.93472147 0.2248531 -0.6175243
-1.4861042 -0.16007495 -0.63305587 -1.2926767 -1.8995353 -0.44848293 -0.7494272 -0.16299364
-0.28264618 0.23834096 0.66826576 -0.40152612 0.6222706 -0.21412675 0.099859454 0.34332553
0.41521463 -0.9198014 0.5613203 0.6768447 0.59373635 0.7887447 0.14134142 0.016869225
0.3015001 -0.01849576 0.44116676 0.91036564 -0.040738057 -0.51998055 0.057464052 -0.102822885
-0.70283693 0.23549132 0.29826823 -0.6393197 0.7497175 0.91507286 -0.68009317 -0.8437566
-0.19356005 -0.44136915 -0.5060524 0.014303205 -0.076132454 0.45058644 0.5674743 -0.95186204
-0.54323924 -0.38461038 -0.42832154 -0.24518192 -0.8112369 0.21991494 -0.17828885 -0.44309407
1.1130954 0.103960685 -0.9573417 -0.33877987 0.0459607 0.244139 0.9933064 0.53798115

hidden_layers.3.bias f4 [20]
00000000: 00cb 673f 1d9e 06bf 4494 0e3f 072d fabd
00000010: 1696 5dbf 1fd6 34be c8c7 2cbf 19dc 79bf
00000020: 1fcd e23e 1b34 5fbf d783 e23e 1bb0 d83d
00000030: f725 d13d 79da 96be 317a a83e e33a 0a3f
00000040: 50c9 993e dbfa 14bf 73db e7bd 7330 06bf
0.9054413 -0.5258501 0.55694985 -0.122156195 -0.8655714 -0.17659806 -0.6749234 -0.9760147
0.4429712 -0.8718888 0.4424121 0.105804645 0.10212319 -0.29463556 0.32905725 0.53996104
0.30036402 -0.58195275 -0.113211535 -0.5241768

output_layer.weight f4 [2, 20]
00000000: 57f8 383e d7bb 32bf a5bb 5b40 dc27 dabe
00000010: f936 48be 7f09 063e 8cd8 b3bf c0c0 0c3f
00000020: 133c 97bf 3b15 70bf bab2 8dbe ab23 d5bf
00000030: 4277 63bf ba29 483f bb75 89bf 339f aa3f
00000040: f923 0c40 72cc 033f ebf5 fdbf 51de 8fc0
00000050: caac 12c0 9496 243f be95 0f40 1f97 87be
00000060: c694 ce3d ee0b ca3e b2ff 61bf 8acb 823e
00000070: e16d a1bf 3c4e 2cbf f669 6ebe ffde cfbe
00000080: fc0d 213f e9aa f33e 81c3 8d3f e3be 923f
00000090: 79e6 dd3f 9ba5 b33f f418 5dbe 9035 12c0
0.18063484 -0.6981787 3.433328 -0.42608535 -0.1955222 0.1308956 -1.405046 0.54981613
-1.1815208 -0.93782395 -0.2767542 -1.665151 -0.8885385 0.7818867 -1.0739053 1.3329834
2.1896956 0.51483834 -1.9840673 -4.495888 -2.2917962 0.64292264 2.2435145 -0.26482484
0.1008697 0.39462227 -0.88280785 0.25545913 -1.2611657 -0.67306876 -0.23282608 -0.4059982
0.62911963 0.47591332 1.1075288 1.1464504 1.733596 1.4034914 -0.2159155 -2.2845192

output_layer.bias f4 [2]
00000000: b556 be3e dbb0 aebf
0.37175527 -1.3647722
