Task4/models/a_model3-11_06_2022-18_38_37.pth (torch, 2959 bytes, 7 tensors)

input_layer.weight f4 [5, 1]
0	0x40b19eb2	5.550622
1	0xc0e8441b	-7.2583137
2	0x410ebed5	8.92159
3	0x40c745b6	6.2272596
4	0x4102ca60	8.174408

input_layer.bias f4 [5]
0	0xbf201476	-0.6253122
1	0x3f2e9dd0	0.6820955
2	0xbf37d82d	-0.71814233
3	0xbf16518c	-0.5871818
4	0xbf3221c5	-0.6958278

hidden_layers.0.weight f4 [5, 5]
0	0x3e18a1bb	0.14905445
1	0xc032b659	-2.7923796
2	0x3fd04025	1.6269575
3	0x3f5d6152	0.86476624
4	0x402a6fb1	2.663067
5	0x3e9288d5	0.2862002
6	0xc0151aee	-2.3297687
7	0x3fd35f1f	1.6513404
8	0x3f369c75	0.71332484
9	0x3ffc084e	1.9690034
10	0xbf3a523f	-0.7278175
11	0x3fd3a480	1.6534576
12	0xbfe82045	-1.8134848
13	0xbf37d96b	-0.7181613
14	0xbf4e939c	-0.80693984
15	0x3f9f0094	1.2422051
16	0xc0162e33	-2.3465698
17	0x3fcbd759	1.5925094
18	0x3f3d0480	0.7383499
19	0x3f946dd1	1.1596013
20	0x3ee5436c	0.44778
21	0xc0197c68	-2.3982182
22	0x4013e8be	2.3110805
23	0x3ea0238c	0.3127712
24	0x3fa63cad	1.2987267

hidden_layers.0.bias f4 [5]
0	0xbf137e91	-0.57615
1	0xbf060f46	-0.52367055
2	0x3f4a5e7e	0.79050434
3	0xbf194c4e	-0.59882057
4	0xbed2d204	-0.41175854

hidden_layers.1.weight f4 [5, 5]
0	0x3f6b874e	0.92003334
1	0x3f01865c	0.5059564
2	0xbfc4267e	-1.5324247
3	0x3ef45348	0.4771979
4	0x3f825209	1.0181285
5	0x3f0ccdd7	0.55001587
6	0x3fd04991	1.6272451
7	0xbfdc3747	-1.7204369
8	0x3ec19335	0.37807623
9	0x3f29ac18	0.6627822
10	0x3fcfc361	1.62315
11	0x3fbba6bd	1.466026
12	0xc01f8697	-2.4925897
13	0x3f3e78f0	0.74403286
14	0x3fc23f6b	1.5175604
15	0xbf82c22c	-1.0215507
16	0xbf56a773	-0.8384926
17	0x400909a4	2.1412134
18	0xbf9f069e	-1.2423894
19	0xbf9a05dc	-1.2033038
20	0x3ff43146	1.9077537
21	0x3ebf83a6	0.37405127
22	0xc00c07e2	-2.1879811
23	0x3f973c14	1.1815209
24	0x3f40ded1	0.7533999

hidden_layers.1.bias f4 [5]
0	0xbdfedd31	-0.12444533
1	0xbe3d5013	-0.18487577
2	0xbf4c4dbd	-0.7980612
3	0x3edd46d7	0.4321811
4	0xbeafb048	-0.3431418

output_layer.weight f4 [1, 5]
0	0x3f7dab6e	0.99089706
1	0x3fa4beef	1.2870768
2	0x3f639b0a	0.88908446
3	0xbfe38894	-1.7776055
4	0x3f3232ac	0.6960857
