Task4/models/a_model3-11_06_2022-18_35_01.pth (torch, 10561 bytes, 11 tensors)

input_layer.weight f4 [20, 1]
0	0xbf9085f3	-1.1290878
1	0x3aa1286e	0.0012295374
2	0x3f8303cb	1.0235533
3	0xbf38cf6c	-0.721915
4	0xba886f67	-0.0010409177
5	0xbb1b643b	-0.0023710865
6	0x3a8bcf0c	0.0010666563
7	0x3c0a72ee	0.008450253
8	0xbb895f87	-0.004192296
9	0x3a10a1a0	0.0005517248
10	0xbf59708f	-0.84937376
11	0x3b1c2d84	0.002383084
12	0x3b068f48	0.002053218
13	0xbcb572c9	-0.02214946
14	0xbb9f4bca	-0.0048613297
15	0xbb1e556b	-0.00241598
16	0xba003429	-0.0004890585
17	0xbe250fa5	-0.16119249
18	0xbef496ce	-0.47771305
19	0xbaa5a4ab	-0.0012637576

input_layer.bias f4 [20]
0	0x3daf0de9	0.08547575
1	0x3f513ff4	0.8173821
2	0xbd9c9860	-0.07646251
3	0x3d56f2dd	0.052477706
4	0x401f9933	2.4937255
5	0xbf1b84c0	-0.60749435
6	0xbfa4563d	-1.2838818
7	0xbe5378a8	-0.20651495
8	0xbf1defe0	-0.61694145
9	0xbf2b4454	-0.66901135
10	0x3d84735e	0.06467317
11	0x3f53c7a7	0.8272652
12	0x3f4e73c5	0.806454
13	0xbdd0fc4a	-0.1020437
14	0xbef50a84	-0.47859585
15	0x3e31cbc6	0.1736289
16	0xbf089a66	-0.53360593
17	0x3ccafa30	0.024777502
18	0x3cf118c2	0.02943075
19	0x3eed87c2	0.46392637

hidden_layers.0.weight f4 [20, 20]
0	0x3e50ef98	0.20403898
1	0xb9a59fe7	-0.0003159039
2	0xbe3d78aa	-0.18503061
3	0x3e04f59f	0.12984322
4	0xb9621614	-0.00021561264
5	0x3a2be2da	0.0006556936
6	0xb9850789	-0.0002537335
7	0xbb0f0855	-0.0021825035
8	0x39ed075e	0.00045209652
9	0xb83e961c	-4.543933e-05
10	0x3e1cfb01	0.15330125
11	0xba18ab63	-0.00058238785
12	0xba06fcfb	-0.00051493914
13	0x3b7d6734	0.003866625
14	0x3a910b61	0.0011066013
15	0x39e8309a	0.000442867
16	0x39b832ff	0.0003513321
17	0x3cec3a5e	0.028836425
18	0x3db06885	0.086136855
19	0x39ccafaf	0.00039040807
20	0x3c21efdb	0.009883846
21	0x38d3d185	0.0001010029
22	0xbc1b5816	-0.009481451
23	0x3bdca213	0.006733188
24	0xb98e4ec0	-0.00027143024
25	0x39a3fee3	0.00031279688
26	0x3991b7f7	0.0002779362
27	0xb8c85189	-9.55193e-05
28	0x38a9d251	8.0977225e-05
29	0x3988d757	0.00026100382
30	0x3bf9303e	0.007604628
31	0xb9660b94	-0.00021938822
32	0xb975c3e1	-0.00023437991
33	0x39e10feb	0.00042927204
34	0x38b33856	8.5458785e-05
35	0xb9050666	-0.00012686252
36	0x39519b51	0.00019989653
37	0x3ac034cc	0.0014664172
38	0x3b88396f	0.0041572372
39	0xb869138b	-5.556973e-05
40	0xbb0dd344	-0.0021640817
41	0xb9a11daf	-0.0003073043
42	0x3af53811	0.0018708726
43	0xbaa8ae97	-0.0012869415
44	0xb9a061b6	-0.00030590378
45	0x39d195a6	0.00039975083
46	0x39afa4ed	0.0003350148
47	0x39cd8f43	0.00039207385
48	0x39c8508e	0.0003820699
49	0x39a96da3	0.00032315878
50	0xbadcd99b	-0.001684952
51	0xb9add0e3	-0.00033152764
52	0xb9ba7aa4	-0.0003556806
53	0x392697fb	0.00015887611
54	0x398e1111	0.00027097066
55	0xb8e35ea6	-0.00010841833
56	0x39c99120	0.00038445834
57	0xb9277e6f	-0.00015973461
58	0xba19873b	-0.0005856638
59	0xb9aeaeb9	-0.00033318045
60	0x3eb4bdbe	0.35301012
61	0xba4bde26	-0.0007776938
62	0xbea3cd60	-0.31992626
63	0x3e660b71	0.22465302
64	0xb939060d	-0.00017645229
65	0x3a9b096f	0.0011828373
66	0xb9d52deb	-0.00040660737
67	0xbb4a9994	-0.0030914294
68	0x3a911c10	0.0011070985
69	0xb8f2e577	-0.000115822004
70	0x3e87f5a3	0.26554593
71	0xba784cbb	-0.0009471883
72	0xba5b22ba	-0.00083593617
73	0x3bdbb386	0.0067047505
74	0x3b04237f	0.002016276
75	0x3a28b729	0.00064359844
76	0x3a1eaf8a	0.0006053379
77	0x3d4d7d14	0.050168112
78	0x3e194724	0.14968544
79	0x39eb5622	0.00044886867
80	0x3af94af5	0.0019019531
81	0xb93ffc37	-0.00018309137
82	0xbac951a5	-0.0015359415
83	0x3a8e50a3	0.0010857772
84	0xb994174b	-0.00028246114
85	0x39819d70	0.00024722097
86	0x398dd190	0.00027049752
87	0x39092217	0.00013078038
88	0x39ad8eed	0.0003310362
89	0x39898eb9	0.00026237013
90	0x3aaac269	0.001302791
91	0xb9d4bbc1	-0.0004057568
92	0xb9c1aa05	-0.00036938503
93	0x395d8da0	0.00021128962
94	0x38c5906e	9.420594e-05
95	0xb8eae7ca	-0.000112011636
96	0x3976a04c	0.00023520103
97	0x398c5c83	0.00026771807
98	0x3a4fb49c	0.0007923336
99	0xb900538d	-0.00012238156
100	0x3ebfff36	0.37499398
101	0xb972955e	-0.00023134562
102	0xbeae086a	-0.33990794
103	0x3e74816d	0.23877497
104	0x3a13a693	0.00056324265
105	0x3a550a7a	0.00081268663
106	0xba974113	-0.0011539779
107	0xbb6afc39	-0.0035855903
108	0x3a391972	0.00070609816
109	0xba234d77	-0.00062294997
110	0x3e90986c	0.2824129
111	0xba239a88	-0.00062409835
112	0xb9e59d8b	-0.00043795662
113	0x3be3db47	0.00695363
114	0x3af664b2	0.001879832
115	0x3a4838ac	0.00076378393
116	0x398b16e3	0.00026529198
117	0x3d5a621e	0.053316228
118	0x3e22e0a2	0.15906003
119	0x3a5b7501	0.0008371622
120	0xb95235ea	-0.00020047245
121	0xb94fee4c	-0.00019829831
122	0x3980d990	0.0002457616
123	0xb95a4e89	-0.00020819357
124	0xb9b61660	-0.00034730416
125	0x393587f3	0.0001731215
126	0x397862f3	0.00023687985
127	0x390525c7	0.00012697942
128	0x3985c9da	0.00025518128
129	0x39a4e997	0.00031454556
130	0xb997cfb1	-0.00028955707
131	0xb9c36373	-0.00037267394
132	0xb9b32238	-0.00034167035
133	0x3935b3b9	0.00017328457
134	0x39466b96	0.0001892283
135	0xb97e1215	-0.00024230064
136	0x3941fc8d	0.00018499997
137	0x373e6c90	1.1350159e-05
138	0x38d3d2b8	0.000101005135
139	0xb914cd02	-0.00014190751
140	0xbecd50a9	-0.401006
141	0x3a0758f8	0.00051630987
142	0x3eba8e8d	0.36436883
143	0xbe833244	-0.25624287
144	0xb84443bb	-4.679312e-05
145	0xbaaace6d	-0.001303149
146	0x3a38e10d	0.0007052578
147	0x3b727aee	0.0036999541
148	0xba9faf49	-0.0012182976
149	0x39cea17b	0.00039411694
150	0xbe9b19d1	-0.30293134
151	0x3a88b3a6	0.0010429516
152	0x3a794ffc	0.0009510515
153	0xbbfacd73	-0.007653886
154	0xbb20457d	-0.002445548
155	0xba253fc6	-0.00063037535
156	0xba4441d6	-0.0007486617
157	0xbd6a5ba1	-0.05721629
158	0xbe2efd0b	-0.17088716
159	0xba384f0b	-0.0007030821
160	0x3e996af9	0.29964426
161	0x3b4a73ad	0.0030891702
162	0xbe8b11b9	-0.2716196
163	0x3e43305d	0.19061418
164	0x3ba10877	0.004914339
165	0xbaf4bc17	-0.0018671778
166	0xbb9d9231	-0.004808687
167	0xbb768fea	-0.00376224
168	0xbafc9f71	-0.0019273591
169	0xbb496099	-0.0030727743
170	0x3e66bbc9	0.22532572
171	0x3b281e2f	0.0025652756
172	0x3b2d6c2b	0.0026462178
173	0x3bace8e4	0.005276786
174	0xba476def	-0.0007607629
175	0x3ab65c73	0.001391305
176	0xbb01bb80	-0.0019795597
177	0x3d2e4d5d	0.042554248
178	0x3e01b7c7	0.12667762
179	0x3b32e68c	0.0027298061
180	0x3968cbe9	0.00022201207
181	0xb83d59a0	-4.514458e-05
182	0xb8ecb1c1	-0.00011286466
183	0x38c46613	9.365021e-05
184	0xb958466f	-0.00020625604
185	0x391a5993	0.00014719953
186	0x396e261f	0.0002271165
187	0x3937d66f	0.00017532123
188	0x3987983d	0.00025862633
189	0x38923ef8	6.973551e-05
190	0x3932909d	0.00017029275
191	0xb9ab5711	-0.0003268053
192	0xb9a39747	-0.00031202493
193	0x390bf8a6	0.00013348702
194	0x37eacd7c	2.799066e-05
195	0xb7ba572b	-2.2213519e-05
196	0x39629f51	0.0002161239
197	0x38357111	4.3259064e-05
198	0xb7db0c91	-2.6112686e-05
199	0xb8b1cd20	-8.478225e-05
200	0x3bf90f28	0.0076006837
201	0x391599b2	0.00014267003
202	0xbbde4059	-0.006782573
203	0x3b9c5ffe	0.0047721853
204	0xb8a8b13f	-8.043879e-05
205	0xb80c07f8	-3.3386023e-05
206	0xb7bf9ae2	-2.2841097e-05
207	0xb913dfcb	-0.00014102382
208	0xb909a526	-0.0001312686
209	0xb9282066	-0.00016033798
210	0x3bbc6165	0.005748915
211	0x3915f232	0.00014299972
212	0x386f4006	5.7041667e-05
213	0x38764453	5.8714602e-05
214	0xb903f88b	-0.00012585723
215	0x392cb7b6	0.00016471636
216	0xb72cbc41	-1.029583e-05
217	0x3a83a872	0.0010044707
218	0x3b431c56	0.0029771528
219	0x38ccd45d	9.767034e-05
220	0x3e912cb4	0.28354418
221	0x3a83ebf2	0.0010064824
222	0xbe839553	-0.25699863
223	0x3e3873f5	0.18012984
224	0x3b09192e	0.002091955
225	0xba05eb51	-0.0005108612
226	0xbb1b249f	-0.002367295
227	0xbb54baac	-0.0032459898
228	0xba274ccf	-0.000638199
229	0xbaadc876	-0.0013258595
230	0x3e5a0366	0.21290359
231	0x3a69bf01	0.00089167064
232	0x3a83c717	0.001005384
233	0x3ba5e2d3	0.00506244
234	0x3a1714fe	0.0005763321
235	0x3a76c4d5	0.00094134855
236	0xba60e94b	-0.0008579685
237	0x3d249d08	0.04018882
238	0x3df5e08f	0.12005722
239	0x3abc8c58	0.0014385087
240	0x3e51b644	0.20479685
241	0xbac8e80e	-0.0015327947
242	0xbe3dcf94	-0.18536216
243	0x3e05214b	0.13000982
244	0xbae7f03e	-0.0017695499
245	0x3ad83f2e	0.0016498321
246	0x3aac3f4c	0.0013141423
247	0xbac43547	-0.0014969491
248	0x3ad0035c	0.0015870142
249	0x3a6181fe	0.0008602439
250	0x3e1d601e	0.15368697
251	0xbae692ff	-0.0017591416
252	0xbae25ac6	-0.0017269484
253	0x3b87af44	0.0041407663
254	0x3ae75cb5	0.001765153
255	0x390133af	0.00012321652

hidden_layers.0.bias f4 [20]
0	0xba303051	-0.0006721067
1	0x3eabed3c	0.33579433
2	0xbef4539c	-0.4772004
3	0x3b5c3ac3	0.003360436
4	0xbf42d94d	-0.76112825
5	0x3ba6bf31	0.0050887098
6	0xbf73147e	-0.94953144
7	0xbaf52757	-0.0018703741
8	0xbc70c162	-0.014694544
9	0xbfd335b6	-1.6500766
10	0x3e95523d	0.29164305
11	0xbc7e4c2b	-0.01552109
12	0x3c069974	0.008215297
13	0x3afd1286	0.0019307889
14	0xbf16bb7f	-0.58879846
15	0xbbc75f87	-0.006084386
16	0x3af6258b	0.0018779499
17	0x3eb48524	0.35257828
18	0x3cb32394	0.02186755
19	0x3afa018d	0.0019073948

hidden_layers.1.weight f4 [20, 20]
0	0xbdc94d03	-0.09829142
1	0xbbc863ab	-0.006115397
2	0x3b00bad6	0.0019642613
3	0xbe2bcd10	-0.16777444
4	0xb9b624f2	-0.00034741272
5	0xbe3655a7	-0.17806111
6	0x3a0e0c1f	0.00054186763
7	0x3e43c59c	0.1911835
8	0xbe121bd8	-0.14268434
9	0x3a095050	0.0005238103
10	0xbb81bd03	-0.0039592995
11	0xbe0a43ec	-0.13502473
12	0xbdc81fba	-0.09771676
13	0xbe0635e4	-0.13106495
14	0x3990e5c2	0.00027637003
15	0x3e0fa2ea	0.1402699
16	0xbe445c40	-0.19175816
17	0xb9a94081	-0.0003228225
18	0xbe32705a	-0.17425671
19	0xbe39030e	-0.18067572
20	0x3dca719e	0.09884952
21	0x3bbdd651	0.005793371
22	0xbabe7835	-0.0014531674
23	0x3e2e1867	0.17001496
24	0x3a65c139	0.0008764449
25	0x3e38ea79	0.18058194
26	0xb901c889	-0.00012377104
27	0xbe45e4df	-0.19325589
28	0x3e1405dc	0.1445536
29	0xb90bf51a	-0.0001334738
30	0x3b89ee8f	0.0042093466
31	0x3e0bdd4f	0.13658641
32	0x3dca73f5	0.09885398
33	0x3e091656	0.13387427
34	0xb9a242db	-0.0003094886
35	0xbe11e9e6	-0.14249381
36	0x3e47840d	0.19483967
37	0xb9633b2a	-0.00021670447
38	0x3e34e466	0.17665252
39	0x3e3d4b05	0.18485649
40	0x3dbfb120	0.09359956
41	0x3b978037	0.0046234387
42	0xba6cdf4b	-0.0009035959
43	0x3e26ef49	0.16302218
44	0x3a41ab5b	0.00073878997
45	0x3e32205a	0.17395154
46	0xb8032a1d	-3.1272055e-05
47	0xbe400ca4	-0.18754822
48	0x3e0d4a4b	0.13797872
49	0x3919c604	0.00014664984
50	0x3b4b952b	0.0031064253
51	0x3e0593d5	0.13044675
52	0x3dbf9136	0.09353869
53	0x3e031b9d	0.12803502
54	0xb99a294d	-0.0002940394
55	0xbe0b676f	-0.13613676
56	0x3e4239d9	0.1896738
57	0x39bae03a	0.00035643746
58	0x3e2df173	0.16986637
59	0x3e35fa47	0.17771254
60	0x3dc00df7	0.093776636
61	0x3b9a74a2	0.0047136107
62	0xb9be634d	-0.0003631361
63	0x3e263ae6	0.16233405
64	0x3af45f89	0.0018644194
65	0x3e320a58	0.17386758
66	0x3a8f05d2	0.0010911769
67	0xbe3f83e2	-0.18702653
68	0x3e0cf2d5	0.13764508
69	0x3ab4bb4b	0.0013788728
70	0x3b2e23dc	0.0026571667
71	0x3e05b44c	0.13057059
72	0x3dbfaa9d	0.09358714
73	0x3e02887c	0.12747377
74	0x3a0fb47e	0.00054819125
75	0xbe0ae03b	-0.135621
76	0x3e41b7fb	0.18917839
77	0x366c08a1	3.5171763e-06
78	0x3e2d5d36	0.16930088
79	0x3e356fc6	0.1771842
80	0x3a9d7fcf	0.0012016239
81	0xb81d72f5	-3.753878e-05
82	0x395df164	0.00021166127
83	0x3b080914	0.0020757364
84	0x38f7adff	0.00011810287
85	0x3b0e64e1	0.002172761
86	0x38d4c695	0.000101459365
87	0xbb263eba	-0.0025366978
88	0x3addcbf1	0.0016921741
89	0x393fc9e4	0.0001829039
90	0xb7c133c8	-2.3031505e-05
91	0x3acf3ca2	0.0015810917
92	0x3a94dc37	0.0011357133
93	0x3ad09659	0.0015913948
94	0x391427e1	0.00014129236
95	0xbad81c7c	-0.0016487981
96	0x3b2f781c	0.0026774472
97	0xb913cef4	-0.00014096108
98	0x3b0e2973	0.0021692186
99	0x3b148f72	0.0022668508
100	0xbaa8f926	-0.0012891635
101	0xb9281968	-0.00016031193
102	0x3941f119	0.0001849573
103	0xbb1b73c0	-0.0023720115
104	0x398a4d3b	0.00026378952
105	0xbb249b4e	-0.0025116983
106	0x39897890	0.00026220502
107	0x3b30cb52	0.0026976657
108	0xbafcca7a	-0.0019286417
109	0x39b55077	0.0003458296
110	0xb9937626	-0.00028126052
111	0xbae959cc	-0.0017803251
112	0xbaa32c1e	-0.0012449061
113	0xbaf8d41e	-0.0018984114
114	0x39889fda	0.0002605904
115	0x3b00461b	0.0019573036
116	0xbb39fc17	-0.0028379017
117	0xb857e636	-5.1474395e-05
118	0xbb26b8c2	-0.0025439714
119	0xbb2f2c15	-0.0026729156
120	0xba759322	-0.0009367933
121	0x39839ec0	0.00025104545
122	0xb6bfb5d5	-5.7134116e-06
123	0xbb112956	-0.0022149882
124	0x39be6192	0.0003631232
125	0xbaf59d08	-0.0018738816
126	0x396ec7cf	0.00022771883
127	0x3b1a59ef	0.002355214
128	0xbadb2c23	-0.0016721528
129	0x39379112	0.00017506283
130	0x37fe8977	3.0343172e-05
131	0xbac36ab0	-0.0014909115
132	0xba8b11e5	-0.0010610191
133	0xbae3487e	-0.001734033
134	0x391996a5	0.00014647337
135	0x3af3e901	0.0018608869
136	0xbb187837	-0.0023265013
137	0xb93be08e	-0.00017917363
138	0xbb093f08	-0.002094211
139	0xbb05b9c5	-0.0020404917
140	0x3da3bad4	0.07994619
141	0x3bd6550d	0.0065409006
142	0xbb62d7d7	-0.0034613514
143	0x3e0e81ff	0.13916777
144	0xbb3f47af	-0.0029187014
145	0x3e184fba	0.14874163
146	0xbb8f42d6	-0.004371981
147	0xbe243aa0	-0.16037989
148	0x3deff535	0.117166914
149	0xbbba6a74	-0.0056889597
150	0x3ba03b34	0.00488987
151	0x3de409d8	0.1113469
152	0x3da37801	0.07981873
153	0x3ddfb54e	0.10923253
154	0xbb6ea423	-0.003641375
155	0xbdee5e52	-0.11639084
156	0x3e25edf2	0.1620405
157	0x3b02abbb	0.0019938785
158	0x3e1466ec	0.14492387
159	0x3e1ae56d	0.15126581
160	0x3af0e7b0	0.0018379595
161	0x3a4a1511	0.00077088276
162	0xb980e5a7	-0.00024585167
163	0x3b397295	0.0028297056
164	0x3941e140	0.00018489826
165	0x3b6b59a3	0.0035911582
166	0xb88e586d	-6.787558e-05
167	0xbb6d4bed	-0.0036208585
168	0x3b2220e3	0.002473884
169	0xb984831b	-0.00025274683
170	0x39740d58	0.00023274624
171	0x3b2fda90	0.0026833154
172	0x3ae9617e	0.0017805544
173	0x3b1b01d3	0.002365221
174	0xb8d58ac0	-0.00010182476
175	0xbb19e946	-0.002348499
176	0x3b741bb7	0.0037247965
177	0x3919d869	0.00014671836
178	0x3b481f7a	0.003053634
179	0x3b57e046	0.0032940074
180	0xbdc59304	-0.09647182
181	0xbb9c1b70	-0.004764013
182	0xb93889f9	-0.00017599006
183	0xbe28f2f1	-0.16498925
184	0xbb6ffdf4	-0.0036619874
185	0xbe331b58	-0.174909
186	0xbb4e0b7d	-0.0031439953
187	0x3e409abf	0.18809031
188	0xbe105c32	-0.1409767
189	0xbb700ba6	-0.0036628037
190	0xbb2796ba	-0.0025572018
191	0xbe08f23c	-0.13373655
192	0xbdc4ba40	-0.09605837
193	0xbe04eb00	-0.1298027
194	0xbb0b8868	-0.0021291021
195	0x3e0d11e8	0.13776362
196	0xbe41d4f5	-0.18928893
197	0x3a5a75e4	0.0008333607
198	0xbe2e9f5e	-0.17052981
199	0xbe370c85	-0.1787587
200	0xbd58af9e	-0.052901857
201	0xbb806eb2	-0.003919446
202	0x3b09de96	0.0021037213
203	0xbdbe239a	-0.09284134
204	0x3af51a05	0.0018699771
205	0xbdca332e	-0.09873043
206	0x3b27932c	0.00255699
207	0x3ddb0046	0.106934115
208	0xbd9fb00a	-0.07797249
209	0x3b460f63	0.0030221574
210	0xbb455d70	-0.0030115508
211	0xbd973993	-0.07384028
212	0xbd588cde	-0.052868716
213	0xbd9520ee	-0.072816715
214	0x3b0e17ee	0.0021681744
215	0x3d9eb905	0.077501334
216	0xbddd132b	-0.107946716
217	0xbaa46803	-0.0012543205
218	0xbdc5ae27	-0.096523575
219	0xbdce0a15	-0.10060517
220	0x3d64c2a8	0.0558497
221	0x3a9f4f37	0.0012154345
222	0x3aece3d5	0.001807327
223	0x3dc6335f	0.09677767
224	0x3b82c8f6	0.0039912416
225	0x3dd40b17	0.10353678
226	0x3b830b7f	0.003999173
227	0xbde4c9a2	-0.11171271
228	0x3da81215	0.08206574
229	0x3ba8fc13	0.0051570027
230	0x3924aa26	0.00015703644
231	0x3d9f1616	0.077678844
232	0x3d644bf7	0.05573651
233	0x3d9b509c	0.075837344
234	0x3b388b12	0.0028159064
235	0xbda53658	-0.08067006
236	0x3de77db2	0.11303271
237	0xbac98dbc	-0.0015377323
238	0x3dce98df	0.100877516
239	0x3dd84a71	0.105610736
240	0x3dcebb55	0.100943245
241	0x3bb87ba5	0.005629974
242	0xbabfc697	-0.0014631328
243	0x3e31f3c6	0.17378148
244	0x3a67232d	0.0008817192
245	0x3e3d8f78	0.1851176
246	0xb97cdd2a	-0.00024114983
247	0xbe4a3e6c	-0.19750375
248	0x3e17460b	0.14772813
249	0x380c7029	3.348306e-05
250	0x3b7949eb	0.0038038443
251	0x3e0f5024	0.13995415
252	0x3dceffdc	0.10107395
253	0x3e0c7835	0.1371773
254	0xb8d91703	-0.000103516526
255	0xbe153f2d	-0.14574881

hidden_layers.1.bias f4 [20]
0	0x3aa8ec35	0.0012887778
1	0xba2ceb92	-0.0006596382
2	0xba0188c8	-0.00049413415
3	0x3ba52d6d	0.0050408156
4	0xbf839322	-1.0279276
5	0xbf109ff6	-0.5649408
6	0xbeea7b26	-0.4579708
7	0xbccee433	-0.025255298
8	0x3eeaf13c	0.45887172
9	0xbc192546	-0.009347266
10	0x3d00f7f8	0.03148648
11	0x3d315f13	0.04330356
12	0x3b584d6e	0.0033005136
13	0xb8d653e3	-0.0001021994
14	0xbbc0e6d1	-0.0058868905
15	0x3eb5cdff	0.35508725
16	0x3bab78af	0.0052328925
17	0xbae8a3ff	-0.001774907
18	0xbed8c3d0	-0.42336893
19	0xbb5c34ac	-0.003360073

hidden_layers.2.weight f4 [20, 20]
0	0x3e17cd8a	0.148245
1	0xbe194c4f	-0.14970516
2	0xbe13de37	-0.14440237
3	0xbe139988	-0.14414036
4	0xbb4d5da1	-0.0031336325
5	0x3ab6261b	0.0013896854
6	0x3a5f786a	0.0008524718
7	0xbdfbad0d	-0.12288866
8	0xbb056d6e	-0.0020359415
9	0x3e15882d	0.14602728
10	0x3da6d156	0.081453964
11	0xbdafb91c	-0.08580229
12	0xbe1cbccf	-0.153064
13	0x3e2b738e	0.167433
14	0xbe1a248c	-0.15053004
15	0xbabfe2e7	-0.0014639766
16	0x3e2ce3a9	0.1688372
17	0x3e2c4947	0.16824828
18	0x34bdf96a	3.5385466e-07
19	0xbe2ebecb	-0.17064969
20	0x3b45fa64	0.003020906
21	0xbb3309a3	-0.0027318976
22	0xbb2540ea	-0.0025215694
23	0xbb227c5a	-0.0024793358
24	0x39e64dac	0.0004392689
25	0x39cf4b76	0.0003953834
26	0x395c1a11	0.00020990545
27	0xbb0803d2	-0.002075423
28	0xb9b99abd	-0.0003540124
29	0x3b40e266	0.002943182
30	0x3adbe5cc	0.0016776859
31	0xbaba4759	-0.0014211937
32	0xbb3e3329	-0.0029022193
33	0x3b4fc9e9	0.0031706041
34	0xbb41a7f0	-0.0029549561
35	0xb98d3f91	-0.00026940976
36	0x3b3fdde0	0.0029276535
37	0x3b397b3e	0.0028302218
38	0x39538525	0.00020172128
39	0xbb3bd81b	-0.0028662744
40	0xbbaf3229	-0.0053465557
41	0x3bbd0c6f	0.0057693045
42	0x3babccbb	0.0052429116
43	0x3bad7452	0.0052934075
44	0x3a888970	0.0010416936
45	0x39f4a51a	0.00046662317
46	0x39dc2538	0.000419894
47	0x3b93cd4d	0.0045105577
48	0xba185842	-0.0005811491
49	0xbba9a2bd	-0.0051768706
50	0xbb2c91ae	-0.002633195
51	0x3b4e0a4e	0.0031439248
52	0x3bba64a8	0.0056882687
53	0xbbc63467	-0.0060487273
54	0x3bb0e79d	0.005398704
55	0xb9a9c9a3	-0.00032384423
56	0xbbd155a4	-0.006388383
57	0xbbd5e8c2	-0.006527991
58	0x39c3125e	0.00037206983
59	0x3bd44cd7	0.0064788866
60	0xbe14ecfb	-0.14543526
61	0x3e162851	0.14663817
62	0x3e1116cd	0.14168854
63	0x3e102b77	0.1407908
64	0x3b186164	0.0023251409
65	0xbaea2784	-0.001786456
66	0xbaa6b229	-0.0012717891
67	0x3df63dd5	0.12023512
68	0x3b075709	0.0020651242
69	0xbe12a116	-0.14319262
70	0xbda39722	-0.07987811
71	0x3dab8fb6	0.0837702
72	0x3e199280	0.14997292
73	0xbe27e84a	-0.16397205
74	0x3e166e61	0.14690544
75	0x3af09c6f	0.0018357168
76	0xbe2906b8	-0.16506469
77	0xbe288b72	-0.16459444
78	0xb9c4ce02	-0.0003753752
79	0x3e2ad8c3	0.1668425
80	0x3e16d24e	0.14728662
81	0xbe17ec8d	-0.1483633
82	0xbe129ee7	-0.14318429
83	0xbe11fb75	-0.1425608
84	0xbb2df57b	-0.0026544023
85	0x3ae2074f	0.001724461
86	0x3aa1a5b0	0.0012332704
87	0xbdf89609	-0.12137992
88	0xbb120e23	-0.0022286258
89	0x3e14a619	0.14516486
90	0x3da62d6b	0.081141315
91	0xbdad71a7	-0.08468943
92	0xbe1b3f31	-0.15160824
93	0x3e29dcc9	0.16588129
94	0xbe18be2c	-0.14916295
95	0xbb002177	-0.0019551197
96	0x3e2b59bd	0.16733451
97	0x3e2a6120	0.16638613
98	0x39fbc6e8	0.00048022647
99	0xbe2cd8d0	-0.16879582
100	0xbb267007	-0.0025396363
101	0x3b474377	0.0030405202
102	0x3b0e99fd	0.0021759265
103	0x3b10601e	0.0022029947
104	0x394ff60b	0.00019832716
105	0x392f074a	0.00016692016
106	0x39629706	0.000216093
107	0x3b08f3c3	0.0020897246
108	0xb9f18c55	-0.00046071658
109	0xbb1fcf5e	-0.0024385075
110	0xba0c32b9	-0.00053481344
111	0x3aaec94a	0.0013335135
112	0x3b382855	0.0028100212
113	0xbb2762af	-0.0025540998
114	0x3b30ab37	0.002695752
115	0xb94f09c5	-0.00019744698
116	0xbb3bef8b	-0.0028676714
117	0xbb5d3a54	-0.003375669
118	0x3967b77f	0.00022098234
119	0x3b427bee	0.0029675919
120	0xbaa394b0	-0.0012480225
121	0x3a9851dd	0.0011621077
122	0x39abacb7	0.00032744344
123	0x3a02c4ee	0.0004988451
124	0xb8a6f02b	-7.9602316e-05
125	0x3904373a	0.00012609074
126	0x39109114	0.00013786956
127	0x39f30b7d	0.0004635713
128	0xb8e50788	-0.00010920974
129	0xba8d67f0	-0.0010788422
130	0xb8ef8d91	-0.00011422777
131	0x393b8897	0.00017884593
132	0x3a763b62	0.0009393004
133	0xba64b907	-0.0008725081
134	0x3a91dc7d	0.0011128333
135	0xb92c9c4a	-0.0001646142
136	0xba3eefb9	-0.0007283646
137	0xba7946fe	-0.0009509175
138	0x38e29bcb	0.000108055385
139	0x3a4f23bd	0.0007901749
140	0xbb54b196	-0.0032454482
141	0x3b4614bd	0.0030224763
142	0x3afc24fc	0.0019237096
143	0x3b263c94	0.0025365697
144	0x398cddac	0.0002686804
145	0x39c805e6	0.00038151367
146	0x39de3217	0.0004238046
147	0x3ac9e514	0.0015403354
148	0xb98c4ad1	-0.00026758623
149	0xbb4f109a	-0.0031595589
150	0xba97ccfd	-0.0011581477
151	0x3aa9a177	0.0012941797
152	0x3b4ffb82	0.0031735604
153	0xbb4b0851	-0.0030980299
154	0x3b43879b	0.0029835466
155	0xb9974992	-0.00028855779
156	0xbb47bd75	-0.0030477915
157	0xbb445ff9	-0.002996443
158	0x39a12e3a	0.00030742754
159	0x3b57df2c	0.0032939417
160	0x3e196e4f	0.14983486
161	0xbe19a5c7	-0.15004645
162	0xbe134705	-0.1438256
163	0xbe13d213	-0.14435606
164	0x3a9aed25	0.0011819942
165	0x3b795b87	0.003804894
166	0x3b386181	0.0028134289
167	0xbdfbffa9	-0.12304623
168	0xbb914c0a	-0.0044341134
169	0x3e16ba13	0.14719419
170	0x3da81eb8	0.08208984
171	0xbdaf7cdf	-0.08568739
172	0xbe1d9b73	-0.1539133
173	0x3e2c5c1d	0.16832013
174	0xbe1acb45	-0.15116604
175	0xbb677121	-0.0035315233
176	0x3e2d423f	0.16919802
177	0x3e2c8a93	0.16849737
178	0x3b0881ea	0.0020829388
179	0xbe2f3ee8	-0.1711384
180	0xbe18fd9e	-0.14940497
181	0x3e18c77d	0.14919849
182	0x3e119e7f	0.14220618
183	0x3e1256f5	0.14290984
184	0x388f1900	6.823428e-05
185	0xbb24157d	-0.0025037222
186	0xbae44308	-0.0017414996
187	0x3df90bc1	0.12160445
188	0x3b5567d6	0.0032563112
189	0xbe15ff09	-0.1464807
190	0xbda40f90	-0.08010781
191	0x3dadb6b9	0.08482117
192	0x3e1c6e94	0.15276557
193	0xbe2a11aa	-0.16608301
194	0x3e1925e0	0.14955854
195	0x3b339f7d	0.0027408295
196	0xbe2bcc67	-0.16777192
197	0xbe2b6a6b	-0.16739814
198	0xba666b6b	-0.000878981
199	0x3e2d8b9c	0.16947788
200	0x3e15c083	0.14624219
201	0xbe16f1f6	-0.14740738
202	0xbe117985	-0.14206512
203	0xbe120e85	-0.14263351
204	0xbab04812	-0.0013449213
205	0x3b0f6d38	0.0021885168
206	0x3ac6ab98	0.001515734
207	0xbdf88f86	-0.1213675
208	0xbb3d2ee5	-0.0028867063
209	0x3e136889	0.14395346
210	0x3da4a788	0.080397666
211	0xbdad9eca	-0.08477552
212	0xbe1ae64b	-0.15126912
213	0x3e2974b1	0.1654842
214	0xbe17a2f5	-0.14808257
215	0xbb111c75	-0.0022142206
216	0x3e2b0f22	0.16704991
217	0x3e2a4189	0.16626562
218	0x3a54c103	0.0008115919
219	0xbe2cd522	-0.16878179
220	0x3e15f4bf	0.14644144
221	0xbe17707d	-0.14789005
222	0xbe11795a	-0.14206448
223	0xbe11c709	-0.14236082
224	0xbb408557	-0.0029376352
225	0x3a8050d0	0.0009789709
226	0x3a185415	0.0005810869
227	0xbdf88fe6	-0.121368214
228	0xbae80495	-0.0017701561
229	0x3e13c0e0	0.14429045
230	0x3da4c309	0.080450125
231	0xbdad0fbb	-0.08450266
232	0xbe1ae67f	-0.1512699
233	0x3e29598a	0.16538063
234	0xbe17653b	-0.1478471
235	0xbad4ffdd	-0.001625057
236	0x3e2afeb2	0.16698721
237	0x3e2a5a9c	0.16636127
238	0xb8b685eb	-8.7033804e-05
239	0xbe2cc68d	-0.16872616
240	0x3e14eae2	0.14542726
241	0xbe164312	-0.14674023
242	0xbe10a81c	-0.14126629
243	0xbe10e6ff	-0.14150618
244	0xbb352886	-0.0027642562
245	0x3aba9658	0.001423548
246	0x3a581869	0.00082433835
247	0xbdf70231	-0.12060965
248	0xbb0e690b	-0.002173009
249	0x3e1287a2	0.14309552
250	0x3da3bfb5	0.079955496
251	0xbdac155c	-0.084025115
252	0xbe1982b0	-0.1499126
253	0x3e281c5b	0.16417067
254	0xbe176657	-0.14785133
255	0xbac58751	-0.0015070235

hidden_layers.2.bias f4 [20]
0	0xbbce7005	-0.006299975
1	0x3f09d2ce	0.5383729
2	0x3ec98638	0.39360213
3	0x3c0ba56e	0.008523328
4	0xbb931152	-0.0044881487
5	0x3eac2d7f	0.3362846
6	0x3f3024ee	0.6880635
7	0x3f452a69	0.7701784
8	0x3b9b36f6	0.0047367765
9	0x3b1832f4	0.002322373
10	0xbb56d898	-0.0032782909
11	0xbc280989	-0.01025618
12	0xbc067355	-0.008206208
13	0x3b2408f8	0.002502976
14	0xbbb1b551	-0.005423226
15	0x3c0cdf16	0.00859811
16	0x3f6dbdfc	0.9286802
17	0x3c3a803e	0.011383114
18	0xbc3c481d	-0.0114918025
19	0x3c43d97b	0.011953707

hidden_layers.3.weight f4 [20, 20]
0	0x37224592	9.672151e-06
1	0x3a1d969a	0.0006011516
2	0x39f3336b	0.0004638688
3	0xb9aa6923	-0.0003250326
4	0xb79e6acd	-1.88848e-05
5	0x3a0bc570	0.00053318497
6	0x3a54f289	0.0008123299
7	0x3a6872f8	0.00088672293
8	0x398baa90	0.00026639225
9	0x39b8e122	0.00035262952
10	0x3912d33f	0.0001400234
11	0xb862fcac	-5.4117918e-05
12	0xb9cd3a43	-0.00039144055
13	0x391dc0e6	0.00015044547
14	0xb9310970	-0.00016883551
15	0x39df47d6	0.00042587396
16	0x3a4ca3a5	0.00078063674
17	0x39eaa46e	0.00044754468
18	0x396b8b24	0.0002246318
19	0xba982860	-0.0011608712
20	0x380bd7e2	3.334124e-05
21	0x391ed17c	0.00015146093
22	0x38d8b097	0.00010332575
23	0xb8dbbf5b	-0.000104783765
24	0xb7b4acd7	-2.1538157e-05
25	0x39333afa	0.00017092741
26	0x396ad733	0.00022396147
27	0x3960b1d4	0.00021428551
28	0x38d192b7	9.9932244e-05
29	0x3892c342	6.998192e-05
30	0x38b4944d	8.610692e-05
31	0x38d3099d	0.00010063055
32	0xb8e41555	-0.000108758606
33	0xb806e9d3	-3.2165855e-05
34	0x36c72176	5.9345575e-06
35	0x389b8f78	7.417699e-05
36	0x3982942a	0.00024905923
37	0x392114ff	0.00015361978
38	0x393f4de2	0.00018244193
39	0xb927226a	-0.00015939181
40	0x39baae22	0.00035606424
41	0xb823b627	-3.903187e-05
42	0xb8101c2f	-3.4358523e-05
43	0xb99a1784	-0.0002939069
44	0x3981d747	0.00024765191
45	0xb8581ee6	-5.152719e-05
46	0x381b8d18	3.7086284e-05
47	0x38ea57f6	0.000111743735
48	0x39814539	0.00024656372
49	0xb95e69fb	-0.0002121105
50	0x39c9444d	0.00038388596
51	0x39984daa	0.00029049563
52	0x386793cd	5.5212342e-05
53	0x39376e9a	0.00017493442
54	0x39502455	0.0001984996
55	0xb9193e10	-0.00014614337
56	0xb855453c	-5.0847637e-05
57	0x381257ca	3.4890872e-05
58	0x39ef1ff7	0.00045609448
59	0xb93418d2	-0.00017175384
60	0x3ab91129	0.0014119494
61	0xb9bfccd9	-0.00036582982
62	0xb9d641c0	-0.00040866248
63	0xba4f9185	-0.00079181074
64	0x3a81e739	0.0009910829
65	0xb9c1c989	-0.00036961984
66	0xb9c16a41	-0.00036890994
67	0xba170a33	-0.00057617127
68	0x3a6561bb	0.000875022
69	0x3a341b92	0.00068705634
70	0x3ab66617	0.0013915923
71	0x3a78fdf7	0.0009498293
72	0x3a87088f	0.0010302233
73	0x3a9c63a3	0.001193155
74	0x3a72d9f7	0.00092640467
75	0xba85d4ef	-0.0010210554
76	0xb9afb370	-0.00033512292
77	0xbaa92bfc	-0.0012906785
78	0x3a49f986	0.00077047234
79	0xbae30aad	-0.0017321907
80	0x3719345b	9.131701e-06
81	0x38078a9f	3.231561e-05
82	0xb6cebc71	-6.161216e-06
83	0x391882ed	0.00014544623
84	0xb7a79dc9	-1.9981426e-05
85	0xb852df6d	-5.0275983e-05
86	0x389321f3	7.01583e-05
87	0x38688d98	5.544498e-05
88	0xb96de329	-0.00022686705
89	0x3a419891	0.00073851
90	0xb5f68055	-1.8365778e-06
91	0xb8dc4d5d	-0.000105048275
92	0x3849f658	4.815156e-05
93	0xb7a09897	-1.9144542e-05
94	0xb88fcaaa	-6.8565205e-05
95	0xb83401a8	-4.2916887e-05
96	0x393eab43	0.00018183612
97	0xb885ffa6	-6.3895524e-05
98	0xb99c4393	-0.00029804985
99	0xba937653	-0.0011250473
100	0xba01e30f	-0.0004954794
101	0xb9785086	-0.0002368112
102	0xb9088bb8	-0.0001302202
103	0x39cd86a8	0.00039200974
104	0xb90c1099	-0.00013357624
105	0xb9774bbc	-0.00023583969
106	0xb9b766ea	-0.00034981157
107	0xb96a3d7f	-0.00022338888
108	0xb9b1ce1e	-0.0003391364
109	0xb9e29c6f	-0.0004322263
110	0xba044e33	-0.0005047053
111	0xb9b740d9	-0.00034952795
112	0xb96053f4	-0.0002139358
113	0xb9c769e7	-0.0003803514
114	0xb995cb84	-0.00028571126
115	0x399c6d35	0.00029836004
116	0xb9dcacdb	-0.00042090457
117	0x3876a3fb	5.880369e-05
118	0xb9b86782	-0.00035172334
119	0x3a8e899f	0.0010874755
120	0x3929601f	0.00016152904
121	0xb9bbe8fe	-0.00035841012
122	0xb9cac21b	-0.00038673062
123	0xb99a954a	-0.00029484398
124	0x396c50b0	0.00022536772
125	0xb8e93939	-0.00011120964
126	0xb9b868af	-0.0003517321
127	0xb9c0ff61	-0.00036811366
128	0x3982d22f	0.0002495213
129	0xb997bca3	-0.0002894151
130	0x3883e78f	6.289698e-05
131	0x391d22ad	0.00014985605
132	0x382852bc	4.0131374e-05
133	0xb849238e	-4.7955247e-05
134	0x390486c0	0.00012638699
135	0x388188d9	6.176689e-05
136	0xb9e79e8e	-0.00044177886
137	0xb893bb17	-7.0443544e-05
138	0x39c752df	0.00038017982
139	0x3a2830aa	0.0006415943
140	0xb9c5dbe3	-0.00037738596
141	0xba0006a9	-0.0004883805
142	0xb9cc1dc2	-0.00038932083
143	0x39ac01d9	0.00032807773
144	0xb96bef15	-0.00022500411
145	0xb95a5437	-0.00020821473
146	0xba102661	-0.0005498883
147	0xba15b4e8	-0.0005710856
148	0xb932fe3c	-0.00017070113
149	0xb7f50cb4	-2.9212191e-05
150	0xb9d91124	-0.00041402236
151	0xb9a0063d	-0.00030522226
152	0xb98bb59e	-0.0002664746
153	0xb93c59e4	-0.00017962564
154	0xb943bf40	-0.00018667895
155	0x39456a40	0.00018826965
156	0xba1f17e1	-0.0006068927
157	0xb84d9742	-4.901668e-05
158	0xb9d7402a	-0.00041055802
159	0x39d91a5d	0.00041409108
160	0x3a3e1953	0.00072516984
161	0x3a112376	0.0005536595
162	0x39cf4cad	0.00039539245
163	0xba58713c	-0.00082566193
164	0x3a1c4a22	0.00059619744
165	0x398a9bea	0.00026437576
166	0x3a1a2bf1	0.00058811816
167	0x3a0918e7	0.0005229846
168	0x3a589100	0.0008261353
169	0xb92fd345	-0.00016768005
170	0x3a75cff8	0.0009376998
171	0x3a3faaeb	0.00073115405
172	0x3a0727c1	0.0005155765
173	0x3a35a925	0.00069298066
174	0x3a21392d	0.00061501825
175	0xba21392c	-0.0006150182
176	0x3a31578a	0.00067650585
177	0xb9c326ef	-0.00037222306
178	0x3a5979c9	0.00082960405
179	0xba2896d1	-0.0006431165
180	0xb93b8b88	-0.00017885689
181	0x390105e5	0.00012304595
182	0x383aab42	4.4505352e-05
183	0x397db4f4	0.0002419537
184	0xb919647b	-0.00014628649
185	0x37b169fc	2.1149397e-05
186	0x38def5a0	0.00010631536
187	0x389f4512	7.594576e-05
188	0xb98397a6	-0.00025099254
189	0x39d1c326	0.00040008983
190	0xb9486f51	-0.00019114955
191	0xb92df7c1	-0.00016590861
192	0xb88b0ea1	-6.630761e-05
193	0xb8a61a9d	-7.920454e-05
194	0xb955f06a	-0.00020402824
195	0x39304e1d	0.00016813767
196	0x3929b3d6	0.0001618409
197	0x3906b2b8	0.00012845814
198	0xb98c43b4	-0.00026753324
199	0xba02a742	-0.000498403
200	0x3f0d7626	0.55258405
201	0x3c203d6e	0.009780271
202	0xbc98cc4c	-0.018652104
203	0xbf0a1877	-0.5394358
204	0x3f0cd14d	0.5500687
205	0xbc0db6d7	-0.008649549
206	0xbb95df6c	-0.004573753
207	0xbc2b4b33	-0.010454941
208	0x3f0ecefa	0.5578457
209	0xbf0d0911	-0.5509196
210	0x3f0beece	0.5466126
211	0x3f0c5523	0.5481741
212	0x3f0ab270	0.54178524
213	0x3f0e3ac3	0.55558413
214	0x3f0cb836	0.54968584
215	0xbf0c1ab8	-0.5472827
216	0xbb4b1655	-0.0030988653
217	0xbf106cf8	-0.56416273
218	0x3f0c40d8	0.54786444
219	0x3f098c5e	0.5372981
220	0xb9ab611b	-0.0003268801
221	0x39b04a74	0.00033624808
222	0x39ba844a	0.00035575248
223	0xb79157ad	-1.7326174e-05
224	0xb72b2a2e	-1.0202215e-05
225	0x386a92d5	5.5926695e-05
226	0x39b0e8b4	0.00033742713
227	0x39e6cdc6	0.00044022332
228	0x3937f348	0.0001754287
229	0xba3982ee	-0.00070767
230	0x37153fa6	8.895911e-06
231	0x3995abf2	0.00028547604
232	0xb7460c4f	-1.18045855e-05
233	0x38b57945	8.653341e-05
234	0x391328f0	0.00014034263
235	0xb9838b33	-0.0002508998
236	0x39f13843	0.0004600902
237	0x3661488e	3.3569845e-06
238	0x38d4c60c	0.00010145837
239	0x3a6da5e5	0.0009065553
240	0xb940a449	-0.00018371748
241	0xb915c88d	-0.00014284458
242	0xb91effeb	-0.00015163391
243	0xb836bf13	-4.3570133e-05
244	0x379ed360	1.8933497e-05
245	0xb786c46f	-1.6065516e-05
246	0xb949f5ac	-0.00019260374
247	0xb9722d92	-0.00023095895
248	0x39488d37	0.00019126093
249	0xb9d1efbe	-0.00040042208
250	0xb8d58de6	-0.00010183062
251	0x373c3aac	1.1219334e-05
252	0xb95b5e6a	-0.0002092064
253	0xb9224bc4	-0.00015477749
254	0xb804fc09	-3.170598e-05
255	0x39243fb4	0.0001566399

hidden_layers.3.bias f4 [20]
0	0x3e0e83ac	0.13917416
1	0xbd672031	-0.056427184
2	0x3efc2466	0.4924652
3	0xbebaa978	-0.3645742
4	0xbef1b5d9	-0.4720905
5	0x3e760a41	0.24027349
6	0xbeb865c4	-0.3601514
7	0x3f09a047	0.5376019
8	0xbeec3727	-0.46135828
9	0xbf32e511	-0.6988078
10	0x3f1b8cf1	0.60761935
11	0x3e89e7f3	0.26934776
12	0xbc588b0a	-0.013216743
13	0xbf33ac3f	-0.701847
14	0x3ea05821	0.31317237
15	0x3ede63f0	0.4343562
16	0xbea5d1ff	-0.32386777
17	0x3fd62f98	1.6733274
18	0xbf509d5e	-0.81490123
19	0xbecd2cf3	-0.40073356

output_layer.weight f4 [1, 20]
0	0x3aca0a9e	0.0015414541
1	0xb962e604	-0.00021638727
2	0x3b191d28	0.0023363326
3	0x3aea2c59	0.0017866
4	0xbaaf9647	-0.0013396227
5	0xba2535b1	-0.0006302251
6	0x396d705f	0.00022643943
7	0x39bfadc8	0.00036559836
8	0x3a4ae40c	0.000773967
9	0xbafa9ece	-0.0019120814
10	0x3f9e3b16	1.2361782
11	0xba4f84ec	-0.000791623
12	0x399927b0	0.00029212004
13	0xbb66f238	-0.0035239588
14	0x3a99a02b	0.0011720707
15	0x3a92adbe	0.0011190695
16	0xbabe60e9	-0.0014524731
17	0xbece0225	-0.4023601
18	0xbaab2d01	-0.0013059677
19	0xba076080	-0.0005164221
