Task4/models/b_model1-11_06_2022-18_49_57.pth (torch, 10625 bytes, 11 tensors)

input_layer.weight f4 [20, 2]
-0.9159621 0.027910607 0.82857627 -0.6684792 0.7356415 -0.9240616 -0.88353014 -0.70758253
-0.1680946 0.4334186 -0.28661588 -0.75348 -2.699059 -0.00050056307 0.31386217 -0.08529559
-3.8260014 0.0032526406 -0.25807863 0.75965464 0.78050804 -0.7408487 0.39281318 0.18805458
-0.83916456 0.7246427 0.9478787 2.904931 -0.64721584 -0.8801991 -0.24503915 -0.6553612
-0.46212065 -0.5619219 -0.054509174 -0.62834466 0.75133866 -0.88669086 -0.5694274 -0.76959425
00000000: 7e7c 6abf c9a4 e43c 931d 543f 7421 2bbf
00000010: 0053 3c3f 4d8f 6cbf 082f 62bf 2124 35bf
00000020: fe20 2cbe 0be9 dd3e 51bf 92be 11e4 40bf
00000030: 62bd 2cc0 3838 03ba 8bb2 a03e 74af aebd
00000040: 35dd 74c0 412a 553b e222 84be ba78 423f
00000050: 60cf 473f 43a8 3dbf cf1e c93e 6191 403e
00000060: 7dd3 56bf 2f82 393f 2ea8 723f 64ea 3940
00000070: f0af 25bf ba54 61bf 8beb 7abe c0c5 27bf
00000080: 149b ecbe 1dda 0fbf 0345 5fbd 32db 20bf
00000090: bb57 403f 2cfe 62bf fec5 11bf 2104 45bf

input_layer.bias f4 [20]
-0.19036135 0.09145329 -0.04680282 0.046106406 -0.086154416 -0.007161632 0.07924686 0.12936082
0.13215417 0.06412961 -0.1009284 -0.55575967 0.35942173 -0.2210356 -0.01250694 -0.11354316
0.015171372 -0.0098274695 -0.13917068 -0.017728528
00000000: 16ee 42be dd4b bb3d 50b4 3fbd 12da 3c3d
00000010: ba71 b0bd 20ac eabb 2e4c a23d 2a77 043e
00000020: 6c53 073e 6356 833d 8db3 cebd 4446 0ebf
00000030: 2006 b83e 2857 62be e9e9 4cbc 5189 e8bd
00000040: 5991 783c 6503 21bc c282 0ebe 6b3b 91bc

hidden_layers.0.weight f4 [20, 20]
0.5307984 0.5402836 -0.61035955 0.12502055 0.6961183 0.11487805 -0.21510679 0.5435363
-0.3286886 -0.0556676 0.44590312 -0.617035 -0.66639924 0.28044614 -0.4125773 0.24915011
0.4265894 0.01744794 -0.5892164 -0.017966725 0.5959586 -0.5041642 0.46393958 0.41682458
0.19088542 0.49877533 -0.51646054 -0.50694597 0.38697052 -0.11778648 -0.39606333 0.4915454
0.41560575 -0.109958656 0.25789252 0.18627632 0.54740983 0.17705111 0.21985203 0.07177985
-0.12335482 -0.1678589 0.27342346 0.6794678 -0.28066662 0.0018802304 -0.4241082 0.0650563
0.15685022 -0.04237474 0.65593183 0.5332878 0.6518339 -0.45952556 -0.12654625 -0.102002874
-0.5082838 -0.02756667 0.52734464 0.6743339 0.74066514 0.09315295 0.49330834 0.39117765
0.2359898 0.5491106 0.5128278 -0.3475933 0.5019285 0.32985494 0.49357474 -0.19801173
-0.2739545 0.21278046 -0.6953806 0.34432665 -0.037738126 -0.20648953 -0.5051304 0.34899774
0.36396462 0.78295684 0.017790595 0.2927336 -0.69425696 0.7789282 -0.65365785 -0.03146974
-0.17673706 -0.48145053 0.65365285 -0.66934985 -0.08190987 -0.4126693 -0.2092106 0.55721205
0.17773004 0.030829871 -0.06119172 -0.39429477 -0.2844392 0.38976339 -0.18835619 0.19895266
-0.42049044 -0.29933077 0.025019871 -0.07299147 -0.24272946 0.034559883 0.58452964 0.041563604
-0.32502925 0.22778146 -0.11781405 -0.5908948 -0.1329436 0.20245998 0.44284672 0.10881153
-0.55985594 0.1571658 0.41016135 -0.079275966 -0.4027415 0.4443899 0.7395763 -0.4271786
-0.09894077 0.7123105 -0.18042733 -0.7465718 0.23012415 0.15805243 -0.69796723 0.11097194
-0.51917154 0.1657205 -0.6927248 -0.05276338 0.45792645 -0.11433712 -0.5727236 -0.06793925
0.29617828 -0.203186 -0.43181726 0.2238546 0.17935382 0.51585865 -0.31435606 0.32772824
0.377737 0.52454424 -0.722868 0.5386365 -0.24785826 -0.35298747 0.39523348 -0.62785625
-0.5726467 0.07523336 -0.35093853 -0.48420554 -0.6673731 0.20028064 0.6714979 0.3993306
-0.079309925 0.36173105 -0.29360855 -0.4210629 -0.34831214 -0.17044744 0.48210135 -0.43691662
-0.039905794 0.1386291 0.2045506 -0.580856 1.0058359 0.49370456 0.27075982 0.5243359
0.21195726 -0.6245801 -0.7662421 -0.23536111 -0.99827623 -0.11583045 0.43779346 0.82535875
-0.6289115 -0.46380296 -0.22434722 -0.36291304 0.14131407 -0.32220036 0.40569243 0.3058786
-0.040534955 0.10036919 -0.42991373 -0.43653935 -0.44495144 -0.20641518 2.055112 0.7289405
1.7036855 -0.33956918 0.28502268 -0.24714258 0.15483049 0.7950283 -0.033216767 0.32311448
-0.12607154 0.30087328 0.11526216 -0.38947323 0.0790953 -0.026780242 -0.059259724 0.13742141
0.06791872 0.5272371 0.25604928 -0.39284068 0.022313153 -0.34770924 -0.33196217 -0.11152352
-0.5010686 0.1886843 -0.6654939 -0.3566261 0.24719928 -0.62821734 -0.26256973 0.17129162
0.9079692 -0.46396255 0.2894299 -0.22424108 0.2875958 0.14774425 -0.98339313 0.021008905
-0.88856256 -0.321935 -0.25368768 1.0611712 -0.8479284 0.18781169 0.23071995 0.10272781
00000000: 67e2 073f 0750 0a3f 8640 1cbf 6305 003e
00000010: cf34 323f 2f45 eb3d f444 5cbe 3225 0b3f
00000020: df49 a8be b603 64bd 6a4d e43e 01f6 1dbf
00000030: 2499 2abf a396 8f3e 553d d3be 3521 7f3e
00000040: ed69 da3e fbee 8e3c e3d6 16bf f42e 93bc
00000050: be90 183f e810 01bf 7d89 ed3e 086a d53e
00000060: 7877 433e 7b5f ff3e c236 04bf 36c7 01bf
00000070: 0021 c63e 0a3a f1bd d0c8 cabe d7ab fb3e
00000080: 47ca d43e 0132 e1bd 7d0a 843e 38bf 3e3e
00000090: 0d23 0c3f e34c 353e e420 613e 5001 933d
000000a0: 74a1 fcbd 34e3 2bbe 29fe 8b3e 9af1 2d3f
000000b0: 89b3 8fbe 1072 f63a b624 d9be 3d3c 853d
000000c0: 589d 203e 2391 2dbd 26eb 273f 8d85 083f
000000d0: 96de 263f ef46 ebbe 5795 01be e2e6 d0bd
000000e0: e31e 02bf 7fd3 e1bc 0f00 073f 25a1 2c3f
000000f0: 3b9c 3d3f f9c6 be3d e992 fc3e 7048 c83e
00000100: 4fa7 713e 8392 0c3f af48 033f c0f7 b1be
00000110: 637e 003f bfe2 a83e d4b5 fc3e 96c3 4abe
00000120: c443 8cbe 1fe3 593e 7704 32bf 954b b03e
00000130: 4b93 1abd fe71 53be 3a50 01bf d5af b23e
00000140: 9259 ba3e dc6f 483f 95bd 913c 2ee1 953e
00000150: d3ba 31bf d767 473f 1f56 27bf 6ae6 00bd
00000160: 8ffa 34be af80 f6be cb55 273f 835a 2bbf
00000170: 5dc0 a7bd 6449 d3be 4e3b 56be 73a5 0e3f
00000180: ddfe 353e ed8e fc3c 2ba4 7abd 01e1 c9be
00000190: 04a2 91be 118f c73e 72e0 40be 3fba 4b3e
000001a0: 864a d7be e241 99be 79f6 cc3c 8d7c 95bd
000001b0: 128e 78be aa8e 0d3d bca3 153f 993e 2a3d
000001c0: 3c6a a6be 8b3f 693e 7e48 f1bd e244 17bf
000001d0: 5e22 08be ab51 4f3e cebc e23e 94d8 de3d
000001e0: b852 0fbf 12f0 203e ab00 d23e 705b a2bd
000001f0: 2234 cebe 1387 e33e df54 3d3f 27b7 dabe
00000200: 75a1 cabd fb59 363f f1c1 38be 541f 3fbf
00000210: aaa5 6b3e 7fd8 213e fbad 32bf 4245 e33d
00000220: 6de8 04bf a2b2 293e 6a56 31bf 6a1e 58bd
00000230: 5675 ea3e 9429 eabd 049e 12bf bc23 8bbd
00000240: aea4 973e fe0f 50be 2717 ddbe 243a 653e
00000250: 87a8 373e 500f 043f 47f3 a0be ffcb a73e
00000260: be66 c13e 8848 063f e10d 39bf 15e4 093f
00000270: 8ece 7dbe c6ba b4be 0b5c ca3e 30bb 20bf
00000280: f998 12bf f313 9a3d 37ae b3be cae9 f7be
00000290: f7d8 2abf 5e16 4d3e 49e7 2b3f 0f75 cc3e
000002a0: 3e6d a2bd d034 b93e dc53 96be 8e95 d7be
000002b0: f855 b2be c689 2ebe fdd5 f63e 89b3 dfbe
000002c0: 4274 23bd c9f4 0d3e b675 513e fbb2 14bf
000002d0: 3bbf 803f d8c6 fc3e 08a1 8a3e e13a 063f
000002e0: 530b 593e 7be4 1fbf 7128 44bf 8102 71be
000002f0: 088f 7fbf 8438 edbd 7726 e03e b64a 533f
00000300: 5800 21bf 9577 edbe 47bb 65be bdcf b9be
00000310: a3b4 103e 72f7 a4be ebb6 cf3e 1f9c 9c3e
00000320: fb07 26bd 5d8e cd3d a71d dcbe 1682 dfbe
00000330: add0 e3be 805e 53be f486 0340 d89b 3a3f
00000340: 5e12 da3f 03dc adbe 7eee 913e f212 7dbe
00000350: e28b 1e3e fa86 4b3f 4e0e 08bd 436f a53e
00000360: e618 01be 100c 9a3e 910e ec3d 0969 c7be
00000370: b7fc a13d 3d62 dbbc 53ba 72bd 33b8 0c3e
00000380: f818 8b3d 03f9 063f e418 833e 6a22 c9be
00000390: 13ca b63c f206 b2be f2f6 a9be 7166 e4bd
000003a0: 0846 00bf 7536 413e cf5d 2abf b297 b6be
000003b0: cf21 7d3e dad2 20bf 8a6f 86be 1267 2f3e
000003c0: ab70 683f 808c edbe 2830 943e 749f 65be
000003d0: c23f 933e 454a 173e a7bf 7bbf de1a ac3c
000003e0: d678 63bf aad4 a4be 5ae3 81be 75d4 873f
000003f0: d611 59bf b551 403e da41 6c3e f562 d23d

hidden_layers.0.bias f4 [20]
0.08409037 0.044810094 -0.06643248 0.086962424 -0.1901966 0.06829881 0.105330005 0.098828904
0.0052339556 0.05996946 -0.1157841 0.030864006 0.18273291 -0.03665781 0.23755892 -0.17370385
-0.008883559 0.28609774 -0.04390693 0.31029207
00000000: 9237 ac3d ca8a 373d c10d 88bd 5b19 b23d
00000010: e6c2 42be 3fe0 8b3d 42b7 d73d cf66 ca3d
00000020: 9a81 ab3b 89a2 753d 3720 edbd 83d6 fc3c
00000030: 561e 3b3e 8026 16bd a542 733e 6cdf 31be
00000040: 598c 11bc 677b 923e c1d7 33bd 9ade 9e3e

hidden_layers.1.weight f4 [20, 20]
-0.0026048168 0.73552597 0.344828 0.72788686 0.28014687 0.10906211 -0.642827 -0.054512035
0.07312625 -0.26961866 -0.30176458 0.5135286 0.76418483 0.16421369 0.33281615 -0.42311
-0.37574875 -0.43294755 0.48004502 0.13231151 -0.022417812 -0.7350133 0.0878692 -0.6403187
-0.37974256 0.3733761 0.29647216 -0.4912115 0.29358724 -1.1808968 1.0966172 0.5676936
-0.19132712 -0.36240795 -0.40596467 0.6723331 -0.41545135 -0.032707818 0.27227145 0.16358854
-0.11472298 0.28835183 -0.3544545 -0.19725743 -0.24066122 -0.54783505 0.0127249155 0.44213167
0.23711407 -0.38987026 0.16159311 0.64654213 0.43272763 -0.3968291 0.24266213 -0.091344856
-0.0632038 0.49643594 0.42997086 0.5855248 -0.05007009 0.5714135 0.2770868 0.33427158
0.4454451 0.2831869 0.28866872 0.111386776 0.39366496 0.5747121 -0.30111107 0.575775
0.33886808 0.44807622 -0.20208731 -0.1993666 0.373548 -0.44397625 -0.23573163 -0.14431426
-0.20333464 0.2620038 0.18809624 0.33037668 -0.008811323 -0.55213886 0.16675135 -0.04958264
0.16681024 0.42376804 -0.3189843 -0.3270824 0.04919891 -0.30937132 0.24123041 -0.322846
-0.389807 -0.3533068 -0.48246455 0.61382115 0.40451083 -0.4679604 0.31271508 -0.54691654
-0.038423616 0.5579867 -0.3739704 -0.4985252 -0.1751911 1.0714118 -0.75184584 -0.51856846
0.61468923 -0.45749578 0.6800247 0.012540446 -0.5897179 0.23947823 -0.015338151 0.5410894
-0.3370534 -0.23370896 0.21870904 0.14890015 0.19879435 0.34129936 0.24685064 -0.58965254
-0.32773197 -0.19902897 -0.13338834 -0.40146065 0.07498571 0.09814102 -0.20547205 -0.37519306
0.48207706 0.28540736 -0.15836303 -0.043883685 0.06749091 0.18068632 -0.3103633 -0.061933365
-0.02623443 0.7265535 -0.2602457 -0.49872354 0.18845734 0.7776687 0.09662922 -0.131811
0.6110941 0.44945297 -0.16323264 -0.11981935 -0.36850297 0.10020853 0.28012124 0.18317209
-0.03096438 0.0722064 0.49624026 -5.0178634e-05 0.025125181 -0.120754704 -0.26467893 -0.17457414
-1.0239496 1.4769307 -2.1389837 -0.74671954 1.3492329 -0.09638128 0.37451217 -1.3053015
0.5607196 -0.26508087 0.28022355 -0.48670253 0.11401269 0.45977637 0.8176265 0.5734169
0.37291107 -0.24866796 0.11990251 -0.628393 -0.07108804 0.23778756 -0.4670009 -0.28137037
-0.20509323 0.6825881 0.5602395 0.20616369 0.7153858 0.08879361 -0.22367145 -0.596955
0.39377326 -0.20884894 0.42699125 -0.16734405 0.005341297 -0.13939106 -0.64635134 0.11778409
-0.07924678 -0.17383042 -0.034982737 0.067224175 0.5229524 0.396051 0.5397961 0.19679558
0.4953252 0.28560653 0.46365395 -0.271871 -0.5542499 -0.5505394 -0.6273228 0.09770264
-0.28769243 -0.021297645 -0.65473074 0.55536 0.10757373 -0.2724036 -0.5002957 0.63098323
0.31346408 0.11958271 -0.19964561 -0.023652766 0.45712417 -0.2712103 0.18007478 0.61400425
-0.2672261 0.11095654 0.28348336 -0.2632895 -0.23216148 -0.21353763 -0.06971089 0.2934833
-0.5156651 -0.08974724 -0.57163537 0.3893064 0.019343924 -0.3669699 0.17086503 -0.12900653
00000000: 93b5 2abb 6e4b 3c3f 4c8d b03e cb56 3a3f
00000010: 696f 8f3e f55b df3d 4f90 24bf 0348 5fbd
00000020: 37c3 953d 750b 8abe e380 9abe 9c76 033f
00000030: 9ea1 433f a227 283e e166 aa3e e0a1 d8be
00000040: 2462 c0be 4dab ddbe 76c8 f53e ab7c 073e
00000050: 8fa5 b7bc d529 3cbf c4f4 b33d edeb 23bf
00000060: 9e6d c2be 272b bf3e 33cb 973e 1380 fbbe
00000070: 1151 963e a027 97bf f45d 8c3f 5e54 113f
00000080: 42eb 43be 898d b9be 9ada cfbe 061e 2c3f
00000090: 0ab6 d4be a2f8 05bd 2a67 8b3e c183 273e
000000a0: e2f3 eabd daa2 933e 0f7b b5be dafd 49be
000000b0: e56f 76be eb3e 0cbf 2a7c 503c 155f e23e
000000c0: 08ce 723e 139d c7be aa78 253e c983 253f
000000d0: 7a8e dd3e 2f2d cbbe 6c7c 783e 0313 bbbd
000000e0: fe70 81bd da2c fe3e 2425 dc3e f4e4 153f
000000f0: 4b16 4dbd 2848 123f 52de 8d3e a525 ab3e
00000100: 6111 e43e e0fd 903e 63cc 933e c01e e43d
00000110: 748e c93e 5520 133f 3b2b 9abe fe65 133f
00000120: 1e80 ad3e 3f6a e53e faef 4ebe c226 4cbe
00000130: af41 bf3e db50 e3be a263 71be 1ec7 13be
00000140: f536 50be 5d25 863e 4d9c 403e 2227 a93e
00000150: 5e5d 10bc f958 0dbf dec0 2a3e 2b17 4bbd
00000160: 4ed0 2a3e 20f8 d83e e951 a3be 5877 a7be
00000170: cc84 493d eb65 9ebe 1b05 773e 124c a5be
00000180: c894 c7be a1e4 b4be 9805 f7be 6223 1d3f
00000190: 0b1c cf3e 8198 efbe 311c a03e b902 0cbf
000001a0: 1562 1dbd 37d8 0e3f 0c79 bfbe b23e ffbe
000001b0: 4c65 33be 0624 893f f878 40bf e7c0 04bf
000001c0: 465c 1d3f e33c eabe 1916 2e3f 7176 4d3c
000001d0: c1f7 16bf c839 753e de4c 7bbc d684 0a3f
000001e0: 4392 acbe 6751 6fbe 43f5 5f3e 4879 183e
000001f0: bf90 4b3e cabe ae3e 6ac6 7c3e 78f3 16bf
00000200: 7ccc a7be 40ce 4bbe f496 08be 408c cdbe
00000210: 1c92 993d 29fe c83d 4467 52be 4e19 c0be
00000220: ced2 f63e ea20 923e eb29 22be 61bf 33bd
00000230: ad38 8a3d d605 393e f0e7 9ebe d7ad 7dbd
00000240: 96e9 d6bc 69ff 393f ed3e 85be b158 ffbe
00000250: f6fa 403e 4c15 473f 8ae5 c53d 76f9 06be
00000260: aa70 1c3f b31e e63e 7526 27be d963 f5bd
00000270: 6cac bcbe 213a cd3d 0d6c 8f3e 7791 3b3e
00000280: 03a9 fdbc f3e0 933d 3413 fe3e e676 52b8
00000290: 53d3 cd3c 3e4e f7bd ff83 87be 90c3 32be
000002a0: c810 83bf 110c bd3f 1ce5 08c0 0329 3fbf
000002b0: aab3 ac3f 8c63 c5bd 0fc0 bf3e 1f14 a7bf
000002c0: 528b 0f3f aeb8 87be 7679 8f3e 1331 f9be
000002d0: 7c7f e93d cf67 eb3e f84f 513f 73cb 123f
000002e0: 33ee be3e d0a2 7ebe 728f f53d 5dde 20bf
000002f0: 9b96 91bd 957e 733e be1a efbe c70f 90be
00000300: f603 52be 18be 2e3f db6b 0f3f 931c 533e
00000310: 8623 373f 6dd9 b53d 210a 65be 0bd2 18bf
00000320: a69c c93e 7fdc 55be 999e da3e 3d5c 2bbe
00000330: 0c06 af3b 88bc 0ebe 4877 25bf c938 f13d
00000340: 234c a2bd 9a00 32be 0f4a 0fbd d4ac 893d
00000350: 35e0 053f 32c7 ca3e 1430 0a3f c884 493e
00000360: 449b fd3e 053b 923e 0d64 ed3e ad32 8bbe
00000370: 52e3 0dbf 26f0 0cbf 3a98 20bf 5218 c83d
00000380: 6c4c 93be 6678 aebc 6f9c 27bf 132c 0e3f
00000390: 9e4f dc3d 7c78 8bbe 6113 00bf 1e88 213f
000003a0: 5d7e a03e c8e7 f43d e66f 4cbe 72c3 c1bc
000003b0: 2e0c ea3e 14dc 8abe 8665 383e 622f 1d3f
000003c0: dcd1 88be 2f3d e33d bb24 913e e2cd 86be
000003d0: bdbb 6dbe 9ca9 5abe 95c4 8ebd 7143 963e
000003e0: a102 04bf 67cd b7bd b256 12bf 2b53 c73e
000003f0: 2677 9e3c 7be3 bbbe 3ef7 2e3e 4a1a 04be

hidden_layers.1.bias f4 [20]
-0.10249636 0.11419711 0.08633477 -0.07212157 0.104885265 0.01350028 -0.03872779 -0.20931219
-0.366828 -0.26262033 0.0849814 0.2085086 0.17841752 0.030981835 -0.15826032 0.06110044
0.0005108544 -0.08588162 0.041238304 -0.04211813
00000000: 9de9 d1bd 2de0 e93d 49d0 b03d 79b4 93bd
00000010: 16ce d63d 4730 5d3c 08a1 1ebd ef55 56be
00000020: e1d0 bbbe 2c76 86be ba0a ae3d 4783 553e
00000030: 15b3 363e 9ecd fd3c fe0e 22be 7444 7a3d
00000040: dcea 053a b4e2 afbd 7fe9 283d 0f84 2cbd

hidden_layers.2.weight f4 [20, 20]
-0.46793315 -0.45160648 -0.53809613 -0.3040536 -0.6165821 -0.67144984 0.22097665 0.2656775
-0.33641285 0.5440177 -0.13747188 -0.53227097 -0.5915555 -0.5065398 -0.1155805 0.3212254
-0.66448605 0.31293964 -0.6150621 -0.62731093 0.9768011 -1.7086478 0.19045322 0.08808197
0.30736658 1.0204393 0.08475035 0.21309401 1.1522942 -0.018842228 0.45085946 -0.05603374
0.18521674 0.14288324 -1.4134915 -0.17595999 -0.58353424 0.7022584 -0.7846727 0.053332906
-0.33000574 0.049440734 0.32491916 -0.2679473 -0.06133456 0.20469406 0.24614017 0.45686704
0.8706764 0.13351136 0.30247083 -0.06152378 0.14263341 0.35553885 -0.6965656 -0.2763666
-0.2167604 -0.08509904 0.1998319 0.78782666 0.46529418 0.08061654 -0.43610337 0.22612277
0.37410748 0.039631363 0.24753763 -0.36310726 -0.5647947 0.05157425 -0.02766334 -0.44690406
0.22028384 -0.03399995 -0.56534916 0.081986986 -0.06926168 0.39544973 -0.45372328 -0.5300916
-0.06585255 -0.29467067 -0.5298475 0.23296627 0.05151661 0.3234695 0.14067711 -0.67836714
0.38528955 0.6119079 -0.295131 -0.12030946 -0.083209105 0.32350603 0.1387262 0.29320005
-0.4652355 0.1995919 -0.73475856 0.1552454 0.37503725 0.37035474 -0.09337843 -0.4438667
0.06519826 -0.3935843 -0.5386758 -0.37689546 0.1462065 -0.10440464 -0.698801 -0.012931215
0.5898705 -0.19386181 0.07420145 0.7389512 0.54765767 0.12651354 -0.3093763 0.6075312
-0.8435286 -0.5329178 0.50636655 -0.15921776 0.33555013 -0.13073336 -0.49854282 -0.4160684
0.6439428 -0.10978831 0.1704635 -0.42743066 0.5573767 -0.505629 -0.51943403 0.7800715
0.7943321 -0.234816 0.13904956 0.20962387 0.68536985 -1.0855536 -0.37319362 0.7157371
0.9295136 -0.015045013 0.46628502 0.17839083 0.6035576 0.9298989 -0.007588455 -0.09378815
-0.512329 0.050047334 -0.070970416 -0.049706955 -0.14759389 -0.18132624 -0.84014636 0.40461546
-0.46871686 0.32323658 0.39713687 -0.14910276 0.19760504 -0.48921195 -0.09685072 -0.06667239
-0.42676055 -0.57946575 -0.5635667 0.48406926 -0.0035425455 -0.5771904 0.022607954 -0.43433157
0.35792676 0.11462465 -0.11686316 0.102085344 -0.20584951 -1.141332 -0.8018489 -0.29991937
0.24983017 -0.29736063 0.6075533 0.05659822 0.38184154 0.046964925 -0.14273931 -0.66258156
-0.30021307 -0.2716595 -0.5845513 -0.78265405 -0.0007656523 0.10559091 -0.09437716 -0.52929217
0.63138115 0.42341897 -0.07115136 0.38951993 0.25591582 -0.29187995 0.17243113 -0.2357049
0.5391499 0.7406773 0.23738159 0.37706095 -0.70956624 0.6205641 -0.5457851 0.48686135
0.21305774 0.5898232 0.5970088 -0.36077058 -0.13493545 -0.08642941 0.39481777 0.18739189
0.5599907 0.05042777 -0.25644752 -0.43683204 -0.27036148 0.7190104 0.52503043 -0.02259483
-0.8335827 -0.01599237 -0.5225278 -0.2840832 -0.5169671 0.061859876 -0.46714818 0.04205078
-0.20417231 -0.20749608 0.5164708 -0.481843 0.5217026 -0.3930266 0.25419173 0.33603123
-0.014543 0.2152627 0.3074007 0.2505559 0.5759235 0.30262125 -0.68366385 0.47517487
00000000: ef94 efbe f738 e7be abc0 09bf eaac 9bbe
00000010: 53d8 1dbf 23e4 2bbf b447 623e e206 883e
00000020: 4e3e acbe be44 0b3f 6ec5 0cbe e942 08bf
00000030: 2e70 17bf 98ac 01bf 78b5 ecbd a877 a43e
00000040: c21b 2abf a039 a03e b674 1dbf 7397 20bf
00000050: a30f 7a3f f9b4 dabf 2b06 433e 5264 b43d
00000060: 275f 9d3e c19d 823f 9791 ad3d 5135 5a3e
00000070: 607e 933f 045b 9abc 0dd7 e63e a383 65bd
00000080: 75a9 3d3e fc4f 123e 4aed b4bf db2e 34be
00000090: 8062 15bf 35c7 333f 4fe0 48bf 9b73 5a3d
000000a0: 83f6 a8be 5e82 4a3d ce5b a63e 6330 89be
000000b0: f339 7bbd 529b 513e 2b0c 7c3e 7aea e93e
000000c0: a6e4 5e3f 34b7 083e 75dd 9a3e 5c00 7cbd
000000d0: 7e0e 123e 3009 b63e 2052 32bf ec7f 8dbe
000000e0: 70f6 5dbe 6848 aebd bca0 4c3e 02af 493f
000000f0: 0a3b ee3e 491a a53d f148 dfbe ba8c 673e
00000100: 048b bf3e 7f54 223d 817a 7d3e 32e9 b9be
00000110: 6396 10bf 853f 533d 3b9e e2bc 9cd0 e4be
00000120: 1692 613e 8843 0bbd b9ba 10bf cbe8 a73d
00000130: 11d9 8dbd 6378 ca3e 6b4e e8be 15b4 07bf
00000140: b4dd 86bd 13df 96be 16a4 07bf b68e 6e3e
00000150: 1503 533d cb9d a53e a90d 103e 78a9 2dbf
00000160: ac44 c53e ffa5 1c3f 691b 97be ce64 f6bd
00000170: 8969 aabd 95a2 a53e 3e0e 0e3e 511e 963e
00000180: 5933 eebe d261 4c3e 2319 3cbf a6f8 1e3e
00000190: e204 c03e 239f bd3e 313d bfbd 7f42 e3be
000001a0: aa86 853d e283 c9be a8e6 09bf 71f8 c0be
000001b0: 28b7 153e 1ad2 d5bd 9fe4 32bf 72dd 53bc
000001c0: c101 173f b683 46be eef6 973d e82b 3d3f
000001d0: 4b33 0c3f c48c 013e 9266 9ebe 2a87 1b3f
000001e0: 7ef1 57bf 4d6d 08bf 3da1 013f fb09 23be
000001f0: 3acd ab3e f7de 05be 0141 ffbe eb06 d5be
00000200: 6fd9 243f b2d8 e0bd fc8d 2e3e 31d8 dabe
00000210: 3db0 0e3f e770 01bf a1f9 04bf c4b2 473f
00000220: 5959 4b3f 9b73 70be 0263 0e3e a4a7 563e
00000230: 6674 2f3f 6cf3 8abf 3c13 bfbe 8c3a 373f
00000240: 9af4 6d3f 5c7f 76bc e9bc ee3e 16ac 363e
00000250: c082 1a3f db0d 6e3f 93a8 f8bb 0014 c0bd
00000260: fe27 03bf 6ffe 4c3d f058 91bd 8599 4bbd
00000270: da22 17be 96ad 39be d513 57bf c229 cf3e
00000280: a8fb efbe 447f a53e 8655 cb3e 65ae 18be
00000290: fa58 4a3e fd79 fabe ac59 c6bd 898b 88bd
000002a0: 5c80 dabe de57 14bf e845 10bf edd7 f73e
000002b0: 0d2a 68bb c0c2 13bf 5134 b93c b560 debe
000002c0: 2d42 b73e 54c0 ea3d f455 efbd 1f12 d13d
000002d0: 37ca 52be 2b17 92bf f845 4dbf 088f 99be
000002e0: 7bd3 7f3e a73f 98be 9d88 1b3f 89d3 673d
000002f0: bc80 c33e 4b5e 403d 412a 12be f29e 29bf
00000300: 87b5 99be f416 8bbe 27a5 15bf 045c 48bf
00000310: 0eb6 48ba 0c40 d83d d048 c1bd b17f 07bf
00000320: 32a2 213f 5fca d83e ceb7 91bd 286f c73e
00000330: 6607 833e 4a71 95be c991 303e a05c 71be
00000340: ba05 0a3f 079d 3d3f 2914 733e 220e c13e
00000350: 22a6 35bf 4add 1e3f 93b8 0bbf e445 f93e
00000360: cf2b 5a3e a7fe 163f 92d5 183f ecb6 b8be
00000370: 852c 0abe e701 b1bd 8e25 ca3e a9e3 3f3e
00000380: 8d5b 0f3f 598d 4e3d 174d 83be 73a8 dfbe
00000390: d26c 8abe 1111 383f 6568 063f cb18 b9bc
000003a0: ad65 55bf 6e02 83bc 62c4 05bf 5a73 91be
000003b0: f557 04bf c860 7d3d 0c2e efbe 703d 2c3d
000003c0: 8c12 51be da79 54be 6e37 043f 20b4 f6be
000003d0: 4d8e 053f c83a c9be 6b25 823e 490c ac3e
000003e0: c345 6ebc d36d 5c3e a063 9d3e dd48 803e
000003f0: b96f 133f 2cf1 9a3e 9804 2fbf 1f4a f33e

hidden_layers.2.bias f4 [20]
-0.09838706 -0.36304313 0.0714585 4.3373766e-06 -0.21997255 0.26022795 0.35769057 -0.4576597
0.044826534 -0.3001187 -0.13485968 -0.29365295 -0.03482908 -0.021021105 -0.038792767 0.06972663
-0.05532725 -0.026955424 -0.025355762 -0.19797084
00000000: 287f c9bd cae0 b9be d658 923d c889 9136
00000010: 7c40 61be 993c 853e 3823 b73e 5f52 eabe
00000020: 079c 373d 29a9 99be a818 0abe ae59 96be
00000030: f0a8 0ebd 7434 acbc 2ae5 1ebd d6cc 8e3d
00000040: d49e 62bd 9fd1 dcbc e3b6 cfbc deb8 4abe

hidden_layers.3.weight f4 [20, 20]
0.314983 -0.13315192 -0.4374494 0.2935103 0.6710636 -0.57314265 -0.10107211 0.44931522
-0.4956651 0.07742594 0.018151734 -0.29039067 -0.019296737 0.04769911 -0.15271428 0.16528778
0.29939958 0.79962176 0.44561094 -0.20979938 -0.18576153 0.016772376 0.3078929 -0.3575054
0.28222102 -0.62623477 0.056464016 0.5753703 -0.15467301 0.5649685 -0.50669444 -0.45957223
-0.13378987 -0.2025621 0.55277795 0.5435785 0.42200348 0.5481118 0.1587307 0.47176352
-0.55063665 0.034572706 -0.0061045373 -0.52090734 -0.6057069 -0.5443374 0.31785148 -0.3173264
0.5756265 -0.44634727 0.09453994 -0.37315238 -0.569063 0.07295886 -0.03308869 0.37709355
-0.13575989 0.31620672 -0.25861326 0.533213 -0.23823035 0.047417462 0.0043613245 0.13946328
0.19044682 0.3625247 0.55586714 -0.5174475 -0.166926 -0.4666214 -0.65963686 -0.19302413
0.6767467 -0.32111052 -0.37595376 0.33789468 -0.53714544 0.2645324 0.19191833 -0.33651546
-0.5976095 -0.013973179 0.4636367 0.18953976 -0.38639385 0.2980628 0.3997268 -0.17116277
-0.12690724 0.04170614 0.09353932 0.22298741 -0.5171144 0.042054716 0.5188781 -0.049095396
0.48886362 0.44772476 0.2531548 -0.50954187 -0.39262998 -0.23743135 0.4244767 0.16501155
0.24489552 -0.65102416 -0.65392184 -0.22791553 -0.67361957 -0.021229563 0.25277525 0.65314925
-0.42795023 0.15195316 0.42703187 -0.41113818 0.4800099 -0.23062223 0.57093793 -0.47887707
-0.47096136 -0.762733 0.50261366 0.07402935 -0.7281416 -0.38048026 -0.8517152 -0.7798249
-0.05087127 -0.6275466 -0.6152506 -0.61069554 0.5448879 -0.6968829 -0.27431953 0.13639648
-0.10040125 0.47780016 0.38673714 -0.60002476 -0.15519825 0.26123074 0.2799282 0.30692223
0.05102343 0.7392491 0.716123 -0.09949863 0.1752181 -0.055829108 0.3629634 0.26427975
0.2167083 0.35792992 0.5449154 -0.2400759 -0.44172606 0.3019921 0.50430083 0.6755526
0.20022637 -0.70230526 0.117684394 -0.07151981 -0.021691665 -0.089017704 -0.47718868 0.27382526
-0.47996148 0.40064523 0.7144306 -0.33397964 -0.82513505 -0.3145431 -0.3580603 -0.7839151
-0.88117504 -0.30585575 -0.11277201 0.38346305 0.5575379 -0.29083547 0.14285134 -0.33315328
0.28416625 -0.71189076 0.21792792 -0.011191022 0.3488854 -0.55679363 0.4871763 0.33667904
0.041295715 0.53565603 0.34180108 -0.427317 0.34507158 0.3714605 0.7840173 0.3780199
-0.013226088 0.41065902 0.57462245 -0.71566415 -0.6200544 0.63408995 0.5112861 -0.473482
0.7229949 0.22111171 -0.27142698 -0.23568392 0.3258643 -0.64473313 -0.24589735 0.1450778
0.341164 -0.09314731 0.3967157 -0.24691093 -0.59243524 -0.28751665 -0.37335452 -0.43419388
-0.5776442 -0.15148315 -0.17054941 -0.6875118 0.37245902 0.57383895 -0.18114716 -0.15352763
-0.12859382 0.27204514 0.5632003 0.5801412 0.056764357 -0.13170472 0.61017764 0.5068449
-0.32180253 0.35192087 0.0005933249 -0.17402864 0.13587756 -0.4769845 -0.08765221 -0.31223723
0.12962109 0.18711814 -0.18811049 0.50721 -0.27742136 -0.39903966 -0.5110981 0.36567256
00000000: 7445 a13e fa58 08be 5ef9 dfbe fb46 963e
00000010: d3ca 2b3f 7ab9 12bf e5fe cebd a50c e63e
00000020: d1c7 fdbe 7e91 9e3d f2b2 943c 16ae 94be
00000030: 3114 9ebc 2460 433d 2261 1cbe 3341 293e
00000040: e74a 993e 03b4 4c3f 1e27 e43e a6d5 56be
00000050: 4538 3ebe 3966 893c 23a4 9d3e f30a b7be
00000060: 467f 903e ec50 20bf d046 673d 784b 133f
00000070: 9a62 1ebe c7a1 103f bab6 01bf 0d4d ebbe
00000080: 3600 09be 706c 4fbe db82 0d3f f627 0b3f
00000090: d710 d83e 0e51 0c3f 4d8a 223e fd8a f13e
000000a0: 86f6 0cbf 1c9c 0d3d 9208 c8bb 2f5a 05bf
000000b0: 9b0f 1bbf b259 0bbf 6ebd a23e 9b78 a2be
000000c0: 425c 133f a187 e4be 289e c13d d40d bfbe
000000d0: 1dae 11bf 746b 953d 0288 07bd 6812 c13e
000000e0: a404 0bbe d9e5 a13e f568 84be a680 083f
000000f0: a8f2 73be d038 423d 71e9 8e3b 76cf 0e3e
00000100: 7e04 433e d69c b93e 4f4d 0e3f 7077 04bf
00000110: a6ee 2abe 00e9 eebe f6dd 28bf 1ea8 45be
00000120: 463f 2d3f 9968 a4be 037d c0be 8800 ad3e
00000130: 5d82 09bf ca70 873e 3d86 443e c14b acbe
00000140: f0fc 18bf c3ef 64bc ca61 ed3e b616 423e
00000150: 6ad5 c5be b09b 983e fea8 cc3e 4b45 2fbe
00000160: f9f3 01be 0fd4 2a3d 8b91 bf3d d056 643e
00000170: 9c61 04bf 9141 2c3d 32d5 043f 4118 49bd
00000180: 554c fa3e 2e3c e53e 829d 813e 5671 02bf
00000190: cc06 c9be 3421 73be 0355 d93e caf8 283e
000001a0: e4c5 7a3e 85a9 26bf 6c67 27bf b062 69be
000001b0: 5572 2cbf 9fe9 adbc c26b 813e ca34 273f
000001c0: 4b1c dbbe 9c99 1b3e eca3 da3e b480 d2be
000001d0: dcc3 f53e 3c28 6cbe fd28 123f 602f f5be
000001e0: d921 f1be 7842 43bf 4aab 003f b39c 973d
000001f0: 7d67 3abf 4fce c2be 020a 5abf 9ba2 47bf
00000200: 655e 50bd e5a6 20bf 1081 1dbf 8b56 1cbf
00000210: c67d 0b3f eb66 32bf 9c73 8cbe 85ab 0b3e
00000220: 2c9f cdbd 39a2 f43e 6902 c63e 399b 19bf
00000230: 4aec 1ebe 09c0 853e c052 8f3e e924 9d3e
00000240: f2fd 503d 6e3f 3d3f d653 373f f0c5 cbbd
00000250: 606c 333e 10ad 64bd 57d6 b93e ad4f 873e
00000260: c8e8 5d3e 9742 b73e 937f 0b3f 75d6 75be
00000270: eb29 e2be b59e 9a3e dc19 013f 04f1 2c3f
00000280: 2408 4d3e 47ca 33bf 8404 f13d fa78 92bd
00000290: b8b2 b1bc ea4e b6bd 1352 f4be d332 8c3e
000002a0: 83bd f5be 5f21 cd3e ece4 363f 61ff aabe
000002b0: 0d3c 53bf cb0b a1be ae53 b7be a9ae 48bf
000002c0: b094 61bf 2099 9cbe 03f5 e6bd 4555 c43e
000002d0: ceba 0e3f 63e8 94be 9f47 123e 1193 aabe
000002e0: 3d7e 913e 793e 36bf 7f28 5f3e 8c5a 37bc
000002f0: 1ba1 b23e 078a 0ebf 2c6f f93e 3261 ac3e
00000300: b225 293d c120 093f 8d00 af3e 4bc9 dabe
00000310: 39ad b03e 1230 be3e 5cb5 483f d38b c13e
00000320: 3cb2 58bc e641 d23e 751a 133f c435 37bf
00000330: e3bb 1ebf b853 223f a5e3 023f 3c6c f2be
00000340: 3216 393f 1c6b 623e 7af8 8abe 2057 71be
00000350: afd7 a63e 3b0d 25bf 84cc 7bbe 468f 143e
00000360: 0cad ae3e 04c4 bebd 521e cb3e 38d6 7cbe
00000370: d6a9 17bf 6235 93be 5328 bfbe a94e debe
00000380: 7ee0 13bf 661e 1bbe 81a4 2ebe c600 30bf
00000390: f3b2 be3e 1ce7 123f a47e 39be 5936 1dbe
000003a0: 19ae 03be 8049 8b3e e52d 103f 2284 143f
000003b0: be81 683d 9add 06be 9a34 1c3f 96c0 013f
000003c0: 4dc3 a4be f92e b43e 5c89 1b3a 9034 32be
000003d0: 7d23 0b3e 5037 f4be 0083 b3bd 8fdd 9fbe
000003e0: 64bb 043e e69b 3f3e 09a0 40be 84d8 013f
000003f0: 2c0a 8ebe ed4e ccbe 53d7 02bf 6f39 bb3e

hidden_layers.3.bias f4 [20]
-0.19313176 -0.080107465 0.032648917 0.05858103 0.079459324 -0.07578853 0.12893909 0.12562634
-0.33368596 -0.21430823 0.19527785 -0.010415943 0.009891193 -0.19450815 -0.009479399 -0.088207714
0.04233714 0.4464856 0.09585105 -0.115658745
00000000: 55c4 45be 620f a4bd dfba 053d aaf2 6f3d
00000010: 92bb a23d 0437 9bbd 9c08 043e 31a4 003e
00000020: e3d8 aabe 9e73 5bbe ebf6 473e a2a7 2abc
00000030: ac0e 223c 252d 47be 7b4f 1bbc 3fa6 b4bd
00000040: b569 2d3d c399 e43e 8e4d c43d 7ede ecbd

output_layer.weight f4 [1, 20]
-1.0391946 1.2019941 0.085009396 -0.033857197 -0.16676825 -0.77390254 -1.8691431 -0.0909797
-0.44802758 -0.47986957 1.0649078 0.19615123 -0.37923953 0.99378544 -0.5536021 1.6458333
-0.037209556 0.9613084 0.94516087 -0.7970123
00000000: 5404 85bf f1da 993f 6819 ae3d d8ad 0abd
00000010: 4cc5 2abe 7a1e 46bf 1540 efbf 9153 babd
00000020: df63 e5be 77b1 f5be e64e 883f dedb 483e
00000030: af2b c2be b968 7e3f deb8 0dbf aaaa d23f
00000040: 0c69 18bd 4f18 763f 10f6 713f 0009 4cbf
