Task4/models/model.pth (torch, 10625 bytes, 11 tensors)

input_layer.weight f4 [20, 2]
0	0xbf6537fe	-0.8953856
1	0x3e24eeb4	0.16106683
2	0x3f5206b9	0.8204151
3	0xbf45e7aa	-0.77306616
4	0x3f3fbb1d	0.7489489
5	0xbf633095	-0.88746005
6	0xbf621087	-0.8830647
7	0xbf3c15fa	-0.73471034
8	0xbe239a40	-0.1597681
9	0x3efee184	0.4978143
10	0xbe917651	-0.2841058
11	0xbf3b1758	-0.73082495
12	0xc03458ee	-2.8179278
13	0xbc9036ad	-0.017604196
14	0x3e99f0fb	0.30066666
15	0xbeea849b	-0.45804295
16	0xc078e842	-3.889176
17	0x3c62f041	0.013851226
18	0xbe844626	-0.2583477
19	0x3f36a85e	0.7135066
20	0x3f4291ee	0.7600392
21	0xbf58a083	-0.8461992
22	0x3eeca146	0.46216792
23	0x3db649d5	0.08900801
24	0xbf68b9ff	-0.9090881
25	0x3f0077fc	0.5018308
26	0x3f687ef0	0.9081869
27	0x402814cc	2.6262693
28	0xbf25463b	-0.6456029
29	0xbf5c1e06	-0.8598331
30	0xbe81c1d8	-0.25343204
31	0xbf1b0c31	-0.6056548
32	0xbee8c8e3	-0.45465764
33	0xbf14df08	-0.5815282
34	0xbd7eb655	-0.062185604
35	0xbf2544c0	-0.6455803
36	0x3f3da01a	0.7407242
37	0xbf652d91	-0.89522654
38	0xbf0f49c5	-0.5597194
39	0xbf4a6e23	-0.79074305

input_layer.bias f4 [20]
0	0xbe49c6a6	-0.19704685
1	0x3d2e60d6	0.04257282
2	0xbd297d18	-0.041379064
3	0x3cc812a2	0.024422947
4	0xbda05ea2	-0.0783055
5	0x3bcf7bae	0.0063318824
6	0x3ea87567	0.3290207
7	0x3d0752ea	0.033038057
8	0xbd644989	-0.05573419
9	0x3d2eb2b2	0.042650886
10	0xbe1d0cbc	-0.15336889
11	0xbf1ded66	-0.61690366
12	0x3e56e067	0.2098404
13	0xbe972496	-0.295201
14	0xbb21cbc3	-0.0024688102
15	0xbdb583e4	-0.08863047
16	0xbbf5cb86	-0.0075010685
17	0xbc0dc552	-0.008653002
18	0xbe123bb6	-0.1428059
19	0xbd33da28	-0.043909222

hidden_layers.0.weight f4 [20, 20]
0	0x3f1b4c32	0.6066314
1	0x3f01b73c	0.5067022
2	0xbf240bb3	-0.6408035
3	0x3dc6c17b	0.09704872
4	0x3f3c2952	0.7350055
5	0x3db3fe0a	0.087886885
6	0xbe3c81ff	-0.18408965
7	0x3ef6ccbb	0.48203072
8	0xbea6b368	-0.3255875
9	0xbcb20b88	-0.021734014
10	0x3ed24fb7	0.41076443
11	0xbf1b108b	-0.6057212
12	0xbf29bb4d	-0.66301423
13	0x3ea4c2a1	0.3217974
14	0xbedf8a55	-0.43660226
15	0x3e579234	0.21051866
16	0x3ec3eb7e	0.38265604
17	0xbc84918d	-0.016182685
18	0xbf1f0efe	-0.6213225
19	0xbd6447a3	-0.05573238
20	0x3f12f8bf	0.57410806
21	0xbef2e9c7	-0.47443983
22	0x3efcfd80	0.49412155
23	0x3ee4f033	0.44714507
24	0x3e24f3d6	0.16108641
25	0x3f077c0e	0.5292367
26	0xbf29b299	-0.66288143
27	0xbee89714	-0.45427763
28	0x3ed657dc	0.41863906
29	0xbe173b36	-0.14768681
30	0xbebaf9c9	-0.36518696
31	0x3f0088f0	0.5020895
32	0x3ec2e140	0.38062477
33	0xbe13c405	-0.14430244
34	0x3e93ea1f	0.28889558
35	0x3e5d1bf1	0.2159269
36	0x3f13a21a	0.5766922
37	0x3e53f8a2	0.20700315
38	0x3e8058b3	0.25067672
39	0x3dce4efb	0.10073658
40	0xbdbb75bf	-0.09153318
41	0xbe45e296	-0.19324717
42	0x3e7c91c4	0.2466498
43	0x3f2740b8	0.6533313
44	0xbe82c69f	-0.2554216
45	0xbcc86a82	-0.02446485
46	0xbee3b868	-0.44476628
47	0x3d100f71	0.035170976
48	0x3e3010a9	0.17193855
49	0xbc810817	-0.015750928
50	0x3f211ec0	0.62937546
51	0x3f1042d6	0.56351984
52	0x3f2aa7ef	0.66662496
53	0xbede1970	-0.43378782
54	0xbe1c9d5a	-0.152944
55	0xbe03be59	-0.1286558
56	0xbf08f0e7	-0.5349259
57	0xbd5bca79	-0.05365989
58	0x3f000a02	0.5001527
59	0x3f25abf2	0.6471549
60	0x3f3354a6	0.7005104
61	0x3da7cb57	0.08193081
62	0x3ef77402	0.48330694
63	0x3ec41cce	0.38303226
64	0x3e7cdb15	0.24692948
65	0x3f0a63b3	0.5405838
66	0x3ec6f6d2	0.38860184
67	0xbeb23ebd	-0.3481349
68	0x3f1198d3	0.56873816
69	0x3eadb608	0.3392794
70	0x3ef8513f	0.48499486
71	0xbcd2fdad	-0.025755728
72	0xbe8e9243	-0.27845964
73	0x3e5368df	0.20645474
74	0xbf33e9b5	-0.70278484
75	0x3eac6ba2	0.33675867
76	0xbd3e756f	-0.046498712
77	0xbe5c734f	-0.21528362
78	0xbf0386d7	-0.51377624
79	0x3eadf45a	0.33975488
80	0x3ea31de3	0.3185874
81	0x3f5299d6	0.82265985
82	0x3d6eda87	0.058313873
83	0x3ea97fe3	0.33105382
84	0xbf3bdebe	-0.7338675
85	0x3f5157e7	0.81774753
86	0xbf1d7fef	-0.61523336
87	0x3c263647	0.010144777
88	0xbe2925f8	-0.1651839
89	0xbf058620	-0.52157784
90	0x3f31ef6e	0.69505966
91	0xbf2d6d39	-0.67744786
92	0xbd2a043a	-0.041507937
93	0xbed0e77b	-0.40801606
94	0xbe2ec8bb	-0.1706876
95	0x3f18b0be	0.5964469
96	0x3e5e1712	0.21688488
97	0x3d8f7446	0.07004599
98	0xbca11cbd	-0.019667024
99	0xbeb5df2e	-0.35521835
100	0xbe8df244	-0.27723897
101	0x3ed67d7a	0.41892606
102	0xbe201b23	-0.15635352
103	0x3e6fcce4	0.23418003
104	0xbee5f6d0	-0.44914865
105	0xbe872676	-0.2639653
106	0x3d01e500	0.031712532
107	0xbd6d9171	-0.05800003
108	0xbe616716	-0.2201198
109	0x3b536991	0.0032258967
110	0x3f1cd987	0.6126942
111	0x3d668197	0.05627593
112	0xbe9e315f	-0.30897042
113	0x3e4849aa	0.1955935
114	0xbda65ac6	-0.081227824
115	0xbf0f5d2c	-0.56001544
116	0xbdd479b1	-0.10374773
117	0x3e6ff194	0.23431998
118	0x3ef29d7e	0.47385782
119	0x3e1111c1	0.14166929
120	0xbf066652	-0.5249988
121	0x3e368e38	0.1782769
122	0x3ede3e37	0.4340684
123	0xbd6d623d	-0.057955015
124	0xbed6f196	-0.4198119
125	0x3eee246f	0.46512172
126	0x3f3de3f0	0.7417593
127	0xbeda841b	-0.42678913
128	0xbe52da97	-0.20591198
129	0x3f315ef2	0.692855
130	0xbe241696	-0.16024241
131	0xbf567127	-0.83766407
132	0x3e3bb516	0.18330798
133	0x3e001412	0.12507656
134	0xbf2d2dc6	-0.6764797
135	0x3e01ff10	0.12694955
136	0xbeff654f	-0.4988198
137	0x3e3cc546	0.18434629
138	0xbf2c20b6	-0.6723741
139	0xbcfc9b7a	-0.030835856
140	0x3ee7ac97	0.45248863
141	0xbde468b5	-0.11152784
142	0xbf11d4a5	-0.56965095
143	0xbd85cc91	-0.065331586
144	0x3e96185e	0.29315466
145	0xbe4d4d92	-0.20049122
146	0xbedceeee	-0.4315104
147	0x3e695704	0.227871
148	0x3e3b6c35	0.18302996
149	0x3f033fd9	0.512693
150	0xbe9f3514	-0.31095183
151	0x3ea6a004	0.32543957
152	0x3ec40a60	0.38289165
153	0x3f061a20	0.52383614
154	0xbf386643	-0.7203104
155	0x3f0ab637	0.5418429
156	0xbe7a4ccb	-0.24443357
157	0xbeb33c8d	-0.35007134
158	0x3ecc1fc8	0.39867997
159	0xbf1fdcf7	-0.6244654
160	0xbf1e0f0e	-0.6174172
161	0x3de73ff1	0.11291493
162	0xbe999c07	-0.30001852
163	0xbedee1e2	-0.4353171
164	0xbf32ab6b	-0.69792813
165	0x3e8005ea	0.25004512
166	0x3f2bec09	0.67157036
167	0x3ee7210a	0.45142394
168	0xbca027c9	-0.019550221
169	0x3ea11a1a	0.31465226
170	0xbe81aa79	-0.25325373
171	0xbedc86cd	-0.43071595
172	0xbe9bfcc6	-0.30466288
173	0xbe58ed0c	-0.21184176
174	0x3f08cf93	0.53441733
175	0xbec734b3	-0.38907394
176	0x3b58de6a	0.0033091553
177	0x3e3baa85	0.18326767
178	0x3e811e81	0.25218585
179	0xbf078f12	-0.5295268
180	0x3f6edcfe	0.9330596
181	0x3ee6e508	0.45096612
182	0x3e6f7693	0.23385076
183	0x3efc9ac1	0.49336818
184	0x3e84cd05	0.25937667
185	0xbf27f778	-0.6561198
186	0xbf5d680c	-0.8648689
187	0xbe3ed040	-0.18634129
188	0xbf8c3b8c	-1.0955672
189	0xbda27c16	-0.07933824
190	0x3ed1804f	0.40918204
191	0x3f321403	0.69561785
192	0xbf22c40f	-0.6358041
193	0xbee3f841	-0.4452534
194	0xbe80be63	-0.25145254
195	0xbecd7434	-0.40127718
196	0x3dcdb31a	0.100439265
197	0xbeb83d82	-0.35984427
198	0x3ec1529c	0.37758338
199	0x3e8aec85	0.27133575
200	0xbc50d395	-0.012745758
201	0x3d8f269e	0.069897875
202	0xbeea4ae6	-0.45760268
203	0xbeea5732	-0.4576965
204	0xbed5fc06	-0.4179384
205	0xbe6d70e6	-0.23187599
206	0x400028e8	2.0024967
207	0x3f277d62	0.65425694
208	0x3fe9a07f	1.8252105
209	0xbe9f615a	-0.3112896
210	0x3e7bb5f6	0.24581131
211	0xbd0912e5	-0.033465285
212	0x3e1c87c7	0.1528617
213	0x3f4b37c7	0.79381984
214	0xbd713199	-0.05888519
215	0x3e9a7a2f	0.30171344
216	0xbe0b1988	-0.13583958
217	0x3e8d0398	0.27541804
218	0x3d9fb5a9	0.07798321
219	0xbeccdd3a	-0.40012532
220	0x3d59b6dc	0.053152904
221	0xbba52e90	-0.005040951
222	0xbd192f92	-0.037398882
223	0x3e1f639d	0.15565343
224	0x3d380feb	0.044937056
225	0x3f0bdce4	0.5463393
226	0x3eaa41b7	0.3325326
227	0xbecb6797	-0.3972747
228	0x3daa2c61	0.08309246
229	0xbebce41d	-0.36892787
230	0xbea1b33d	-0.3158206
231	0xbd8aa6de	-0.06770109
232	0xbf05f0e0	-0.5232067
233	0x3e331898	0.1748985
234	0xbf25d924	-0.64784455
235	0xbeaab01b	-0.33337483
236	0x3e89d4b9	0.26920107
237	0xbf1b61d7	-0.60696167
238	0xbe7b120b	-0.24518602
239	0x3e446b86	0.19181642
240	0x3f547ec7	0.83005947
241	0xbeaa941b	-0.3331612
242	0x3ecdc52b	0.4018949
243	0xbdd728ae	-0.10505806
244	0x3e17ee80	0.14837074
245	0x3e88554f	0.26627585
246	0xbf7a901f	-0.9787616
247	0x3e138f76	0.14410195
248	0xbf612e16	-0.87960947
249	0xbee2ea30	-0.44319296
250	0xbe02c4fd	-0.12770458
251	0x3f82467b	1.0177759
252	0xbf4fa804	-0.81115746
253	0x3dab7048	0.08371025
254	0x3eb16e2b	0.34654364
255	0x3e680cc9	0.22661127

hidden_layers.0.bias f4 [20]
0	0x3dd076d0	0.10178912
1	0x3c438a79	0.01193487
2	0xbd247a66	-0.04015579
3	0x3dbd73fe	0.092506394
4	0xbe6a3335	-0.22871096
5	0x3cf8190b	0.030285379
6	0x3da7c603	0.081920646
7	0x3dc59f70	0.09649551
8	0xbd3e3a9d	-0.046442617
9	0x3d9eb695	0.077496685
10	0xbda9acd2	-0.08284916
11	0x3c91637e	0.017747637
12	0x3d8b74b9	0.068093725
13	0xbcafccb3	-0.021459913
14	0x3e67b492	0.22627476
15	0xbe5e21f1	-0.21692635
16	0x3ac926ed	0.0015346684
17	0x3ea6694f	0.3250222
18	0xbd3fa9ac	-0.04679267
19	0x3e93b3bb	0.2884806

hidden_layers.1.weight f4 [20, 20]
0	0xbdaa00a3	-0.08300903
1	0x3f44f672	0.76938546
2	0x3ea4a1d2	0.3215471
3	0x3f27be89	0.6552511
4	0x3e749753	0.2388585
5	0x3d967c3d	0.07347915
6	0xbf3f3d6f	-0.74703115
7	0xbc50777c	-0.0127238
8	0x3d520445	0.051273603
9	0xbe89270c	-0.26787603
10	0xbec9e792	-0.39434487
11	0x3f092ad2	0.53580964
12	0x3f5cfa23	0.8631918
13	0x3dab67e5	0.08369426
14	0x3e898531	0.2685943
15	0xbee303a8	-0.44338727
16	0xbed5d706	-0.41765612
17	0xbec9bd81	-0.39402393
18	0x3ee149d2	0.44001633
19	0x3e2c5e74	0.16832906
20	0xbdad7815	-0.084701695
21	0xbf2a002a	-0.664065
22	0x3d9279dd	0.0715215
23	0xbf078c61	-0.52948576
24	0xbec0890c	-0.37604558
25	0x3eb83e42	0.35985
26	0x3e8dacd6	0.27670926
27	0xbef4b5fa	-0.47795087
28	0x3e5b5d83	0.2142239
29	0xbf8d7c1a	-1.1053498
30	0x3f8fbf17	1.1230191
31	0x3f187fba	0.59569895
32	0xbe02458f	-0.12721847
33	0xbeab51e6	-0.3346092
34	0xbee75052	-0.45178467
35	0x3f2eed2b	0.6833064
36	0xbed737df	-0.42034814
37	0xbd4af46f	-0.049549516
38	0x3e866b2e	0.26253647
39	0x3e2f996d	0.17148371
40	0xbde95d9f	-0.1139481
41	0x3e965136	0.29358834
42	0xbeb23a2c	-0.34810007
43	0xbe444f0d	-0.1917078
44	0xbe735603	-0.2376328
45	0xbf0a5186	-0.54030645
46	0x3c987c43	0.01861394
47	0x3edf3449	0.43594578
48	0x3e7857d1	0.2425225
49	0xbec6cf81	-0.38830188
50	0x3e23ed82	0.16008571
51	0x3f23abff	0.6393432
52	0x3ede9d28	0.43479276
53	0xbec9f17e	-0.39442056
54	0x3e7bab77	0.24577127
55	0xbdba669e	-0.09101604
56	0xbd66a573	-0.05631013
57	0x3efc1e46	0.49241847
58	0x3edf2533	0.43583068
59	0x3f150f14	0.5822613
60	0xbcb2d2b8	-0.021828994
61	0x3f13d9a5	0.57753974
62	0x3e93a12a	0.28833896
63	0x3eaa3116	0.33240575
64	0x3eeb3a7b	0.45943055
65	0x3e9a559d	0.30143443
66	0x3e902b5f	0.2815809
67	0x3dc83f5a	0.09777708
68	0x3ed14071	0.40869477
69	0x3f109f91	0.5649348
70	0xbe9351fc	-0.28773487
71	0x3f0f976b	0.5609042
72	0x3eaf42b2	0.34230572
73	0x3ee7ddfc	0.45286548
74	0xbe60453a	-0.21901408
75	0xbe3e3f73	-0.18578891
76	0x3ec6836f	0.3877215
77	0xbeea8ddd	-0.45811358
78	0xbe61f413	-0.22065763
79	0xbe2180e1	-0.1577182
80	0xbe1af2c8	-0.15131676
81	0x3e861178	0.26185203
82	0x3e4f75b5	0.20259745
83	0x3eb1c5d7	0.34721252
84	0x3c65c190	0.0140232
85	0xbf05ab42	-0.52214444
86	0x3e562002	0.20910648
87	0xbd8f5aa6	-0.06999712
88	0x3e485340	0.19563007
89	0x3eecd30f	0.46254775
90	0xbeb1c1cc	-0.34718168
91	0xbeb10129	-0.34571198
92	0x3d75bed8	0.059996456
93	0xbe9ac12c	-0.30225503
94	0x3eaf1581	0.34196094
95	0xbe9d645d	-0.30740634
96	0xbebc78cd	-0.36810914
97	0xbebe9360	-0.37221813
98	0xbeeccf89	-0.46252087
99	0x3f19d599	0.6009155
100	0x3ef90ba5	0.48641697
101	0xbedd07c5	-0.4316999
102	0x3ebf98b4	0.3742119
103	0xbeee01a6	-0.46485633
104	0x3c4174a1	0.011807592
105	0x3f203c4b	0.62592
106	0xbeb3d90c	-0.3512653
107	0xbf11cec1	-0.56956106
108	0xbe1dcd60	-0.15410376
109	0x3f8ce78c	1.1008162
110	0xbf3e8cab	-0.7443339
111	0xbf129347	-0.5725598
112	0x3f284716	0.6573347
113	0xbed77987	-0.42084906
114	0x3f39455f	0.72371477
115	0x3d7e9d89	0.062161956
116	0xbf050332	-0.51958
117	0x3e33c0b7	0.17553984
118	0x3d680876	0.056648694
119	0x3efe3787	0.4965174
120	0xbe90a886	-0.28253573
121	0xbe758070	-0.23974776
122	0x3e6c8876	0.2309893
123	0x3e1f7796	0.15572962
124	0x3e614461	0.2199874
125	0x3eb318d6	0.34979886
126	0x3e72681e	0.2367253
127	0xbf1bb5c7	-0.60824245
128	0xbea5cdc2	-0.32383543
129	0xbe3d89b8	-0.18509567
130	0xbdbcc850	-0.09217894
131	0xbed35258	-0.4127376
132	0x3d5fac7e	0.05460786
133	0x3dfac1d0	0.12243998
134	0xbe6512cc	-0.22370452
135	0xbeb6a91a	-0.3567589
136	0x3efd4f8f	0.4947476
137	0x3e87a11b	0.264901
138	0xbe0da87a	-0.138338
139	0xbd87379f	-0.06602406
140	0x3c8a6a89	0.016896503
141	0x3e71da85	0.23618515
142	0xbec6c9fe	-0.38825983
143	0xbdb1dbda	-0.086845115
144	0xbe072c53	-0.13200502
145	0x3f1fbf5d	0.6240137
146	0xbea8bbc8	-0.32955766
147	0xbecbdbc8	-0.39816117
148	0x3d7a425e	0.06109845
149	0x3f524488	0.8213582
150	0x3def8998	0.11696166
151	0xbd82e765	-0.06391791
152	0x3f3cafda	0.7370583
153	0x3ec3acce	0.38217777
154	0xbe901bbd	-0.28146163
155	0xbe529f19	-0.20568503
156	0xbef122ea	-0.4709695
157	0x3e48cb52	0.1960881
158	0x3e403e4e	0.18773767
159	0x3e8defad	0.2772192
160	0x3d52a082	0.051422603
161	0x3c421e9c	0.011848118
162	0x3ef63b6b	0.48092207
163	0xbd4e1673	-0.050314378
164	0xbd09090c	-0.033455893
165	0xbdd740fc	-0.10510442
166	0xbe28d6bb	-0.16488163
167	0xbe2013fe	-0.15632626
168	0xbf6e66f8	-0.9312587
169	0x3fb8a35e	1.4424856
170	0xc00b07dd	-2.172355
171	0xbf444d0c	-0.76680064
172	0x3fb10d8b	1.3832258
173	0xbe161562	-0.14656594
174	0x3f090041	0.5351601
175	0xbfaf07d3	-1.3674263
176	0x3f0d193a	0.5511662
177	0xbe603645	-0.21895702
178	0x3e87b591	0.26505712
179	0xbee7321b	-0.45155415
180	0x3de74a90	0.112935185
181	0x3ee510c5	0.44739357
182	0x3f4db3e7	0.80352634
183	0x3f0ff4e9	0.5623308
184	0x3eb90e8a	0.36143905
185	0xbe86050b	-0.26175722
186	0x3de5c3a0	0.11218953
187	0xbf1d2f91	-0.61400706
188	0xbda56b60	-0.08077121
189	0x3e6e6c01	0.23283388
190	0xbef038ae	-0.46918243
191	0xbe88f098	-0.26746058
192	0xbe562a2f	-0.2091453
193	0x3f2d5352	0.6770526
194	0x3f0edba9	0.55803925
195	0x3e4eccae	0.20195267
196	0x3f339300	0.7014618
197	0x3dcca082	0.09991552
198	0xbe737eaa	-0.23778787
199	0xbf15a94f	-0.5846147
200	0x3e9fe376	0.31228226
201	0xbe46ef26	-0.19427165
202	0x3eebc550	0.46048975
203	0xbe163978	-0.1467036
204	0x3d182f13	0.03715427
205	0xbdd9bcfa	-0.106317475
206	0xbf2c6ee7	-0.67356724
207	0x3db53624	0.08848217
208	0xbcdf23b7	-0.02723871
209	0xbe797b4e	-0.24363443
210	0x3cfadfa5	0.03062422
211	0x3d6044d7	0.05475315
212	0x3ef37818	0.47552562
213	0x3ee0e4cb	0.43924555
214	0x3efd0d5e	0.4942426
215	0x3e6ee9a1	0.2333131
216	0x3f068b74	0.5255654
217	0x3e831b62	0.2560683
218	0x3ef87240	0.48524666
219	0xbe9b41b0	-0.30323553
220	0xbf0ea7ad	-0.557246
221	0xbf0cc77d	-0.54991895
222	0xbf0842b2	-0.5322677
223	0x3e207e2d	0.15673132
224	0xbe4fd792	-0.20297077
225	0x3dccb68a	0.09995754
226	0xbf1aa8a6	-0.6041359
227	0x3ee7eed1	0.4529939
228	0x3e61b0ff	0.22040175
229	0xbe985125	-0.29749408
230	0xbf08c9c4	-0.5343287
231	0x3f0aa691	0.5416041
232	0x3e7416b1	0.23836781
233	0x3e4a6475	0.19764884
234	0xbe260bd6	-0.16215453
235	0x3d6d97f0	0.058006227
236	0x3f11ca39	0.5694919
237	0xbebdca0a	-0.37068206
238	0x3e8b1607	0.27165243
239	0x3f07b248	0.5300641
240	0xbe87e560	-0.26542187
241	0x3ddcf4f4	0.107889086
242	0x3e8fae0f	0.28062484
243	0xbe87beca	-0.26512748
244	0xbe6a6fc5	-0.22894199
245	0xbe5d80d4	-0.21631175
246	0xbd917a13	-0.07103362
247	0x3e9766eb	0.29570708
248	0xbf03027d	-0.5117567
249	0xbdb85bf6	-0.09001915
250	0xbf0fbb3b	-0.56145066
251	0x3ec91cf4	0.39279902
252	0x3c8ba29e	0.017045315
253	0xbebd7c6f	-0.37008998
254	0x3e34fd7b	0.1767482
255	0xbdf57d44	-0.11986783

hidden_layers.1.bias f4 [20]
0	0xbd7ab17b	-0.061204415
1	0x3e036219	0.1283039
2	0x3da3826e	0.07983862
3	0xbdaf9da5	-0.0857499
4	0x3dad918f	0.08475029
5	0xbd7adde8	-0.061246783
6	0xbd6a5210	-0.057207167
7	0xbde0732a	-0.10959466
8	0xbeb3e0be	-0.35132402
9	0xbe7dea2e	-0.24796364
10	0x3d64fa91	0.05590302
11	0x3dd5d8a0	0.104417086
12	0x3e397e2f	0.18114541
13	0x3ccf8476	0.025331717
14	0xbda6c301	-0.08142663
15	0x3d95db16	0.07317178
16	0xbd44c1ef	-0.048036512
17	0xbdb7cd76	-0.089747354
18	0x3d213e2b	0.03936593
19	0x3d1737c4	0.036918417

hidden_layers.2.weight f4 [20, 20]
0	0xbef67b94	-0.48141158
1	0xbee2b07e	-0.44275278
2	0xbf053318	-0.5203109
3	0xbea511d5	-0.32240167
4	0xbf1fa6e2	-0.6236402
5	0xbf30fefc	-0.69139075
6	0x3e52dacf	0.20591281
7	0x3e87b8a0	0.26508045
8	0xbeb2a983	-0.34894952
9	0x3f0652ef	0.52470297
10	0xbe205b31	-0.15659787
11	0xbf06a993	-0.526025
12	0xbf11066a	-0.5665041
13	0xbf06d097	-0.5266203
14	0xbde1717a	-0.11007972
15	0x3eae581e	0.34051603
16	0xbf260a1e	-0.6485919
17	0x3e93612e	0.2878508
18	0xbf193fec	-0.5986316
19	0xbf1a8891	-0.60364634
20	0x3f85f446	1.0465171
21	0xbfdec1d9	-1.7402908
22	0x3dc686fa	0.096937135
23	0x3e3243e8	0.17408717
24	0x3e861df8	0.2619474
25	0x3f7cecb5	0.98798686
26	0x3e2c8030	0.16845775
27	0x3e9851df	0.29749963
28	0x3f8e3d69	1.1112491
29	0x3d94afc0	0.07260084
30	0x3f0d7084	0.5524981
31	0xbd3ab02f	-0.045578178
32	0x3da50ed2	0.080594674
33	0x3e761dc3	0.2403479
34	0xbfa99978	-1.324996
35	0xbe3e7aa9	-0.18601479
36	0xbf399261	-0.7248898
37	0x3f4d41f4	0.8017876
38	0xbf608a53	-0.87711066
39	0x3dd2a1d0	0.102847695
40	0xbe8e4574	-0.27787364
41	0x3cb532d0	0.022118956
42	0x3ea1ed0b	0.31626162
43	0xbe80ad7e	-0.25132364
44	0xbd868e65	-0.06570128
45	0x3e28a5d7	0.16469513
46	0x3e80f624	0.2518779
47	0x3ef1de79	0.47240046
48	0x3f4caf08	0.79954576
49	0x3e165f2a	0.1468474
50	0x3eaadf3a	0.33373433
51	0xbd8f802e	-0.0700687
52	0x3df01a58	0.11723775
53	0x3ebb284a	0.36554176
54	0xbf3d9107	-0.7404942
55	0xbea62955	-0.3245341
56	0xbe49ead7	-0.1971849
57	0xbd8721df	-0.06598257
58	0x3e413be1	0.18870498
59	0x3f3f70fe	0.7478179
60	0x3ef3ff2f	0.47655627
61	0x3df7365c	0.12070915
62	0xbecca927	-0.39972803
63	0x3e45e7e6	0.19326743
64	0x3ecdc0c9	0.40186146
65	0x377116a6	1.4369993e-05
66	0x3e63f4c3	0.22261338
67	0xbec93312	-0.39296776
68	0xbf26abc3	-0.6510584
69	0x3c82380e	0.01589587
70	0xbd8e9865	-0.06962661
71	0xbec702a8	-0.38869214
72	0x3e823bf7	0.25436375
73	0xbd8d68ac	-0.0690473
74	0xbf17853d	-0.5918768
75	0x3da9202b	0.08258089
76	0xbced6eb6	-0.028983455
77	0x3eb55522	0.35416514
78	0xbed2e9ba	-0.41193944
79	0xbf081ed0	-0.53172016
80	0xbdacea7e	-0.08443163
81	0xbe9274b5	-0.28604665
82	0xbf073e81	-0.5282975
83	0x3e674765	0.22585829
84	0x3d1aab13	0.037760805
85	0x3e9c3b40	0.30513954
86	0x3e0c27dd	0.13687082
87	0xbf2ee66f	-0.68320364
88	0x3ebd9e01	0.3703461
89	0x3f1c4c7c	0.61054206
90	0xbe9513ed	-0.29116765
91	0xbe07e395	-0.1327041
92	0xbda35a7a	-0.079762414
93	0x3ea463d2	0.32107407
94	0x3e13298c	0.14371318
95	0x3e99202f	0.29907367
96	0xbee838e4	-0.45355904
97	0x3e518921	0.20462467
98	0xbf3b8631	-0.73251635
99	0x3e122854	0.14273196
100	0x3ebf9e93	0.3742567
101	0x3ebee679	0.37285212
102	0xbdc85905	-0.09782604
103	0xbedfd2c7	-0.43715498
104	0x3d83b972	0.06431855
105	0xbecc0c04	-0.39852917
106	0xbf0970e2	-0.5368787
107	0xbebfe7ca	-0.3748153
108	0x3e1fc79a	0.15603486
109	0xbdc96f4d	-0.09835682
110	0xbf3106fa	-0.6915127
111	0xbced6e8b	-0.028983375
112	0x3f14bd86	0.5810169
113	0xbe41978b	-0.18905465
114	0x3d9083d3	0.070563935
115	0x3f3a1920	0.7269459
116	0x3f0b2382	0.54351056
117	0x3e0c3bc1	0.1369467
118	0xbe9e9b07	-0.3097765
119	0x3f19e479	0.60114247
120	0xbf4ed096	-0.80787027
121	0xbf1813ff	-0.5940551
122	0x3ee34358	0.44387317
123	0xbdc1879d	-0.09449694
124	0x3ecbffd1	0.3984361
125	0xbcab17c1	-0.02088535
126	0xbee7bf07	-0.4526293
127	0xbedb656d	-0.4285082
128	0x3f2e86bc	0.6817434
129	0xbd32fa02	-0.043695457
130	0x3e74838b	0.23878305
131	0xbeeff0bd	-0.46863356
132	0x3ef957b3	0.48699722
133	0xbedf8db3	-0.43662795
134	0xbf186203	-0.59524554
135	0x3f3607f6	0.711059
136	0x3f3c56b0	0.73569775
137	0xbe1dcfc6	-0.1541129
138	0x3da7cf68	0.081938565
139	0x3e05847d	0.13038822
140	0x3f2f6894	0.6851895
141	0xbf937dd2	-1.1522772
142	0xbe8c64fd	-0.27420798
143	0x3f25dfc0	0.6479454
144	0x3f8099b0	1.0046902
145	0x3bf653f9	0.0075173345
146	0x3ec142e1	0.37746337
147	0x3e2cd6bc	0.1687879
148	0x3f3bed17	0.73408645
149	0x3f55273b	0.83262986
150	0xbd6700ba	-0.056397177
151	0xbdb3bf1f	-0.08776688
152	0xbed555be	-0.4166698
153	0xbd3dec70	-0.046368062
154	0xbe2bf0de	-0.16791102
155	0xbd17b220	-0.037035108
156	0xbdcdcdb4	-0.100490004
157	0xbe746e17	-0.23870121
158	0xbf3dbcc3	-0.7411615
159	0x3ed2f285	0.41200653
160	0xbef0e6b4	-0.47051013
161	0x3ea182e2	0.31545168
162	0x3ecececc	0.40392148
163	0xbe1c070e	-0.15237066
164	0x3e5607cd	0.20901413
165	0xbef41c04	-0.47677624
166	0xbdd6e353	-0.104925774
167	0xbd6e2d33	-0.058148574
168	0xbeceb975	-0.40375867
169	0xbf161dc5	-0.58639175
170	0xbf0e8d9f	-0.55684847
171	0x3ef4dcd0	0.47824717
172	0x3b8e2b4a	0.0043386566
173	0xbf157ac9	-0.5839048
174	0x3c4d15a9	0.012517371
175	0xbedf6bea	-0.4363702
176	0x3eba2cef	0.36362407
177	0x3df030d2	0.11728062
178	0xbddda6cc	-0.108228296
179	0x3ddc102b	0.10745271
180	0xbe40e050	-0.18835568
181	0xbf8a4b5f	-1.0804251
182	0xbf4c6833	-0.79846495
183	0xbe9130aa	-0.2835744
184	0x3e845ee1	0.25853637
185	0xbec71ff1	-0.38891557
186	0x3f167e17	0.5878615
187	0x3dc3b3db	0.09555789
188	0x3eaa0c3b	0.33212456
189	0x3d3c7493	0.04600961
190	0xbdf1ee35	-0.118130125
191	0xbf393184	-0.7234118
192	0xbe9b61dd	-0.303481
193	0xbe8bb6f8	-0.27288032
194	0xbf16d1b0	-0.5891371
195	0xbf5797a0	-0.84215736
196	0xbbdc6b4c	-0.006726658
197	0x3e16a325	0.14710672
198	0xbd8322f3	-0.064031504
199	0xbf138e3f	-0.57638925
200	0x3f24c298	0.64359426
201	0x3edfd4b0	0.43716955
202	0xbdce502a	-0.10073884
203	0x3ed3e86c	0.4138826
204	0x3e826f3c	0.2547549
205	0xbe905839	-0.2819231
206	0x3e52433d	0.20533462
207	0xbe818a93	-0.25301036
208	0x3f030e25	0.5119346
209	0x3f44783c	0.76745963
210	0x3e7c2859	0.24624766
211	0x3ec59bef	0.3859553
212	0xbf3948bb	-0.723766
213	0x3f265227	0.64969105
214	0xbf01c9e2	-0.50698674
215	0x3eef7934	0.46772158
216	0x3e3ee6a0	0.18642664
217	0x3f1a49fb	0.60269135
218	0x3f10cd42	0.565632
219	0xbebaa373	-0.36452827
220	0xbe367208	-0.17816937
221	0xbdd27bb5	-0.102775015
222	0x3ee4c072	0.44678074
223	0x3e119b68	0.14219439
224	0x3f12f1d3	0.57400244
225	0x3db5d23c	0.0887799
226	0xbe9322fb	-0.28737625
227	0xbf013c1a	-0.5048233
228	0xbe8ee0d1	-0.27905896
229	0x3f2ac518	0.6670699
230	0x3ee34742	0.44390303
231	0x3c246c36	0.010035565
232	0xbf46e62e	-0.77694976
233	0xbd9305a1	-0.07178808
234	0xbf0a8ca9	-0.5412088
235	0xbe87116f	-0.26380488
236	0xbeee5da8	-0.4655583
237	0xbc8bc2bc	-0.01706063
238	0xbee30786	-0.44341677
239	0x3d804983	0.06264021
240	0xbe4ebd49	-0.20189394
241	0xbe53f3a2	-0.20698407
242	0x3f03cc2e	0.5148343
243	0xbef59570	-0.47965574
244	0x3f047fb5	0.51757365
245	0xbeca7a5e	-0.39546484
246	0x3e818e1c	0.25303733
247	0x3eaf6138	0.3425386
248	0xbc37cdf7	-0.011218539
249	0x3e5ec759	0.21755733
250	0x3e9e8b80	0.30965805
251	0x3e79400e	0.24340841
252	0x3f11d0de	0.5695933
253	0x3e9c074d	0.3047432
254	0xbf2f6ae8	-0.685225
255	0x3ef0a68c	0.47002065

hidden_layers.2.bias f4 [20]
0	0xbda1525c	-0.07877037
1	0xbeeda50c	-0.46414983
2	0x3d7c008e	0.061523966
3	0x3d146afb	0.036234837
4	0xbe5e92f5	-0.21735747
5	0x3e82e852	0.2556787
6	0x3e9419ae	0.28925842
7	0xbeb6bc8f	-0.35690734
8	0x3d52d765	0.051474947
9	0xbe987a48	-0.29780793
10	0xbe29e275	-0.16590293
11	0xbe74a1bd	-0.23889823
12	0xbd154aaa	-0.03644816
13	0xbcc252f6	-0.0237212
14	0xbd5053c5	-0.05086114
15	0x3c4dd3e3	0.012562725
16	0xbdad1c65	-0.084526815
17	0xbcd5ca9a	-0.026097585
18	0x3d823134	0.06357041
19	0xbe053779	-0.13009442

hidden_layers.3.weight f4 [20, 20]
0	0x3e97bd53	0.2963663
1	0xbde55384	-0.1119757
2	0xbeda23d0	-0.42605448
3	0x3e8c475b	0.2739819
4	0x3f28a2ef	0.65873617
5	0xbf0d75fb	-0.5525815
6	0xbdcecc00	-0.10097504
7	0x3eee9be8	0.46603322
8	0xbef3a229	-0.47584656
9	0x3d8b6291	0.068059094
10	0xbb14b12d	-0.0022688613
11	0xbe9ca391	-0.3059354
12	0x3b0bfbb1	0.0021359737
13	0x3d554303	0.05206586
14	0xbe1af3b1	-0.15132023
15	0x3e29e476	0.16591057
16	0x3e9ecfc8	0.310179
17	0x3f49ccab	0.78827924
18	0x3ee33a38	0.44380355
19	0xbe503230	-0.20331645
20	0xbe32df56	-0.17468008
21	0x3dcc836e	0.09986006
22	0x3ead7613	0.33879146
23	0xbeabd5c8	-0.3356154
24	0x3e8e82e3	0.27834234
25	0xbf277c63	-0.65424174
26	0x3e04d3a6	0.12971362
27	0x3f025f41	0.50926596
28	0xbe32a972	-0.17447451
29	0x3f23582c	0.63806415
30	0xbef4feac	-0.4785055
31	0xbee3a1ab	-0.4445928
32	0xbe12d808	-0.14340222
33	0xbe1a8150	-0.15088391
34	0x3f1079d4	0.56435895
35	0x3eecfe38	0.46287704
36	0x3eb94542	0.36185652
37	0x3f06dfa8	0.5268502
38	0x3e3bd20e	0.18341848
39	0x3ee39178	0.4444692
40	0xbf0cd8c8	-0.5501828
41	0x3ce66050	0.028122097
42	0x3ab821b9	0.0014048136
43	0xbf086fad	-0.53295404
44	0xbf1b9dcf	-0.6078767
45	0xbf0bfe6b	-0.54685086
46	0x3ea23ff9	0.31689432
47	0xbea3275b	-0.31865963
48	0x3f124772	0.57140267
49	0xbee40524	-0.44535172
50	0x3dca15a7	0.09867411
51	0xbebcae24	-0.3685161
52	0xbf12498d	-0.5714348
53	0x3d8c7304	0.06857875
54	0xbcf09bed	-0.029371226
55	0x3ebf4f80	0.3736534
56	0xbe037596	-0.12837824
57	0x3ea0db73	0.31417426
58	0xbe817a53	-0.25288638
59	0x3f09754f	0.53694624
60	0xbe6eb6f9	-0.23311986
61	0x3d496ab4	0.049174026
62	0x3bbc34e7	0.005743611
63	0x3e1662ab	0.14686076
64	0x3e475852	0.19467285
65	0x3eb6393e	0.35590547
66	0x3f0ef0a7	0.55835956
67	0xbf04b440	-0.5183754
68	0xbe328aae	-0.17435715
69	0xbeeeb781	-0.46624377
70	0xbf26cd71	-0.6515723
71	0xbe428920	-0.18997622
72	0x3f2b642f	0.66949743
73	0xbea139fe	-0.31489557
74	0xbec22770	-0.37920713
75	0x3ea943a5	0.3305942
76	0xbf0a71fd	-0.5408018
77	0x3e8b3202	0.2718659
78	0x3e4c0330	0.19923091
79	0xbeaf6acf	-0.34261176
80	0xbf1beaee	-0.6090535
81	0xbce32adf	-0.027730403
82	0x3ef38a4b	0.47566447
83	0x3e318769	0.17336811
84	0xbec8aadd	-0.39192858
85	0x3e9c123d	0.30482665
86	0x3edacf04	0.42736065
87	0xbe3e9ad0	-0.18613744
88	0xbdeb5534	-0.114908606
89	0x3d13519e	0.035966508
90	0x3da6d7f4	0.081466585
91	0x3e682db9	0.22673692
92	0xbf01b72b	-0.5067012
93	0x3c879332	0.01654968
94	0x3f00da1b	0.503328
95	0xbd8cd95b	-0.06877395
96	0x3ef99058	0.48742938
97	0x3edef264	0.43544304
98	0x3e829378	0.25503135
99	0xbf07060d	-0.5274361
100	0xbed30b1a	-0.41219407
101	0xbe880e61	-0.2657347
102	0x3ef84ca7	0.4849598
103	0x3e0378af	0.12839006
104	0x3e81c840	0.2534809
105	0xbf20dd40	-0.628376
106	0xbf241dfa	-0.6410824
107	0xbe75bac6	-0.2399703
108	0xbf23fff8	-0.6406245
109	0xbcf9e913	-0.030506646
110	0x3e67b318	0.22626913
111	0x3f27494c	0.6534622
112	0xbed1d650	-0.4098382
113	0x3e68f543	0.2274981
114	0x3ed7e785	0.42168823
115	0xbefb81c2	-0.49122435
116	0x3f0594b3	0.5218002
117	0xbe4ba00d	-0.19885273
118	0x3f1f8783	0.6231615
119	0xbf0452d4	-0.51688886
120	0xbefc7333	-0.4930664
121	0xbf2dab84	-0.6783984
122	0x3f03f0bf	0.51539224
123	0x3d30a6bf	0.04312777
124	0xbf3e59da	-0.7435585
125	0xbeb393fb	-0.35073838
126	0xbf65ee3a	-0.8981663
127	0xbf3a7c88	-0.7284627
128	0xbca3ac00	-0.019979477
129	0xbf2d0c24	-0.6759665
130	0xbf247ef9	-0.64256245
131	0xbf2364f0	-0.63825893
132	0x3f121335	0.5706056
133	0xbf287f8e	-0.65819633
134	0xbe9e4332	-0.3091064
135	0x3e13dbad	0.14439268
136	0xbd81db1e	-0.063406214
137	0x3eed70df	0.46375176
138	0x3ed97228	0.42469907
139	0xbf1545bc	-0.5830953
140	0xbe45070c	-0.1924097
141	0x3e7e154b	0.2481281
142	0x3e9336aa	0.28752643
143	0x3e865b08	0.26241326
144	0x3cdbf710	0.026851207
145	0x3f44f9b9	0.76943547
146	0x3f4614ef	0.7737569
147	0xbe0eafc2	-0.13934234
148	0x3e61f5e8	0.22066462
149	0xbd89de8b	-0.067319
150	0x3ea75607	0.3268282
151	0x3e8cc1fb	0.27491745
152	0x3e85851c	0.26078117
153	0x3ead0572	0.33793217
154	0x3f091fee	0.53564346
155	0xbe867c11	-0.2626653
156	0xbee1e44a	-0.44119483
157	0x3e822c5e	0.25424474
158	0x3f031169	0.5119844
159	0x3f2906e2	0.6602613
160	0x3e2a55fa	0.1663436
161	0xbf416266	-0.7554077
162	0x3d8f36ad	0.069928505
163	0xbdc5a8c5	-0.09651331
164	0xbd926761	-0.07148624
165	0xbcf575a9	-0.029963331
166	0xbf0de6fe	-0.5543059
167	0x3e8e0024	0.27734482
168	0xbedd1168	-0.43177342
169	0x3eba7d77	0.36423847
170	0x3f2914c9	0.6604734
171	0xbec40e5c	-0.38292205
172	0xbf46f88e	-0.77723014
173	0xbec04264	-0.37550652
174	0xbeb2edd6	-0.3494708
175	0xbf339a8b	-0.7015769
176	0xbf5a7c96	-0.85346353
177	0xbeb451eb	-0.35218748
178	0xbe51a3e7	-0.2047268
179	0x3ee66266	0.44996947
180	0x3f044dc6	0.5168117
181	0xbea70ff0	-0.32629347
182	0x3e69c8d3	0.22830515
183	0xbecc1090	-0.39856386
184	0x3e85e1b6	0.26148766
185	0xbf2ae9e9	-0.6676317
186	0x3e5e81b4	0.21729165
187	0xbd3c4377	-0.045962777
188	0x3ecd6af6	0.40120667
189	0xbf175f24	-0.5912955
190	0x3ee1b19a	0.44080812
191	0x3e992312	0.2990957
192	0x3da422cc	0.080144495
193	0x3f21a6fb	0.63145417
194	0x3ea38c26	0.31942862
195	0xbf002bb7	-0.50066704
196	0x3ed112e9	0.4083474
197	0x3eb86f3a	0.3602236
198	0x3f590e85	0.8478778
199	0x3eb2e433	0.34939727
200	0x3bcf1253	0.006319323
201	0x3ed93b89	0.42428234
202	0x3f157988	0.58388567
203	0xbf323e4a	-0.69626296
204	0xbf1a5071	-0.60278994
205	0x3f1c9200	0.6116028
206	0x3f0426b2	0.51621544
207	0xbeebfea9	-0.46092728
208	0x3f32c4ea	0.69831717
209	0x3e6ddc92	0.23228672
210	0xbe7b8c7d	-0.24565311
211	0xbe699c84	-0.22813612
212	0x3e9abb67	0.30221102
213	0xbf1f5d17	-0.6225142
214	0xbe829957	-0.25507614
215	0x3dfd3f75	0.12365619
216	0x3ea9ba87	0.33150122
217	0xbd8cac57	-0.06868809
218	0x3ed6f924	0.41986954
219	0xbe845c0f	-0.25851485
220	0xbf171556	-0.5901693
221	0xbe927f10	-0.28612566
222	0xbebb6611	-0.36601308
223	0xbee32dca	-0.44370872
224	0xbf147a34	-0.5799897
225	0xbe1ec4cf	-0.15504764
226	0xbe360434	-0.17775041
227	0xbf30780e	-0.6893319
228	0x3ebafa87	0.36519262
229	0x3f133b71	0.57512575
230	0xbe33d843	-0.17562966
231	0xbe1aedd1	-0.15129782
232	0xbe092ecc	-0.13396758
233	0x3e8bd22b	0.27308783
234	0x3f1397b4	0.57653356
235	0x3f130d85	0.57442504
236	0x3d729d41	0.059232
237	0xbe04871e	-0.12942168
238	0x3f1d04a1	0.6133519
239	0x3f02d7a5	0.511103
240	0xbeae0c1b	-0.3399361
241	0x3eba3fc2	0.36376768
242	0x3d1dae74	0.03849645
243	0xbe32c393	-0.17457418
244	0x3dfe703e	0.12423752
245	0xbee9b5e9	-0.456466
246	0xbd7b8aaf	-0.061411556
247	0xbeab3eae	-0.33446258
248	0x3e1f59f8	0.15561664
249	0x3e2d4dbb	0.16924183
250	0xbe6169f1	-0.2201307
251	0x3efdca69	0.4956849
252	0xbe82088e	-0.25397152
253	0xbed7bc33	-0.42135772
254	0xbf0a3764	-0.5399077
255	0x3ebd73e1	0.3700247

hidden_layers.3.bias f4 [20]
0	0xbe2f1191	-0.17096545
1	0xbdb88ad0	-0.090108514
2	0x3cf5bc70	0.02999708
3	0x3d518abb	0.051157694
4	0x3dbbc3e5	0.09168223
5	0xbd6224e2	-0.055210955
6	0x3e1d225c	0.15345138
7	0x3e31b1f2	0.17353037
8	0xbe9302eb	-0.28713164
9	0xbe3292d6	-0.17438826
10	0x3e2ec10b	0.17065828
11	0xbc85bfa1	-0.016326727
12	0x3d0b9d65	0.03408565
13	0xbe3999f8	-0.1812514
14	0xbbbb7470	-0.0057206675
15	0xbde35279	-0.11099715
16	0x3d384e70	0.04499668
17	0x3ed802de	0.42189687
18	0x3da2e353	0.07953515
19	0xbdd3b600	-0.10337448

output_layer.weight f4 [1, 20]
0	0xbf810565	-1.0079771
1	0x3f8b4ec7	1.0883416
2	0x3d1d907c	0.03846787
3	0xbce32880	-0.027729273
4	0x3a629cf8	0.0008644606
5	0xbf38d380	-0.72197723
6	0xbff70b76	-1.9300373
7	0xbd34fa70	-0.04418415
8	0xbf00acca	-0.50263655
9	0xbf086617	-0.53280777
10	0x3f84525b	1.0337633
11	0x3e7e1598	0.24812925
12	0xbeaab40b	-0.33340487
13	0x3f76091e	0.9610766
14	0xbf095c06	-0.5365604
15	0x3fbaccf4	1.4593797
16	0xbdf1d405	-0.11808018
17	0x3f6523b8	0.8950763
18	0x3f65649b	0.89606637
19	0xbf482e2c	-0.7819545
