Task3/models/model_cluster-11_06_2022-18_13_23.pth (torch, 13353 bytes, 20 tensors)

input_layer.weight f4 [10, 100]
0	0x3e59b9b2	0.21262243
1	0xbe8fa5ad	-0.28056088
2	0x3e3e6a6d	0.18595286
3	0xbdc47fde	-0.09594701
4	0x3e97a957	0.29621384
5	0xbeab8140	-0.33497047
6	0xbe57734d	-0.21040078
7	0x3e51d78e	0.20492384
8	0x3e256b92	0.16154316
9	0x3f028c63	0.50995463
10	0x3e32ec3c	0.17472929
11	0x3eb796fa	0.35857373
12	0xbe7cc91d	-0.24686094
13	0x3eb52434	0.35379183
14	0x3e289766	0.16464004
15	0xbc657c8a	-0.014006743
16	0x3dc8f690	0.09812653
17	0xbe6e0b29	-0.23246445
18	0xbe306edd	-0.17229791
19	0xbe0e5441	-0.13899328
20	0x3c21a79c	0.009866621
21	0xbd2895f8	-0.041158646
22	0xbeb336fd	-0.3500289
23	0xbde76322	-0.11298205
24	0xbe11b271	-0.14228226
25	0xbe9dc080	-0.30810928
26	0xbe013bb9	-0.12620439
27	0xbed13bde	-0.40865988
28	0xbecbe037	-0.398195
29	0xbd002cfd	-0.031292904
30	0xbf325750	-0.6966448
31	0xbf3241a1	-0.6963139
32	0xbdfd6a17	-0.12373751
33	0xbf4e393d	-0.8055609
34	0xbe7cbf83	-0.24682431
35	0xbf0b51dd	-0.5442179
36	0xbdd04b74	-0.101706415
37	0xbe6fb891	-0.2341025
38	0xbe03b03e	-0.128602
39	0xbdcee472	-0.10102166
40	0x3e12b430	0.14326549
41	0xbdfa03cb	-0.12207755
42	0x3d8ab537	0.06772845
43	0xbe2ad198	-0.16681516
44	0xbe883db1	-0.26609567
45	0xbe9fe585	-0.31229797
46	0x3cdce6ce	0.026965525
47	0xbec15cc0	-0.37766075
48	0x3ecbab27	0.39779016
49	0xbe12c49e	-0.14332816
50	0x3f031cef	0.51216024
51	0x3d84b29b	0.06479379
52	0x3ef7596c	0.4831041
53	0xbd7c548e	-0.061604075
54	0xbe208e96	-0.15679392
55	0x3eee4794	0.46538985
56	0x3dfac8ae	0.12245308
57	0x3eca4c7b	0.39511475
58	0xbe2e609b	-0.1702904
59	0xbbf55426	-0.007486838
60	0x3e342e50	0.17595792
61	0xbe450698	-0.19240797
62	0x3e965311	0.2936025
63	0x3d1d7a58	0.038446754
64	0x3dea8b96	0.11452405
65	0xbe9009b9	-0.28132418
66	0xbd710408	-0.058841735
67	0xbe99d983	-0.3004876
68	0xbeba3525	-0.3636867
69	0xbdcf2040	-0.10113573
70	0x3e85def9	0.26146677
71	0xbe398800	-0.18118286
72	0xbe707c4b	-0.23484914
73	0x3e9ca9c6	0.30598277
74	0xbe0558a5	-0.13022096
75	0xbe91f801	-0.28509524
76	0x3df1de48	0.11809975
77	0xbdb9c28c	-0.0907031
78	0xbe257764	-0.16158825
79	0x3e346609	0.17617048
80	0xbe001e1d	-0.12511487
81	0x3e061534	0.13094026
82	0x3e544504	0.20729452
83	0xbe6daecf	-0.23211215
84	0xbeb9e86f	-0.36310145
85	0x3e2bf7a0	0.1679368
86	0x3e065d85	0.13121612
87	0x3e9b1733	0.30291137
88	0xbdf71b3f	-0.12065744
89	0xbe94adb2	-0.2903877
90	0x3ed8c0db	0.42334637
91	0x3daa828a	0.083256796
92	0x3e8a2087	0.2697794
93	0x3e043fa7	0.12914906
94	0xbebd12f8	-0.36928535
95	0xbdc77d59	-0.09740705
96	0xbf0d12fb	-0.55107087
97	0x3e04331d	0.12910123
98	0xbf5e0ce5	-0.86738425
99	0xbe652547	-0.22377501
100	0xbe78f4df	-0.24312161
101	0x3eac7e60	0.33690166
102	0x3e69fa20	0.22849321
103	0xbe0f7dc8	-0.14012825
104	0x3ec027ae	0.37530273
105	0x3c8ced51	0.017203005
106	0xbdd6b190	-0.10483086
107	0x3e9ae35d	0.3025159
108	0x3e741f66	0.23840103
109	0xbeacfb61	-0.33785537
110	0x3dc856db	0.09782191
111	0xbd8a29e3	-0.067462705
112	0x3ebc2064	0.36743462
113	0xbd2f96bd	-0.042868365
114	0x3e6699fb	0.22519676
115	0xbe9ea52e	-0.30985397
116	0xbe766eac	-0.24065655
117	0xbe92fabe	-0.28706926
118	0x3df87dcb	0.12133368
119	0x3d7394c9	0.059468064
120	0xbddd25cf	-0.10798227
121	0xbe390b91	-0.18070818
122	0x3e930174	0.28712046
123	0xbe2385c7	-0.15969001
124	0x3e3e51aa	0.1858584
125	0x3e2f2ba7	0.17106496
126	0x3e08a070	0.13342452
127	0x3da394c4	0.07987359
128	0x3e7d254e	0.24721262
129	0x3ed284e6	0.41117018
130	0x3d881163	0.06643941
131	0x3ec871f6	0.39149445
132	0x3ec17e92	0.37791878
133	0x3e79595e	0.24350497
134	0x3cfed8f4	0.03110931
135	0x3ec7c99b	0.39021
136	0x3ebe863f	0.37211797
137	0x3da2cf04	0.07949641
138	0x3ea32f67	0.31872103
139	0xbd13c7d0	-0.036079228
140	0xbe9b46f0	-0.3032756
141	0x3e7f149e	0.24910209
142	0xbe0015c7	-0.12508307
143	0xbea6d48d	-0.32584038
144	0x3de6dc36	0.11272471
145	0xbd0b5f83	-0.034026634
146	0x3e3f26be	0.18667123
147	0x3df76f41	0.12081767
148	0xbd83fc73	-0.06444635
149	0x3d4f6587	0.050633933
150	0x3e2634f7	0.16231142
151	0x3ebe31e5	0.37147442
152	0x3d8d2270	0.06891334
153	0xbdd32fda	-0.10311861
154	0x3dc0f9e5	0.094226636
155	0x3eb384a3	0.3506213
156	0xbe0f9400	-0.14021301
157	0x3e200da1	0.15630199
158	0x3e9bec7f	0.3045387
159	0x3e52c081	0.20581247
160	0x3d3e33f0	0.04643625
161	0x3eb082c0	0.34474754
162	0xbd9f22f6	-0.0777034
163	0xbe6145ed	-0.21999331
164	0xbd8d055e	-0.06885789
165	0x3eb71f48	0.35766053
166	0x3ec3f26e	0.38270897
167	0xbe3bc521	-0.18336917
168	0xbd54ca29	-0.051950607
169	0xbe73686a	-0.237703
170	0x3ed008e6	0.4063179
171	0x3e88bc4f	0.26706168
172	0xbe6b351a	-0.22969475
173	0xbdea5486	-0.11441903
174	0xbe523934	-0.20529634
175	0xbd2c09d8	-0.042001575
176	0x3e3392af	0.17536424
177	0xbd4d9240	-0.050188303
178	0xbd701d4c	-0.05862169
179	0x3cdfdf44	0.027328141
180	0xbc849f30	-0.016189188
181	0x3c98b72a	0.018642027
182	0xbdd9edc1	-0.10641051
183	0xbc1919c6	-0.009344524
184	0x3e523240	0.20526981
185	0xbe5920e7	-0.21203957
186	0x3e2f63ef	0.17127965
187	0xbdb65806	-0.08903508
188	0xbea86f90	-0.32897615
189	0x3edb0fb5	0.4278542
190	0xbd62cff5	-0.055374105
191	0xbdc0226a	-0.09381564
192	0xbe948fcb	-0.29015955
193	0x3b2ac724	0.0026058638
194	0xbe9e7524	-0.30948746
195	0x3d651095	0.055924017
196	0x3e6e6d85	0.23283966
197	0x3e572819	0.2101139
198	0xbeada409	-0.3391421
199	0x3e9354cc	0.28775632
200	0xbe546f6a	-0.20745626
201	0xbeb9169a	-0.36150056
202	0x3e8899ec	0.26679933
203	0xbde16c58	-0.11006993
204	0xbee33031	-0.44372705
205	0xbe957b34	-0.2919556
206	0xbeb4a27b	-0.35280213
207	0xbe932243	-0.28737077
208	0x3e80f211	0.25184682
209	0xbdf76996	-0.12080686
210	0x3da70f64	0.081572324
211	0xbee5627d	-0.44801703
212	0x3e5334c2	0.20625594
213	0x3e839658	0.2570064
214	0x3e4160e3	0.18884616
215	0xbe6e09ce	-0.23245928
216	0xbd9dddac	-0.07708296
217	0xbe169a65	-0.14707334
218	0xbeb1ea40	-0.3474903
219	0x3e269c20	0.16270494
220	0xbe871398	-0.26382136
221	0x3dc52049	0.096252985
222	0x3e331a97	0.17490612
223	0xbeda028a	-0.42580062
224	0xbccbcfdd	-0.02487939
225	0x3cfc0172	0.030762408
226	0x3ea8a79a	0.3294037
227	0x3dbf74c6	0.09348445
228	0xbe47b387	-0.19502078
229	0xbe2a3122	-0.16620305
230	0xbb847098	-0.0040417425
231	0xbe82ed3e	-0.25571626
232	0x3ea2fbfb	0.3183287
233	0x3e76e821	0.24111988
234	0x3e4a95b3	0.19783668
235	0xbd7953a7	-0.060870793
236	0x3dbbbea9	0.09167225
237	0xbe0c4e89	-0.13701834
238	0xbeb66bce	-0.35629123
239	0xbe78f320	-0.24311495
240	0xbd418a74	-0.04725118
241	0x3e7df02d	0.24798651
242	0xbe59d2b5	-0.21271785
243	0xbded7f78	-0.11596578
244	0xbea27184	-0.3172723
245	0x3ce3cfea	0.027809102
246	0xbdfca3e1	-0.12335945
247	0xbec34f48	-0.38146424
248	0x3e4bf804	0.19918829
249	0xbe07d8a0	-0.1326623
250	0xbee18980	-0.44050217
251	0xbed3b8dc	-0.41351974
252	0x3e2f9848	0.17147934
253	0xbe45991b	-0.19296686
254	0xbed071b3	-0.40711746
255	0xbe39fdd0	-0.18163228

input_layer.bias f4 [10]
0	0xbcf0ec6c	-0.02940961
1	0x3d1f9b5f	0.038966533
2	0xbdd6b133	-0.10483017
3	0xbdb90175	-0.09033481
4	0x3d255941	0.040368322
5	0x3cf41b76	0.02979825
6	0x3d34c737	0.0441353
7	0x3d3393f3	0.043842267
8	0xbdb4f166	-0.088351056
9	0x3d9464b0	0.07245767

hidden_layers.0.weight f4 [10, 10]
0	0x3f2956fd	0.6614836
1	0xbee260bd	-0.4421443
2	0x3e981db9	0.29710177
3	0x3f22e65d	0.63632756
4	0x3e0f503c	0.1399545
5	0x3edec2a9	0.4350789
6	0x3ebba55f	0.36649606
7	0xbd950001	-0.07275391
8	0xbe43d269	-0.19123234
9	0x3f43414d	0.76271516
10	0xbf17460d	-0.59091264
11	0x3ee453b5	0.44595113
12	0x3f686aa3	0.90787715
13	0x3f0dfca2	0.5546361
14	0x3eeffd07	0.46872732
15	0xbe8e35db	-0.27775463
16	0x3f18aadf	0.5963573
17	0xbe24ecae	-0.16105911
18	0x3f163b65	0.5868438
19	0xbf55fc81	-0.83588415
20	0xbe8207e7	-0.25396654
21	0x3f4c1449	0.7971845
22	0x3ea4f44a	0.32217628
23	0xbf5dfe45	-0.8671611
24	0x3e8916f4	0.26775324
25	0x3f3cc44b	0.7373702
26	0xbe9ad715	-0.3024222
27	0x3eb3233e	0.34987825
28	0x3f262ec2	0.64915097
29	0x3f117904	0.5682528
30	0xbecdd3d3	-0.40200672
31	0xbf3df186	-0.7419666
32	0x3df96e3e	0.1217923
33	0x3efd96dc	0.4952916
34	0x3ef6be15	0.48191896
35	0xbeee4f03	-0.46544656
36	0xbedcb2e8	-0.43105245
37	0x3f0b57d2	0.5443088
38	0xbe1d733d	-0.15375991
39	0x3f2b897d	0.67006665
40	0xbddae867	-0.106888585
41	0x3e1ed123	0.15509467
42	0xbeb59a0f	-0.354691
43	0xbee2f61f	-0.443284
44	0xbf0a025b	-0.53909844
45	0x3f585244	0.8450053
46	0x3e778466	0.241716
47	0x3e7885d5	0.24269803
48	0x3b360618	0.0027774628
49	0x3f070e04	0.5275576
50	0x3ee866a3	0.45390806
51	0xbe30d6c3	-0.17269425
52	0x3eff6f7f	0.49889752
53	0xbef2da36	-0.47432107
54	0xbe2f563e	-0.17122743
55	0xbf261d7d	-0.64888746
56	0x3f360193	0.7109615
57	0xbf210972	-0.6290504
58	0x3e533d08	0.2062875
59	0xbea64ce5	-0.3248054
60	0xbf0681ef	-0.5254201
61	0x3d7ad07d	0.061233986
62	0xbf47c098	-0.7802825
63	0x3f541351	0.82841974
64	0xbf1d82d5	-0.6152776
65	0x3ebc6943	0.36799058
66	0xbef245e1	-0.47318938
67	0x3d0c24f9	0.034214947
68	0x3d0a1328	0.033709675
69	0x3f517623	0.8182089
70	0x3f1af5d4	0.60531354
71	0x3f03847b	0.51374024
72	0x3f35d5d0	0.71029377
73	0x3f55a836	0.83459795
74	0xbf51da3d	-0.8197363
75	0x3e91073e	0.28325838
76	0xbe851511	-0.25992635
77	0x3e24e183	0.16101651
78	0x3ed3cf14	0.41368926
79	0xbf1d889b	-0.6153657
80	0x3d137493	0.035999846
81	0xbdac5eeb	-0.08416542
82	0x3f3d0c7c	0.73847175
83	0x3f42e18c	0.7612541
84	0x3f1e2107	0.61769146
85	0xbedeca90	-0.43513918
86	0xbdb9f098	-0.09079093
87	0xbf642dc2	-0.8913232
88	0x3ea546be	0.32280535
89	0x3ebc57b3	0.3678566
90	0x3f00b814	0.5028088
91	0xbef77c67	-0.483371
92	0xbf1f7216	-0.62283456
93	0xbf0cc4f5	-0.5498803
94	0xbf771f3f	-0.9653205
95	0x3f2349df	0.63784593
96	0xbf349c00	-0.7055054
97	0xbf9a871f	-1.2072486
98	0x3f4b22f9	0.7935024
99	0x3ecdadfc	0.40171802

hidden_layers.0.bias f4 [10]
0	0xbdbf75cd	-0.093486406
1	0xbbddb6d9	-0.006766182
2	0x3dfe82ac	0.124272674
3	0x3d72e1cb	0.059297364
4	0x3b7b2f08	0.0038327593
5	0xbe7e4825	-0.24832208
6	0x3ce29232	0.027657602
7	0xbaef026a	-0.0018234972
8	0x3d49acce	0.049237065
9	0xbd4b11ab	-0.049577396

hidden_layers.1.weight f4 [10, 10]
0	0x3ea98270	0.33107328
1	0xbe46a555	-0.19399007
2	0xbf1fa41d	-0.6235979
3	0xbe587143	-0.21136956
4	0x3f20eead	0.6286419
5	0x3c91c1d5	0.017792622
6	0x3f4bd7ff	0.7962646
7	0xbf5eb818	-0.86999655
8	0xbe411bac	-0.18858212
9	0x3f44a2ad	0.76810724
10	0x3e461757	0.19344841
11	0xbe92e343	-0.28689012
12	0x3f38b999	0.721582
13	0xbdec7d63	-0.11547353
14	0x3e8c1029	0.2735608
15	0xbe4fedcc	-0.20305556
16	0xbd8807a1	-0.0664208
17	0xbf23a7ee	-0.63928115
18	0x3ec151c6	0.377577
19	0x3eb913d2	0.36147934
20	0x3f0ebd7c	0.5575788
21	0x3f5adf25	0.8549674
22	0xbf57d870	-0.8431463
23	0x3ec1a7b0	0.37823248
24	0xbf6f39d1	-0.93447596
25	0xbf3fc4dd	-0.74909765
26	0x3f401d60	0.7504482
27	0xbdb106b3	-0.08643856
28	0x3f79448e	0.9737023
29	0xbe7f4cc5	-0.24931629
30	0xbec8e513	-0.3923727
31	0xbe7ad31d	-0.24494596
32	0x3f43b39a	0.76445925
33	0x3efc4bcd	0.4927658
34	0x3f33264c	0.6998031
35	0xbe8cff5c	-0.27538574
36	0xbec1529c	-0.37758338
37	0xbf64bff2	-0.89355385
38	0xbf110e5b	-0.5666253
39	0x3e8d73a9	0.27627304
40	0x3e835c96	0.25656575
41	0x3f69c16c	0.91310763
42	0x3efa4a7d	0.48884955
43	0xbf246b30	-0.64226055
44	0x3e68fac8	0.22751915
45	0xbdfc4c97	-0.12319296
46	0xbf3456e9	-0.70445114
47	0x3d51b62b	0.05119912
48	0x3f387eb9	0.72068363
49	0xbf66aad7	-0.9010443
50	0x3ec61a2e	0.3869185
51	0xbe36f862	-0.17868188
52	0xbdb858f3	-0.09001341
53	0xbebec0c3	-0.3725644
54	0x3c2c445f	0.010514348
55	0x3f464936	0.7745546
56	0xbeac7f15	-0.33690706
57	0x3e6daf59	0.23211421
58	0xbf6d13c1	-0.9260827
59	0x3f134e9a	0.5754181
60	0xbda387d4	-0.079848915
61	0x3eca71b2	0.39539868
62	0xbe69abe3	-0.22819476
63	0x3f043ff3	0.5166008
64	0x3f61cf9d	0.8820742
65	0xbf466b79	-0.7750774
66	0x3f2b5f97	0.66942734
67	0xbea55cfe	-0.3229751
68	0xbf28a430	-0.6587553
69	0xbe9ef4da	-0.31046182
70	0xbf249d0e	-0.64302146
71	0x3dfb21f7	0.12262338
72	0x3f3f4d15	0.7472699
73	0xbf4def1a	-0.80442965
74	0x3f14adb2	0.5807754
75	0x3e4d8cc4	0.20073229
76	0x3ed2b435	0.41153112
77	0xbec88c0b	-0.39169344
78	0x3ab4fa53	0.0013807513
79	0xbcc1303f	-0.023582576
80	0xbf37f3ee	-0.7185658
81	0x3f55c7a7	0.8350777
82	0x3ecf94ba	0.40543157
83	0x3e9be04b	0.3044456
84	0xbf0e94a8	-0.5569558
85	0x3dcc3cdf	0.09972548
86	0xbf5965a0	-0.8492069
87	0xbee012b6	-0.43764275
88	0xbe5f5678	-0.21810329
89	0x3f35719c	0.7087648
90	0x3e9a619f	0.30152604
91	0xbf2fce2c	-0.6867397
92	0xbd404144	-0.046937242
93	0x3e4b3537	0.19844519
94	0xbce01a32	-0.02735624
95	0x3e1de017	0.15417515
96	0x3f44a687	0.768166
97	0x3eebc02a	0.46045047
98	0x3e6ae930	0.22940516
99	0x3f881593	1.0631584

hidden_layers.1.bias f4 [10]
0	0x3da0d7ed	0.078536846
1	0xbd4c6e2b	-0.04990975
2	0xbe16bc3b	-0.14720242
3	0x3d10b5d7	0.035329666
4	0xbceef41d	-0.029169137
5	0x3e451319	0.19245566
6	0x3d33acb4	0.043865874
7	0x3c70514c	0.01466782
8	0x3da8e6c1	0.08247138
9	0x3e49815d	0.19678254

hidden_layers.2.weight f4 [10, 10]
0	0x3f5e58af	0.8685407
1	0xbef74fcd	-0.4830307
2	0xbf3170cd	-0.69312745
3	0x3f077e4b	0.5292708
4	0x3f1e7249	0.61893135
5	0x3df11a3a	0.117725804
6	0x3f25c46f	0.6475286
7	0x3e4f641f	0.20253037
8	0x3dbc0eec	0.091825336
9	0x3f128bed	0.5724476
10	0xbf79e58b	-0.9761588
11	0x3ef00bb8	0.4688394
12	0x3d8fdb94	0.07024303
13	0xbf4be415	-0.796449
14	0x3f8a6313	1.0811485
15	0xbc6a1374	-0.014286865
16	0x3ecb7d5f	0.39744088
17	0xbeaf0bd9	-0.34188727
18	0x3dcb1593	0.09916224
19	0xbdb6b359	-0.089209266
20	0xbf1adcd2	-0.60493195
21	0xbf5f56df	-0.8724193
22	0x3f2e73ed	0.6814564
23	0xbf3db002	-0.7409669
24	0x3ef832b2	0.48476177
25	0x3f2d4ac8	0.6769223
26	0x3f5310ce	0.82447517
27	0xbf134ddd	-0.57540685
28	0x3f088570	0.5332861
29	0x3e297412	0.16548184
30	0xbf6a9c96	-0.9164518
31	0xbd17dbe1	-0.037074927
32	0xbea62862	-0.32452685
33	0xbe6d641a	-0.23182717
34	0x3f819b1a	1.0125458
35	0xbeb947eb	-0.36187682
36	0xbf283082	-0.6569902
37	0x3f16c518	0.5889449
38	0x3e146538	0.14491737
39	0xbc5f36c7	-0.0136239
40	0xbebfdd19	-0.37473372
41	0x3c23a9f4	0.00998925
42	0x3f398423	0.7246725
43	0x3f0305fa	0.51180995
44	0xbdab69ef	-0.083698146
45	0xbdfa94ba	-0.122353986
46	0xbf1b25bc	-0.60604453
47	0x3e4630e4	0.19354588
48	0x3d1bca83	0.038034927
49	0xbe1e9207	-0.15485393
50	0x3edcf236	0.43153542
51	0x3f3ff084	0.7497637
52	0xbe281171	-0.16412903
53	0x3f2721d9	0.6528602
54	0x3e50a7f2	0.20376566
55	0xbf55f8b7	-0.83582634
56	0xbedf89fb	-0.43659958
57	0xbf2fb64b	-0.6863753
58	0xbe8868c3	-0.26642427
59	0x3c97e5f1	0.018542262
60	0x3ec60432	0.38675076
61	0x3f54d243	0.83133334
62	0xbf49035c	-0.7852075
63	0x3f4edfca	0.80810225
64	0xbf49f077	-0.78882545
65	0xbee0c124	-0.43897355
66	0xbe265a0a	-0.16245285
67	0xbf1566e2	-0.5836011
68	0x3ea0fc5c	0.31442535
69	0xbf14c107	-0.58107036
70	0xbe9bd053	-0.30432376
71	0x3eb8e1b9	0.36109713
72	0x3cac9495	0.021066943
73	0x3f90c754	1.131083
74	0x3d1fa9e5	0.038980383
75	0x3f203a94	0.62589383
76	0x3f4c787e	0.79871356
77	0x3f17220c	0.59036326
78	0x3d2dddb8	0.042447776
79	0x3ea07345	0.31337944
80	0xbe289c54	-0.16465884
81	0x3f18e133	0.59718627
82	0xbeeaa46e	-0.45828575
83	0x3f477059	0.77905804
84	0xbdd0c79d	-0.10194323
85	0x3f0c6221	0.5483723
86	0xbf3cbd8c	-0.73726726
87	0x3d9124c6	0.07087092
88	0x3f29553c	0.6614568
89	0x3f238938	0.63881254
90	0xbf362d9a	-0.7116333
91	0xbe5624b5	-0.2091244
92	0xbf5ea49f	-0.8696994
93	0x3f4bfbf6	0.79681337
94	0x3f552e74	0.83274007
95	0x3e7b1ac3	0.24521928
96	0xbe6831b6	-0.22675213
97	0x3eae0b23	0.33992872
98	0xbf0afcab	-0.5429179
99	0xbeb27c90	-0.3486066

hidden_layers.2.bias f4 [10]
0	0x3c18f2aa	0.009335199
1	0xbe9f5757	-0.31121323
2	0xba0c03a3	-0.0005341118
3	0xbe085cf0	-0.13316703
4	0xbdfa3c1c	-0.12218496
5	0x3e02b20f	0.12763236
6	0xbc24140f	-0.010014548
7	0x3e92ba5a	0.286578
8	0x3db4889a	0.08815117
9	0x3e115811	0.14193751

hidden_layers.3.weight f4 [10, 10]
0	0xbce4e17f	-0.027939556
1	0xbf5c1a66	-0.8597778
2	0x3f1734de	0.59065044
3	0xbe63bf96	-0.22241053
4	0x3ef5733f	0.47939488
5	0x3f1a61f6	0.60305727
6	0x3ea820ce	0.32837528
7	0x3ee7bcb5	0.4526116
8	0x3e87e83f	0.26544377
9	0xbe4dbbab	-0.20091121
10	0xbedfaf58	-0.43688464
11	0xbed2efaa	-0.41198474
12	0x3e828e45	0.25499168
13	0x3ec4369c	0.38322914
14	0xbf354add	-0.7081736
15	0xbead6428	-0.33865476
16	0x3ef84c67	0.4849579
17	0x3e95c21a	0.2924965
18	0xbf5779cd	-0.8417023
19	0xbf19b0c4	-0.6003535
20	0xbef5d947	-0.48017332
21	0xbdc6e466	-0.09711532
22	0xbf755d5b	-0.95845574
23	0xbe95fd13	-0.29294643
24	0x3dd3dc1a	0.103447154
25	0xbed3152c	-0.4122709
26	0x3ebc2070	0.36743498
27	0xbecacada	-0.39607888
28	0x3f6ea9ae	0.9322766
29	0x3f4a58d0	0.7904177
30	0xbecdca1e	-0.40193266
31	0x3f2d7439	0.67755467
32	0x3f8c881d	1.0979038
33	0xbe1b54ca	-0.15169063
34	0x3e94c76d	0.290584
35	0xbea495e8	-0.3214562
36	0x3ea8f61f	0.33000275
37	0xbf388a2e	-0.72085845
38	0xbf2e7422	-0.68145955
39	0xbf09ae42	-0.5378152
40	0xbdacfb9a	-0.08446427
41	0xbe84efb9	-0.25964144
42	0x3f6083ac	0.87700915
43	0x3f1e430b	0.6182105
44	0xbf021da4	-0.5082648
45	0x3f58e920	0.8473072
46	0xbf651f6e	-0.8950108
47	0xbf680cba	-0.9064442
48	0xbf057089	-0.5212484
49	0x3f605652	0.87631714
50	0xbe94926c	-0.2901796
51	0xbef61e22	-0.48069865
52	0x3f30a789	0.6900564
53	0xbec6d673	-0.38835487
54	0xbe3f7288	-0.18696034
55	0xbecebdb1	-0.40379098
56	0x3ed12650	0.40849543
57	0xbf759479	-0.95929676
58	0xbf98e585	-1.1945044
59	0x3f17b5cd	0.5926178
60	0xbee108f0	-0.4395213
61	0x3f5223ad	0.82085687
62	0xbf5bb87c	-0.85828376
63	0x3f625b40	0.88420486
64	0x3c21c296	0.009873053
65	0xbe8accae	-0.27109283
66	0xbf58b32e	-0.84648407
67	0xbded4327	-0.11585074
68	0x3dfbedc3	0.12301209
69	0xbf24b236	-0.6433443
70	0xbf5c0064	-0.85938096
71	0xbc66ae0f	-0.014079585
72	0x3e220436	0.15821919
73	0x3f62a034	0.885257
74	0x3ede69ca	0.43440086
75	0x3df4f887	0.11961465
76	0x3d8cedcd	0.068812944
77	0xbed54911	-0.41657308
78	0xbeb77248	-0.35829377
79	0x3efe06b5	0.49614492
80	0xbe35ca33	-0.17752914
81	0x3f35905e	0.7092341
82	0xbf3a5d85	-0.7279895
83	0xbe89837b	-0.26858124
84	0x3d09eae5	0.03367128
85	0x3f334402	0.70025647
86	0xbe5c9b31	-0.21543576
87	0xbd945aa3	-0.0724385
88	0xbf00b1f4	-0.50271535
89	0xbeda6faf	-0.42663333
90	0x3e01fc71	0.12693955
91	0xbd3469b5	-0.044046123
92	0xbf5a4b87	-0.85271496
93	0xbdba0f77	-0.09084981
94	0x3eb94d0f	0.36191604
95	0x3ee2273b	0.44170555
96	0x3dc56bc9	0.09639699
97	0x3f4300bb	0.7617299
98	0x3f5029ef	0.81313986
99	0xbe03c787	-0.12869082

hidden_layers.3.bias f4 [10]
0	0x3d511eda	0.051054813
1	0xbc7f9da8	-0.015601553
2	0x3e1cce8b	0.15313165
3	0xbea69db2	-0.32542187
4	0xbc5cbf43	-0.013473335
5	0xbd0772b0	-0.03306836
6	0xbbf4e97d	-0.007474123
7	0xbe4900ca	-0.19629207
8	0x3e46f707	0.19430171
9	0x3d851340	0.06497812

hidden_layers.4.weight f4 [10, 10]
0	0xbf2e02d8	-0.6797309
1	0xbeb1a004	-0.34692395
2	0x3f7fa333	0.998584
3	0xbef3c305	-0.47609726
4	0x3d276289	0.040865455
5	0x3ea3b5b4	0.31974566
6	0x3f40aeca	0.75266707
7	0xbe7209ba	-0.23636523
8	0xbf6bd712	-0.92125046
9	0x3f0d2251	0.5513049
10	0xbeb12965	-0.34601894
11	0xbd25135d	-0.04030167
12	0xbf2fab07	-0.6862034
13	0x3d89f5a2	0.06736304
14	0x3f5de507	0.86677593
15	0x3e9f3fae	0.3110327
16	0xbece8a8d	-0.4034008
17	0x3f62804d	0.8847702
18	0x3e959ba5	0.2922031
19	0x3e16c2f1	0.14722802
20	0x3e66c37c	0.22535509
21	0xbf036969	-0.5133272
22	0xbee67441	-0.4501057
23	0x3ced29e3	0.028950637
24	0x3e8836b0	0.26604223
25	0x3e1a2082	0.15051463
26	0x3f2d2582	0.6763536
27	0xbf0663d7	-0.52496094
28	0x3ee992c3	0.45619783
29	0xbf0ce1f1	-0.5503226
30	0x3f373b06	0.7157444
31	0x3e9f1671	0.3107181
32	0x3ece211d	0.40259638
33	0xbea48f56	-0.32140607
34	0x3e3b7d46	0.18309507
35	0xbe5c4895	-0.21512063
36	0xbeed586a	-0.46356517
37	0x3e4e9851	0.20175292
38	0xbf572d25	-0.8405326
39	0x3e5db752	0.21651962
40	0x3cf0bbe1	0.029386463
41	0xbee6e62b	-0.4509748
42	0xbf1b2d7a	-0.60616267
43	0x3f62a963	0.88539714
44	0x3e898acf	0.26863715
45	0xbea7e144	-0.32789052
46	0x3e2b0153	0.16699724
47	0x3f6ec21c	0.9326494
48	0xbf0df7da	-0.55456316
49	0xbf6a4d90	-0.915246
50	0x3f1a0faf	0.6018018
51	0xbf338533	-0.7012512
52	0x3ee326e5	0.44365612
53	0xbe7fce89	-0.2498113
54	0x3f066780	0.5250168
55	0x3f3af4a1	0.73029524
56	0x3ed44b16	0.41463536
57	0x3f0cd173	0.55007094
58	0x3e89b6cf	0.26897284
59	0xbefc3ebf	-0.4926662
60	0xbcb0de8c	-0.021590494
61	0x3e4f0bce	0.20219347
62	0xbf0cc0c2	-0.54981625
63	0xbe87941d	-0.2648019
64	0xbe9de086	-0.3083536
65	0x3f4011b5	0.7502702
66	0xbeb13e31	-0.3461776
67	0xbd89bd38	-0.06725544
68	0x3f77bce9	0.9677263
69	0x3f11cd94	0.5695431
70	0xbf22204c	-0.6333053
71	0x3e896796	0.26836842
72	0xbe96b2ad	-0.29433194
73	0x3efa1b9d	0.48849192
74	0xbe41b5b9	-0.18916978
75	0xbd59fb88	-0.053218395
76	0x3f13c2cc	0.5771911
77	0x3f28ea5a	0.6598259
78	0x3ea83eed	0.3286051
79	0xbf117e85	-0.5683368
80	0xbe891d98	-0.2678039
81	0x3ef293ff	0.47378537
82	0xbeee5976	-0.46552628
83	0xbe8fde93	-0.28099498
84	0x3f53b155	0.8269246
85	0xbe380208	-0.17969525
86	0x3e810966	0.25202483
87	0xbeb153ab	-0.34634146
88	0xbd8aa593	-0.06769862
89	0xbf24f99d	-0.6444338
90	0x3f2f72fc	0.6853483
91	0xbf355c0b	-0.7084357
92	0x3f0baf76	0.5456461
93	0xbf44a916	-0.76820505
94	0x3f3ec820	0.74524117
95	0xbe918a8c	-0.28426015
96	0xbecf77cf	-0.40521094
97	0xbf4c6000	-0.79833984
98	0x3d88f522	0.066873804
99	0xbea87ff5	-0.32910123

hidden_layers.4.bias f4 [10]
0	0x3dc8eb2c	0.098104805
1	0xbd3d0b02	-0.046153076
2	0xbdcd9913	-0.10038962
3	0x3da7ba8c	0.08189878
4	0xbe46a1df	-0.19397686
5	0x3d6b23d2	0.057407208
6	0xbc105b33	-0.008810806
7	0x3caf7229	0.02141674
8	0xbd7e08e7	-0.06202021
9	0x3d160458	0.036625236

hidden_layers.5.weight f4 [10, 10]
0	0x3f1f0680	0.62119293
1	0x3de2b8ba	0.1107039
2	0xbf4bba2b	-0.79580945
3	0xbf2c1240	-0.6721535
4	0x3eaacfe4	0.33361733
5	0x3f4b91cc	0.79519343
6	0x3e090755	0.13381703
7	0x3f3775f8	0.7166438
8	0xbe8cf834	-0.27533114
9	0xbf3eed94	-0.74581265
10	0xbec0289a	-0.37530977
11	0xbf1bac73	-0.6081001
12	0xbf3e0df0	-0.74240017
13	0x3e92c2a8	0.28664136
14	0x3ebac511	0.36478475
15	0x3e29d22c	0.1658408
16	0x3ecc51c3	0.3990613
17	0x3ddb9056	0.10720889
18	0xbd05b369	-0.032641802
19	0xbd14dce7	-0.03634348
20	0x3f2cee7f	0.67551416
21	0xbf1c0300	-0.6094208
22	0x3f6b455a	0.919027
23	0x3e7ae024	0.24499565
24	0xbe4e4282	-0.20142558
25	0x3dccdae4	0.100026876
26	0x3efaaf32	0.48961788
27	0x3ef0cd11	0.47031453
28	0x3f01abcb	0.5065276
29	0xbf53c19b	-0.82717294
30	0x3f297bed	0.6620472
31	0xbf2ac00d	-0.66699296
32	0xbe966e34	-0.29380953
33	0xbf2a2c94	-0.6647427
34	0xbf326ab8	-0.6969409
35	0xbf09572a	-0.53648627
36	0x3f4d9b95	0.80315524
37	0xbf372dcd	-0.7155426
38	0xbe2253d0	-0.15852284
39	0xbedfdae5	-0.4372169
40	0xbf295c0f	-0.66156095
41	0xbf4bb0ba	-0.7956654
42	0xbef3859d	-0.47562876
43	0xbdf48d1a	-0.119409755
44	0x3f370c65	0.7150329
45	0x3f412c4a	0.75458205
46	0xbe25d3ba	-0.16194049
47	0x3d8597f5	0.06523124
48	0x3f0e0e93	0.5549099
49	0x3d7d6db6	0.061872207
50	0xbef8abe5	-0.48568645
51	0xbdf1dfa6	-0.11810236
52	0x3f081afc	0.53166175
53	0xbf697fbc	-0.9121053
54	0x3f5fefad	0.8747509
55	0x3e440887	0.19143878
56	0x3cc8ce90	0.02451256
57	0xbe982ead	-0.2972311
58	0x3ed7ae92	0.42125374
59	0x3ecd9757	0.40154526
60	0xbdcc36d1	-0.09971393
61	0xbf41b524	-0.75667024
62	0x3f57f5c3	0.8435938
63	0x3e6af5ca	0.22945324
64	0xbf0baf01	-0.5456391
65	0xbea7d068	-0.3277619
66	0x3ed0f64f	0.4081292
67	0x3f7030c3	0.93824404
68	0xbcd71157	-0.026253385
69	0x3ed1a9b7	0.40949795
70	0x3f246a3b	0.64224595
71	0x3cab4aa5	0.020909617
72	0x3d28aede	0.04118239
73	0xbdc61922	-0.096727625
74	0xbe95bb3a	-0.29244405
75	0x3f09067d	0.53525525
76	0x3f4faf39	0.81126744
77	0x3f6115f8	0.87924147
78	0x3e0d7aa8	0.13816321
79	0x3e207370	0.15669036
80	0x3f723bb5	0.94622356
81	0x3f078108	0.5293126
82	0x3e8a6d90	0.27036715
83	0x3f3897be	0.7210654
84	0x3ec1cb65	0.3785049
85	0x3f193a41	0.59854513
86	0xbf39511d	-0.72389394
87	0xbf563c83	-0.83686084
88	0xbf4045aa	-0.751063
89	0x3d8a0ce8	0.06740743
90	0xbeac4b59	-0.33651236
91	0x3e9d13c7	0.3067915
92	0x3d9d29fc	0.076740235
93	0xbe4d20f1	-0.20032097
94	0x3ef14b71	0.4712787
95	0x3c7a9d1d	0.015296248
96	0x3da9745a	0.082741454
97	0xbdd7705a	-0.10519476
98	0xbed2ee9d	-0.41197672
99	0x3e6dcc59	0.23222484

hidden_layers.5.bias f4 [10]
0	0x3d09ea72	0.03367085
1	0x3d8fd389	0.07022769
2	0xbd49308d	-0.049118567
3	0x3d2adfed	0.04171746
4	0x3d00b0ac	0.031418487
5	0xbd9d77f0	-0.07688892
6	0xbd3d60fb	-0.046235066
7	0xbdac5d23	-0.08416202
8	0xbb7c50dd	-0.0038500347
9	0x3c7b4cf8	0.015338175

hidden_layers.6.weight f4 [10, 10]
0	0xbf2980ca	-0.6621214
1	0xbf476085	-0.7788165
2	0xbe750bec	-0.23930329
3	0xbd4b442c	-0.04962556
4	0xbf39b850	-0.72546864
5	0x3f40a806	0.75256383
6	0xbec92f22	-0.39293772
7	0x3e9da023	0.30786237
8	0xbdcb64b3	-0.09931316
9	0x3f283fd0	0.6572237
10	0xbf283d8a	-0.657189
11	0xbf4684e9	-0.77546555
12	0x3f22f7cc	0.6365936
13	0xbedac28b	-0.4272655
14	0x3f11c9b4	0.569484
15	0xbe0a7178	-0.13519847
16	0xbe29f91a	-0.16598931
17	0xbed3e7db	-0.4138783
18	0x3f260e53	0.6486561
19	0xbd8c3998	-0.06846923
20	0x3e2e348d	0.17012234
21	0xbefd25e3	-0.49442968
22	0x3e381992	0.17978504
23	0xbf3fd642	-0.74936306
24	0x3ecd6443	0.40115556
25	0xbcd9e5b1	-0.026598783
26	0x3db00b96	0.0859596
27	0x3f6aee17	0.91769546
28	0xbf3099fd	-0.6898497
29	0x3e83b9a7	0.2572758
30	0x3f2890cf	0.6584596
31	0xbe85c3d9	-0.26125982
32	0x3edaf81d	0.4276742
33	0xbedbb3dc	-0.4291066
34	0xbd7a5b05	-0.06112196
35	0xbeb3edff	-0.35142514
36	0xbd589ac4	-0.05288197
37	0xbf333bcf	-0.70013136
38	0x3f5be3fc	0.8589475
39	0x3f180461	0.5938168
40	0x3f6cded9	0.9252754
41	0xbeeceddd	-0.46275225
42	0xbef8d761	-0.4860182
43	0xbeba655b	-0.36405453
44	0x3e3acd63	0.18242411
45	0xbca1fb9f	-0.019773303
46	0x3e112ac5	0.14176472
47	0xbdef8c01	-0.116966255
48	0x3f61b379	0.8816448
49	0xbec00f8e	-0.37511867
50	0x3f5476e1	0.82993895
51	0xbda29d82	-0.079401985
52	0x3eb5da12	0.35517937
53	0x3f24bb08	0.6434789
54	0xbd78c577	-0.060735192
55	0x3ed46ed2	0.414908
56	0x3e81a746	0.25322932
57	0x3daca050	0.08429015
58	0x3f5ee9a9	0.8707529
59	0x3f22dc52	0.6361743
60	0xbea493fe	-0.3214416
61	0x3ed3f0d4	0.41394675
62	0xbcddd46e	-0.027078833
63	0xbf0c238f	-0.5474176
64	0xbf5bd73a	-0.85875285
65	0xbd01325e	-0.031542175
66	0x3f25a66b	0.6470706
67	0xbf675d14	-0.903764
68	0x3e9cf347	0.30654356
69	0x3eac5e4e	0.336657
70	0x3e9959fa	0.2995146
71	0xbcb6e630	-0.022326559
72	0xbf2659ba	-0.6498066
73	0xbeecf400	-0.46279907
74	0xbea792e7	-0.32729265
75	0x3ec22a68	0.37922978
76	0xbdf7e494	-0.12104145
77	0xbf593656	-0.84848535
78	0x3eb49945	0.35273185
79	0x3ebc1139	0.3673189
80	0xbf48925a	-0.78348315
81	0x3df56012	0.119812146
82	0x3f46318a	0.7741934
83	0xbf54b846	-0.8309368
84	0xbeeb5c5e	-0.45968908
85	0x3f2306fc	0.6368253
86	0x3ef1bda8	0.4721501
87	0x3f0aad1c	0.54170394
88	0x3d930295	0.07178227
89	0xbf0e076a	-0.5548006
90	0x3e2b9308	0.16755307
91	0xbd7395bf	-0.05946898
92	0x3e909c95	0.28244463
93	0x3ed6e9d5	0.41975275
94	0x3f3d74d5	0.74006397
95	0x3de8c6e5	0.11366061
96	0x3f148e37	0.580295
97	0x3e42c2b4	0.19019586
98	0x3ee6acc1	0.45053676
99	0x3d6368c6	0.05551984

hidden_layers.6.bias f4 [10]
0	0x3c4e5ffe	0.0125961285
1	0xbdf84aba	-0.12123628
2	0xbc753f80	-0.014968753
3	0x3ca161c6	0.019699942
4	0xbd4326a4	-0.047644272
5	0x3d6e84e7	0.058232214
6	0xbd72f79d	-0.059318174
7	0x3d147b8a	0.03625063
8	0xbdb096b5	-0.08622495
9	0xbe041b39	-0.1290101

hidden_layers.7.weight f4 [10, 10]
0	0xbe0c8b67	-0.13725053
1	0xbd872497	-0.06598776
2	0xbe4d8321	-0.20069553
3	0xbf60a53a	-0.87752116
4	0xbf47eda6	-0.78097
5	0xbf55e1b9	-0.8354755
6	0x3f46c08b	0.7763755
7	0xbe898c6b	-0.26864943
8	0x3f43d5e2	0.76498234
9	0xbf45f98b	-0.773339
10	0xbd8c0a34	-0.068378836
11	0xbf5fc90e	-0.8741616
12	0x3e5ae467	0.21376191
13	0xbf2763df	-0.65386766
14	0xbe0fcd22	-0.14043096
15	0xbeee2b0a	-0.4651721
16	0xbd1961bc	-0.037446722
17	0x3f5f76ff	0.8729095
18	0xbdef1b82	-0.116751686
19	0xbf792ecc	-0.9733703
20	0x3d82bfc1	0.063842304
21	0xbec38209	-0.38185146
22	0xbf2954ce	-0.66145027
23	0x3e8e1ea7	0.2775776
24	0xbec66cb0	-0.38754797
25	0xbf03fc2d	-0.51556665
26	0xbdf1ce57	-0.11806934
27	0xbf02043e	-0.50787723
28	0x3f94c735	1.1623293
29	0xbf01f26f	-0.5076055
30	0xbe0410a4	-0.12896973
31	0xbe18f99a	-0.14938965
32	0x3ef1993e	0.47187227
33	0x3f72bbcb	0.948178
34	0xbf539ba5	-0.8265937
35	0xbf22caa9	-0.63590485
36	0xbf0ac8ce	-0.54212654
37	0xbf1e95df	-0.61947435
38	0xbef83211	-0.48475698
39	0x3f0ff398	0.5623107
40	0xbe10b857	-0.1413282
41	0xbf395e5e	-0.7240962
42	0xbf7c44eb	-0.9854266
43	0x3e98b1ba	0.29823095
44	0xbec45079	-0.38342646
45	0xbe8145a3	-0.2524844
46	0x3e991320	0.29897404
47	0x3e211790	0.15731645
48	0x3ec50140	0.38477516
49	0xbe028b76	-0.12748513
50	0xbecea6e9	-0.40361717
51	0x3e38d2b8	0.18049133
52	0x3f16ac24	0.58856416
53	0x3f561da8	0.83639
54	0x3e794a35	0.24344714
55	0x3f589f7a	0.8461834
56	0xbf03b8e6	-0.5145401
57	0x3f4450e8	0.76685953
58	0xbe83626a	-0.2566102
59	0x3ea9f5d3	0.33195361
60	0x3f5c457c	0.86043525
61	0x3eef1f33	0.4670349
62	0x3e5a2a35	0.21305163
63	0xbea72ba6	-0.3265049
64	0x3f5d1f5e	0.8637599
65	0x3ef8941b	0.48550496
66	0xbe8715fc	-0.2638396
67	0x3e49ef49	0.19720186
68	0x3f016354	0.5054219
69	0xbe287860	-0.1645217
70	0xbdeb5605	-0.11491016
71	0x3f59db39	0.8510013
72	0x3f83aef5	1.0287768
73	0x3e6b65e2	0.22988084
74	0xbe8eebf7	-0.27914402
75	0xbeb9c2e6	-0.36281508
76	0xbec5ca91	-0.38631108
77	0xbea2a8a3	-0.31769285
78	0xbf06db60	-0.5267849
79	0x3de15ce8	0.110040486
80	0x3e9bebd5	0.30453363
81	0x3f35d1cc	0.7102325
82	0xbec2bc10	-0.38034105
83	0x3f4e02d5	0.8047307
84	0x3f8936f9	1.0719901
85	0x3f7ecf59	0.9953514
86	0x3ec1a090	0.37817812
87	0xbe7d0e2d	-0.24712439
88	0xbf600f63	-0.8752348
89	0x3f3382b0	0.7012129
90	0x3f394c47	0.72382015
91	0x3e83b18d	0.25721398
92	0x3f38a83c	0.72131705
93	0x3e961319	0.29311445
94	0x3f32a8e5	0.6978896
95	0xbe822de6	-0.25425643
96	0xbe1e6881	-0.15469553
97	0xbd567a5c	-0.052362785
98	0x3dcf48ec	0.101213306
99	0xbe1a8389	-0.15089239

hidden_layers.7.bias f4 [10]
0	0xbc75b550	-0.014996842
1	0xbe6a9b7d	-0.22910877
2	0x3d3d0e0a	0.046155967
3	0xbdb03fc6	-0.08605914
4	0x3e37cb35	0.17948611
5	0xbe048c50	-0.1294415
6	0x3d105552	0.035237618
7	0xbe19f5ec	-0.15035218
8	0xbe3e5483	-0.18586926
9	0xbe6c4b75	-0.2307566

output_layer.weight f4 [2, 10]
0	0x3e190251	0.1494229
1	0xbf55b47b	-0.83478516
2	0x3eb8a46b	0.3606294
3	0xbf23d24a	-0.6399275
4	0x3ed53995	0.41645494
5	0x3f11d6d7	0.56968445
6	0x3de157a7	0.110030465
7	0x3dc1fd93	0.094721936
8	0xbf460056	-0.7734426
9	0xbf0c7102	-0.54859936
10	0xbe513580	-0.20430565
11	0x3f8d3259	1.103099
12	0xbf767aa1	-0.96280867
13	0x3f2bfbc4	0.6718104
14	0xbed794ea	-0.421058
15	0xbec8d62c	-0.392259
16	0xbf1776f0	-0.5916586
17	0xbecd4829	-0.40094116
18	0xbf245272	-0.641883
19	0x3f2035e5	0.62582237

output_layer.bias f4 [2]
0	0x3e184212	0.14868954
1	0x3e787919	0.24264945
