Task3/models/model_cluster-11_06_2022-18_14_23.pth (torch, 13353 bytes, 20 tensors)

input_layer.weight f4 [10, 100]
00000000: 5b97 2f3e 738f 79be fda0 e23d 97c0 e6bd
00000010: 1cae 8b3e 3228 c1be e16e 77be 686f 333e
00000020: 412b dd3d e77c f43e 8678 d43d a967 9e3e
00000030: d8bb b5be 0404 893e 0dbf 473c b129 1cbe
00000040: 9148 03bc a71d c0be aad5 40be 01ae 6bbe
00000050: 48d6 6c3d 94ed 5cbd 5349 6bbe 65c6 72bd
00000060: 18c8 0c3c c049 57be aa23 b03c 8b5c 91be
00000070: 9864 f4be 7545 663d 64e9 86bf 5db6 44bf
00000080: 3e1f 3cbe 17b5 75bf c224 cfbd a984 14bf
00000090: 4fff ca3d cfd0 ffbd 998d f0bc c250 563d
000000a0: bce6 0a3e 9562 51bd bba3 86bc 9581 27be
000000b0: 05a3 95be aa21 b5be 6776 79bd 3532 dabe
000000c0: 8f89 ab3e 02d1 4ebe 236d d13e 114a 443c
000000d0: a4e9 013f f97e dabd 310b f6bd 70aa f33e
000000e0: 0e63 373e 3700 dd3e c872 07be 7d70 1c3d
000000f0: 3142 513e 3ccf 25be 10d5 813e 7e2e 423d
00000100: 9a00 d23d 25de 9abe e0cb 073d 8ba2 99be
00000110: 283d 9ebe 3142 65bd 6326 703e 16c8 1ebe
00000120: 4581 95be a135 943e e7c6 17be 7813 a2be
00000130: 6334 b23d 5a26 f2bd 16a9 5cbe 7429 0f3e
00000140: 2c3f 51be 5479 9b3d 596f a83d 2782 a6be
00000150: 3f43 06bf 285f bd3c 5b85 303c 7107 1e3e
00000160: 1d76 26be a866 c9be 1ffd de3e 993a 393d
00000170: d440 ac3e 5e2f 183e d9b6 8fbe 80f4 32bd
00000180: 37ef efbe 98e2 4a3e 3a23 7abf d7c8 57be
00000190: 6a1e 88be c29f 513e 6d71 483e 67fd 55be
000001a0: ac39 a63e 4e2b 16bd 388f 27be b223 7b3e
000001b0: a44c 323e 04dc ccbe 3dba 213d 7a79 07be
000001c0: a4de b23e 09bf bcbd b60d 963e c0d8 96be
000001d0: 54c2 6fbe d904 85be 16bd 733d 1004 323d
000001e0: 95bd 73be 4915 84be f061 e63d b3db 95be
000001f0: e070 1a3c 4515 4e3c f639 3fbc 302a 98bd
00000200: ac6a 833e dbd6 a03e 8a79 263f fd1e 003f
00000210: 9416 dd3e f4a5 033f 660e c6bd 1585 e63e
00000220: 5427 0a3e 1b42 37bc 9bcc 273e 4a3b 51be
00000230: c46c 90be 973a 1a3e 2be9 2abc 5497 a2be
00000240: 5d60 893e 072f 563d b229 023f 7490 943e
00000250: 86a9 f5ba 6972 8f3e c892 f7bd 4a36 c73e
00000260: 6789 77be 2b94 9cbe 1bf4 e5bd b955 a63d
00000270: 4c15 34be 16e9 44bd d1a1 4d3e 36bd a13d
00000280: 5590 48bd cca5 683e 5018 31be ffeb a5be
00000290: 8630 30be 5ef0 823e 1200 8b3e 1311 93be
000002a0: 4277 11be fa68 aebe a41a c83e c180 403e
000002b0: 98cd 7fbe 7b89 1fbe fe01 73be c9e8 99bd
000002c0: 1ae0 0e3e 3846 aebd d71d c7bd 0a65 26bc
000002d0: ea6a 3abd 5db7 9abc 0a6a c2bd 8049 efbc
000002e0: c4e1 903e 944b 2fbe a78b 433e fc14 3cbd
000002f0: 86cf bdbe 46a2 db3e 394e 22be 4ea8 19be
00000300: 3f93 dbbe 05bf d5bd ca5f e5be 5411 95bd
00000310: 4351 003e 9ce6 b53d d4d9 9abe e79c 6c3e
00000320: aa04 88be fb9a cebe 39ab 663e 3c2e 20be
00000330: 3ded f8be 9e5c aabe 925c c2be 262e a5be
00000340: fa14 813e 5764 12be 0a55 cd3d 84a9 e6be
00000350: cbd2 6f3e 9884 8a3e 1e77 583e 60ca 5dbe
00000360: 7745 26bd 4d26 f8bd 6279 9cbe 011f 4a3e
00000370: a5e2 6abe 3a60 093e 268b 5e3e 8f38 c7be
00000380: ecf3 453c cbbd 923d bdfe b43e efaa 043e
00000390: 7c87 46be 888e 10be 623a d1bd ba2d 89be
000003a0: 5fc4 ac3e 2bf5 533e 025d 5c3e 9d14 72bd
000003b0: 14dc bd3d 47bd 06be c289 b8be 215d 7abe
000003c0: c921 5fbd 5c05 7a3e 28d3 59be f9c0 f7bd
000003d0: ade3 a6be 780c d03c 125d ccbd 0ef4 c0be
000003e0: 0ec3 6f3e b30b e5bd f94f b7be 552b bfbe
000003f0: e61b 563e 45ee 0abe add2 ccbe ec09 14be
0.17147581 -0.24371128 0.11065862 -0.11267202 0.27281272 -0.3772598 -0.2416339 0.17522967
0.10799266 0.47751543 0.103745505 0.3093846 -0.35494876 0.26760876 0.012191546 -0.15250279
-0.008012907 -0.37522623 -0.18831506 -0.23015596 0.057821542 -0.05393751 -0.2297719 -0.059271235
0.008592628 -0.21024227 0.021501381 -0.28390917 -0.47732997 0.056218583 -1.0539975 -0.76840764
-0.18371293 -0.95979446 -0.10114433 -0.58014923 0.099119775 -0.12490999 -0.029364394 0.05232311
0.1356458 -0.051119406 -0.016435495 -0.16358025 -0.29225937 -0.35377246 -0.060903933 -0.4261643
0.33503386 -0.20196918 0.40903577 0.011980549 0.5074713 -0.10668749 -0.12013853 0.4759097
0.1790888 0.43164226 -0.1322738 0.038193215 0.20435406 -0.16192335 0.25357866 0.04740762
0.10254021 -0.30247608 0.033153415 -0.30006823 -0.30906034 -0.05597133 0.23452143 -0.15506014
-0.29200187 0.28947166 -0.14821969 -0.31655478 0.08701398 -0.11823721 -0.21548876 0.13980657
-0.20434254 0.07591501 0.08224363 -0.32521173 -0.5244636 0.023116663 0.010773982 0.15432526
-0.16255994 -0.39336133 0.4355249 0.0452219 0.3364321 0.14861819 -0.2806919 -0.043690205
-0.46862194 0.19813001 -0.9771 -0.21072708 -0.26585704 0.20471099 0.19574519 -0.20897447
0.32465875 -0.036662392 -0.16363227 0.24525335 0.17412049 -0.4001161 0.03948425 -0.13229933
0.34935486 -0.092161246 0.29307336 -0.29462242 -0.23413974 -0.2598026 0.0595065 0.043460906
-0.23802789 -0.2579749 0.11249149 -0.2926918 0.009426326 0.012578313 -0.011671534 -0.074299216
0.25667322 0.31413922 0.65029204 0.50047284 0.43181288 0.514251 -0.09670715 0.4502341
0.13491565 -0.011185194 0.16386645 -0.20432773 -0.28207982 0.15061413 -0.010431568 -0.3175608
0.26831332 0.052290943 0.5084487 0.2901646 -0.0018742539 0.28016976 -0.12088543 0.38908607
-0.24173509 -0.30581793 -0.112282 0.08121819 -0.17586249 -0.04807385 0.2008126 0.07897417
-0.04896577 0.22719496 -0.1729443 -0.32406613 -0.1720601 0.2557401 0.2714849 -0.28723964
-0.1420565 -0.34064466 0.39082825 0.18799116 -0.24980772 -0.15579788 -0.23731229 -0.07515103
0.13952675 -0.08509487 -0.097224884 -0.0101559255 -0.045512117 -0.018886263 -0.094928816 -0.029209852
0.28297246 -0.17118675 0.19096242 -0.04591845 -0.3707239 0.42897242 -0.15850152 -0.1500561
-0.42885777 -0.10436825 -0.44799644 -0.07278696 0.12530999 0.08881876 -0.30244315 0.23106728
-0.26566058 -0.40352616 0.22526254 -0.15642637 -0.48618498 -0.33273786 -0.3796125 -0.3226177
0.25211316 -0.14296089 0.100259855 -0.45051205 0.23420255 0.27054286 0.2113919 -0.21659231
-0.04059359 -0.1211668 -0.30561358 0.1973839 -0.2293802 0.13415614 0.21732768 -0.38910338
0.012082081 0.071651064 0.353506 0.12955831 -0.1938762 -0.14116871 -0.10216214 -0.267927
0.3374357 0.20698993 0.21519855 -0.05910169 0.09270492 -0.13158141 -0.360426 -0.24449588
-0.05447558 0.24416107 -0.21271956 -0.120973535 -0.32595578 0.02539657 -0.09978689 -0.376862
0.23414251 -0.11183872 -0.35803202 -0.37337747 0.2090908 -0.13567455 -0.40004483 -0.1445691

input_layer.bias f4 [10]
00000000: 1fad 73bd 4a3e 333d 66d8 edbd f1ce 05be
00000010: 7ca7 1abc bfac 1dbd 5a4b c03d 69a6 893d
00000020: 2bee c53d 1a46 9cb9
-0.059491273 0.043760575 -0.1161354 -0.13067223 -0.009439345 -0.03849482 0.09389372 0.06721193
0.096645676 -0.00029806868

hidden_layers.0.weight f4 [10, 10]
00000000: 88c5 073f b1f8 09be d198 723e cc90 193f
00000010: f0a4 a23e 1b40 253f 1e6e bc3e aa3e 9d3d
00000020: be90 09bf 1654 543f d9cd 03bf 5994 b63e
00000030: 5e4c 7e3f 2716 263f 61c8 fd3e 2bba 9cbe
00000040: 2cc7 e73e b2a0 bfbe b346 e63e c159 63bf
00000050: df8d e2bc 60df 103f a429 193f 9ab8 21bf
00000060: 6c87 353f 0ed6 1b3f dde3 3cbf 0b6d 863f
00000070: dadd 853f 1b27 c13e 34d2 66be fb96 5cbf
00000080: 3588 b93e 978d 273f 657e 273f 1ef7 18bf
00000090: acd7 40bf a119 5a3f c64a 22be c0c7 063f
000000a0: 5535 b9bd 10b2 173e f0e1 b3be 1636 dcbe
000000b0: 2396 0ebf 398f 573f 318b 883e 65e5 813e
000000c0: 33b6 6bbc 8284 033f 4e59 193e 8aeb b03e
000000d0: b93e afbe e9ad 88bf 2c75 06bf 5ba8 11be
000000e0: 9d7e 863e 58c5 7a3c 65b9 de3e 1f95 20bd
000000f0: bcd8 a5be 524c 0a3d 005f 10bf 3c70 7d3f
00000100: b969 15bf 19b0 af3e 5f41 03bf 9870 813e
00000110: 1274 2d3d 31f5 313f d57a f93e e8d4 e43e
00000120: 9bda 473f 0b6d 6a3f dad1 1abf 11b0 493e
00000130: 376d 64be 3c04 af3e 2393 1c3f ab85 27bf
00000140: 8118 3e3e 22ec 86be adb4 763f dfe8 663f
00000150: 4509 093f 2160 1fbf 214a fdbd 49c3 07bf
00000160: a5fd d63e 4b37 483e 3bd8 0d3f f481 05bf
00000170: fafe 25bf f1f0 05bf a1c6 43bf 5eac 483f
00000180: 8397 00bf f31e 42bf baee 653f 2e89 aa3e
0.53035784 -0.13473774 0.23691107 0.5998657 0.31766462 0.6455094 0.36802763 0.07677968
-0.53736484 0.82940805 -0.51485974 0.35660055 0.9933528 0.6487755 0.4956694 -0.30610785
0.45269144 -0.37427288 0.44975814 -0.8880883 -0.02765554 0.56590843 0.59829164 -0.63172305
0.7090976 0.60873497 -0.7378519 1.0502027 1.0458329 0.37725148 -0.22541124 -0.8616788
0.3623673 0.65450424 0.6542724 -0.5975207 -0.7532909 0.85195357 -0.15848836 0.52648544
-0.090433754 0.14814019 -0.35133314 -0.43010014 -0.5569784 0.84202915 0.26668695 0.25370327
-0.014386701 0.51374066 0.14975473 0.34554702 -0.3422754 -1.0678073 -0.5252254 -0.14224379
0.26268473 0.0153058395 0.4350082 -0.039204713 -0.32391918 0.03376419 -0.5639496 0.9899938
-0.58364445 0.3431404 -0.51271623 0.25281215 0.04234702 0.6951476 0.48726526 0.44693685
0.7806794 0.91572636 -0.6047646 0.1969607 -0.22307287 0.34182918 0.6116201 -0.65438336
0.18564035 -0.2635203 0.9636944 0.90199083 0.5352977 -0.62256056 -0.123676546 -0.53032357
0.4199039 0.19552343 0.55408067 -0.5215142 -0.6484219 -0.5232077 -0.7647496 0.7838801
-0.5023119 -0.75828475 0.8981739 0.33307785

hidden_layers.0.bias f4 [10]
00000000: 3507 b53c 6092 babd 6759 14be f029 93bd
00000010: 386f 07b9 8cde 603e 9422 e7bd 39b1 20be
00000020: fee1 28be 939e 24bd
0.022098163 -0.0910995 -0.1448723 -0.07185733 -0.00012916035 0.21959895 -0.11285892 -0.15692605
-0.16492459 -0.04019029

hidden_layers.1.weight f4 [10, 10]
00000000: e2dd fa3e 712b 90bc cb03 3cbf 0019 2dbe
00000010: f181 e23e 6bbd 143d 5efd 1a3f cd65 4abf
00000020: e7f4 faba f8bc 3b3f 2286 983e 1b54 b2be
00000030: 5011 263f bee4 72be 2995 b33e cfad 4ebe
00000040: 12ff 99bd bb80 09bf 7a76 913e 36dc bb3e
00000050: dc0e 1c3f 7402 373f 77da 32bf 87df 143f
00000060: 0860 4abf 4a84 64bf d294 613f edeb 20be
00000070: ce2f 553f a46e dbbe aad8 f7be aec2 89be
00000080: 5802 333f 142a ef3e 9295 373f 41d4 67be
00000090: 18cf c9be 5ad2 55bf 628e 18bf 1ab7 9e3e
000000a0: 3ce1 a53e 030f 5a3f 51e9 f83e d13a 3bbf
000000b0: 0d06 923e 1d15 f9bd 9ac6 20bf 90f8 7f3c
000000c0: 76a9 233f 83ba 65bf 6a73 f83d 2492 11be
000000d0: 217f 18bf 9967 1a3d a514 08be d04a 143f
000000e0: cee3 2cbf e0e8 8e3e 27d3 3dbf 67df dc3e
000000f0: 2d41 793d 5156 043f 50cf 79bf 65fc 3b3f
00000100: a407 393f f986 5dbf 31e4 ae3e 949a b0be
00000110: 44cb dfbe a22c 3bbe ab24 30bf 0129 043e
00000120: d0ff 3d3f c7c5 56bf 8195 133f 175e 5a3e
00000130: ea86 d53e 8e2c c5be 2cbc e43b f453 6a3d
00000140: 89ea 43bf 395c 563f d796 7d3e 5f31 dd3e
00000150: f7f3 17bf 5555 253e 258d 63bf 8f26 c0be
00000160: 8caf 13be ecdd 1e3f bb4a d73e f9c9 15bf
00000170: f54b 2cbe 9300 7b3e 6fe4 c6bd 0fbf 943e
00000180: 8c3f 343f 340a 1e3f a409 9d3e 103f 3d3f
0.48997408 -0.01759884 -0.7344329 -0.16904068 0.44239762 0.036313456 0.6054286 -0.79061586
-0.0019146473 0.7333522 0.29789835 -0.34829792 0.64870167 -0.2372007 0.35074738 -0.2018349
-0.07519354 -0.5371205 0.28410703 0.36691445 0.60960174 0.7148812 -0.698646 0.58153576
-0.7905278 -0.8926436 0.88117707 -0.15714999 0.8327607 -0.4285785 -0.4840749 -0.2690634
0.6992545 0.4671179 0.717126 -0.22639562 -0.39415812 -0.83524096 -0.5959226 0.3099907
0.32398403 0.85179156 0.48615506 -0.7313662 0.2852024 -0.1216223 -0.6280304 0.015623227
0.6393045 -0.8973772 0.121313885 -0.14215904 -0.59568983 0.037696455 -0.13289125 0.57926655
-0.675351 0.27912045 -0.7415032 0.43139192 0.060853172 0.5169421 -0.9758196 0.73432
0.72277284 -0.86534077 0.3415847 -0.34492934 -0.43709767 -0.18278745 -0.6880595 0.12906267
0.74218464 -0.83895534 0.5765 0.21324955 0.41704494 -0.38510555 0.0069804396 0.05720897
-0.7652975 0.8373447 0.24764572 0.4320173 -0.59356636 0.16145833 -0.88887244 -0.37529418
-0.14422435 0.62057376 0.42049202 -0.5851131 -0.1682585 0.24511938 -0.09711539 0.29052016
0.70409465 0.6173432 0.30671418 0.7392435

hidden_layers.1.bias f4 [10]
00000000: c391 b4bd 25c3 183d a0c6 fe3b 9db0 623d
00000010: b6f3 8c3c ff60 a03d ea52 f5bd 1b80 f33a
00000020: 66f9 4c3d 2966 af3d
-0.08816864 0.03729548 0.007775143 0.055344213 0.017206054 0.078310005 -0.11978705 0.0018577607
0.050042532 0.085644074

hidden_layers.2.weight f4 [10, 10]
00000000: 7cf6 573f 3d6f 0abf 29f0 1abf 164a e73e
00000010: 5cbe 273f 497d 663d 56bf 1e3f 6f03 f33d
00000020: 747f 6e3d 82d8 2b3f 5c17 33bf b401 3c3f
00000030: d541 24be 66b1 09bf dbcd 6a3f 30c7 e93c
00000040: ea20 0b3f c06d a6bd fc44 8fbe fdee 6abc
00000050: 15a4 1abf 0450 5fbf e453 2e3f 5689 3dbf
00000060: 4737 f73e f14e 2d3f fa98 533f e55e 13bf
00000070: 3555 083f 13fc 2b3e 2824 4cbf 1742 c93d
00000080: f6ee f9be dd20 aabd 8242 763f 226d 14bf
00000090: 5e20 f4be 3552 3e3f ff2c 3f3c 5530 323d
000000a0: c902 85be e174 dc3d 2504 223f 0bdc 1c3f
000000b0: 40fa 0ebe 59d3 5abe 66b7 16bf 805d 8d3e
000000c0: c09b 87be c676 f93d e51c f23c 3132 cf3e
000000d0: 78a7 9a3e f109 5b3e 1b40 2d3f 0a5a 3cbf
000000e0: 2dd2 3cbf 695d 92bf fe51 11be f9f3 1dbd
000000f0: 285a cb3e ddba 553f 37ca 4bbf a2a4 503f
00000100: 2db5 4cbf 4306 dcbe e28a 2abe d014 13bf
00000110: d304 9d3e 0870 12bf 328d 17bf b0a9 8ebd
00000120: ecc3 a63e ad5e 523f 0a09 8d3e a3a8 2e3f
00000130: 57b5 313f eb05 913e 688d 0c3e c84e fd3d
00000140: e2fa dcbd a08c 083f 3f2f 15bf 4664 5e3f
00000150: 347e d2bd c5cb 1b3f 9a4a 44bf b744 353e
00000160: b94a 0d3f a113 f83e 41d9 4cbf a0bb 9dbe
00000170: 267d 51bf 402d 343f 37ef 453f e891 033e
00000180: 27fb e5bd 523f 903e 3548 37be dffa b7be
0.8436048 -0.54075986 -0.60522705 0.4517371 0.6552484 0.056271825 0.62010705 0.11865889
0.058227018 0.6712724 -0.6995752 0.734401 -0.16040738 -0.53786314 0.9172036 0.028537363
0.543471 -0.08126402 -0.27982318 -0.014339206 -0.6040662 -0.8723147 0.68096757 -0.74037683
0.4828436 0.6769858 0.826553 -0.5756667 0.53255016 0.16795377 -0.7974267 0.09827059
-0.48815125 -0.083070494 0.9619523 -0.57979023 -0.47680944 0.7434419 0.011668443 0.043503124
-0.25978687 0.107644804 0.63287574 0.6127326 -0.1396265 -0.21369685 -0.58873594 0.27610397
-0.26486015 0.12180857 0.029554794 0.4046798 0.30205894 0.21390511 0.6767594 -0.7357489
-0.737582 -1.1434757 -0.14191434 -0.03856275 0.3971722 0.83488256 -0.7960543 0.8150121
-0.7996395 -0.42973527 -0.16654542 -0.5745363 0.30667743 -0.57202196 -0.5919982 -0.06965959
0.32571352 0.82175714 0.2754596 0.6822607 0.6941733 0.28324828 0.13725817 0.12368542
-0.107900396 0.53339577 -0.58275217 0.86871755 -0.102779776 0.608578 -0.7667633 0.17701994
0.5519214 0.48452476 -0.80019003 -0.3080721 -0.81831586 0.70381546 0.7731814 0.12848628
-0.11229544 0.2817331 -0.17898639 -0.35933587

hidden_layers.2.bias f4 [10]
00000000: 2314 86bd a298 c7bb da6b c838 8888 083d
00000010: 11f6 c33c 1e6d 9cbe 556d 343a a0c6 823a
00000020: 2fa6 4a3e 0c64 8b3a
-0.065468095 -0.0060911933 9.556832e-05 0.03333333 0.023921045 -0.30552 0.0006882747 0.0009977408
0.19789957 0.0010634675

hidden_layers.3.weight f4 [10, 10]
00000000: 5073 0bbe 7506 4bbf d51c 463f b30e 06be
00000010: 8d69 b63e 52fd 283f fbfd 113e 0aca f33e
00000020: 3fdf 653e 5782 4ebe 605c 0abf 3814 e5be
00000030: cf70 6c3e 8a9d de3e 3cb1 36bf a1cf 93be
00000040: 5f00 023f 3f0f 993e bb22 5abf 8673 f4be
00000050: 20fa e4be 2320 b4bd efc2 70bf eb76 87be
00000060: 1c6c cc3d 601f e9be 9cb1 b13e fedb e0be
00000070: 8005 873f 4349 383f 3271 8bbd 5a22 073f
00000080: 510d 4b3f 45c2 8fbe fc0f c23e a6ea adbe
00000090: db59 1e3f c078 4fbf da62 10bf ab88 04bf
000000a0: 746b d7bd f7f3 68be aab8 6a3f dd8c 1f3f
000000b0: 9773 04bf 7145 5b3f 7525 6fbf 7cbb 64bf
000000c0: 3212 10bf e34e 5d3f 4e09 d8be 28e5 e8be
000000d0: c284 4b3f 0cc9 0bbf fe1a 92be 4554 8ebe
000000e0: 5257 a93e 0951 0dbf 1720 82bf 4836 203f
000000f0: 5e31 95be 2d40 663f bea9 5fbf 71a7 5b3f
00000100: 812e 1cbd 9c2a 8ebe dd4b 54bf 5539 04bd
00000110: 19d6 b53d cdf4 29bf 8786 27bf be57 b33c
00000120: 4cb1 f3bc 947b 5a3f 5a1e f63e 09bb 713e
00000130: e500 803e 83a9 e6be 42d4 92be ce12 043f
00000140: 0689 cebe da20 2c3f 4df1 1dbf d81e 7fbe
00000150: 391e bb3c af4a 253f ad39 a7be 329a 90bc
00000160: f602 09bf c57a 13be 16d6 0f3d 937f 68bd
00000170: 4087 5cbf 5303 00be f5a2 983e 389a ab3e
00000180: 61be db3d ef79 433f bd55 583f de2c 47bd
-0.13618207 -0.7930673 0.77387744 -0.13091545 0.35627404 0.66011536 0.14257042 0.4761508
0.22448443 -0.20166908 -0.54047203 -0.44741988 0.23089908 0.43479568 -0.7136419 -0.28869346
0.50781816 0.29894444 -0.85209244 -0.47744387 -0.4472208 -0.08795192 -0.94047445 -0.26457915
0.09981558 -0.4553175 0.34705818 -0.4391784 1.0548553 0.7198679 -0.068087 0.5278679
0.79317194 -0.28077903 0.3790282 -0.33968085 0.6185586 -0.81043625 -0.56400836 -0.5177104
-0.10518542 -0.22749315 0.91688025 0.62324315 -0.51738876 0.85652834 -0.9341653 -0.8934858
-0.56277764 0.86448497 -0.421946 -0.45487332 0.7949945 -0.5460365 -0.28536218 -0.27798668
0.33074433 -0.55201775 -1.0166043 0.62582827 -0.29139227 0.89941674 -0.8736838 0.8580237
-0.038130287 -0.27766883 -0.8292826 -0.03228124 0.088787265 -0.6638916 -0.6543965 0.021892425
-0.029747628 0.85344815 0.4807003 0.23606504 0.25000682 -0.45051202 -0.28677565 0.51591194
-0.40338916 0.6723763 -0.6169632 -0.2491411 0.02284156 0.64567083 -0.3266119 -0.017651651
-0.53520143 -0.14402302 0.035116278 -0.05676229 -0.86143875 -0.12501268 0.29811826 0.33516097
0.10729671 0.7635793 0.84505826 -0.048626773

hidden_layers.3.bias f4 [10]
00000000: 1437 05be 882c 1e3c 542b 0a3e d9dd aabc
00000010: 445a 5abd f316 10be 689a fc3b c1a3 03bc
00000020: f51d aa3d 84ab 963d
-0.13009292 0.009654172 0.13493091 -0.020857738 -0.05330874 -0.14071254 0.0077088363 -0.008034647
0.08306495 0.07356933

hidden_layers.4.weight f4 [10, 10]
00000000: 1ca4 29bf 87ed b3be 53d5 813f 48f5 0fbf
00000010: d714 10bd 122a 723e f189 393f 3e20 eabe
00000020: c940 84bf 727b 1e3f 8009 96be 6de5 a0bc
00000030: 6f11 3abf 16a5 1e3e 6492 6f3f 77d4 a43e
00000040: 42d4 aebe 20b9 573f e60f ba3e 3599 b03d
00000050: a5ad f23e e1d8 2fbf dd16 d4be 18db cabd
00000060: d0eb 613e 46ff 05be 8ca2 1f3f 5b75 28bf
00000070: 9ff1 d83e 3f05 dcbe fcea 393f 62d9 b03e
00000080: 990b 923e b4c1 8cbe adb5 a83e eb78 68be
00000090: c169 a8be 2c18 593e 3214 56bf 0a94 183e
000000a0: 6da8 4f3b c528 10bf df8e 10bf 16b6 5c3f
000000b0: e7de 1f3e 1fb8 dabe efc7 c63d 1592 6c3f
000000c0: c58e 16bf b76a 50bf aba5 0a3f fb6a 03bf
000000d0: 317c 453e ce69 89bd 5457 443f 87b5 2c3f
000000e0: f791 1a3f cf1c 063f 318c e83e c9e2 2ebf
000000f0: ef96 543e 7390 463e 2700 e8be 39b9 22bf
00000100: 5bd9 d3be 9b71 2e3f 463d 00bf 92ea 863e
00000110: bf1b 2c3f e140 383f c405 3dbf 5036 6b3e
00000120: ac6d 76be b08e d33e 75af 79be c975 8ebd
00000130: b670 063f 69b8 263f 709e 863e ba1c 05bf
00000140: 8757 c9bd 3bba 023f 8332 06bf 0c91 a9be
00000150: f411 4b3f 78a6 92be 3fe7 3a3e 835e b0be
00000160: 0c83 3ebd 3feb 0fbf dc7d 2a3f 6382 2fbf
00000170: f7e2 233f 0cef 4bbf 4122 2f3f 49b4 79be
00000180: b833 e3be bebd 59bf 2c85 0ebd 09b1 92be
-0.66266036 -0.35142156 1.0143226 -0.56233644 -0.035176124 0.23648861 0.72476107 -0.45727724
-1.0332271 0.6190711 -0.29304123 -0.019640649 -0.7268285 0.15492663 0.9358275 0.32193348
-0.34146315 0.84266853 0.36340255 0.08622972 0.47398105 -0.68690306 -0.41423693 -0.0990507
0.22062612 -0.1308566 0.623574 -0.6580407 0.42371842 -0.42972752 0.7262418 0.3454085
0.28524473 -0.27491534 0.32951108 -0.22702377 -0.32893184 0.21200627 -0.83624566 0.14900222
0.0031686083 -0.5631221 -0.56468004 0.8621534 0.15612374 -0.42718598 0.09706103 0.92410403
-0.588116 -0.81412834 0.5415904 -0.51335114 0.19285657 -0.06709634 0.7669575 0.6746449
0.60378975 0.5238771 0.45419458 -0.68314797 0.20760702 0.1939104 -0.45312616 -0.6356388
-0.41376767 0.681421 -0.50093496 0.26350838 0.6722984 0.71974 -0.7383692 0.22969937
-0.24065274 0.413198 -0.24383338 -0.069560595 0.52515733 0.6512514 0.26292753 -0.5199696
-0.09831148 0.51065415 -0.52420825 -0.33118474 0.7932427 -0.2864263 0.18252276 -0.34447107
-0.046511695 -0.5621833 0.66598296 -0.6855833 0.64018196 -0.7966163 0.6841164 -0.2438518
-0.44375396 -0.8505515 -0.03479497 -0.28650692

hidden_layers.4.bias f4 [10]
00000000: 5f76 1c3e 9f81 07be 94d3 85bd 8a50 86bd
00000010: 2669 8fbd dfd0 43be 4072 c63d da13 b13d
00000020: bdc4 dfbc 741e d53d
0.1527953 -0.1323304 -0.06534496 -0.0655833 -0.07002477 -0.19122647 0.0968976 0.086463645
-0.027315492 0.10406199

hidden_layers.5.weight f4 [10, 10]
00000000: 5d0e 1e3f 0565 e33d 4aba 49bf 1d7c 29bf
00000010: 5bf7 ae3e 1360 3d3f 5c8a 4d3c 0199 353f
00000020: 0d8f 87be 66c0 40bf 3209 1dbe 775f 2cbf
00000030: e3ce 7ebf c225 ec3e 8dc2 c33e 6074 aa3e
00000040: 8d2e db3e 5271 823c 0954 06be de37 18bd
00000050: 4208 153f f5dc 1abf 71ed 743f fa24 903e
00000060: 2166 5dbe fd81 a6bb 378f 753e cb2a f83e
00000070: a345 fe3e b39b 41bf 37c2 273f c0f1 2ebf
00000080: beb4 9dbe d2c9 26bf cbec 37bf 6769 11bf
00000090: fecc 4e3f d03e 3abf e06d 31be 62d1 dcbe
000000a0: c337 7cbf 3173 59bf 671b e2be b401 833d
000000b0: 1c39 163f 7f20 dd3e 3a1d 84bd ffbb dabc
000000c0: a68e 163f c517 213e 7b2d e7be ddd8 98bd
000000d0: 5d4b 0b3f 1441 75bf 10c2 683f a969 973e
000000e0: 4927 f9bc faf7 7fbe 0856 e53e 1743 ce3e
000000f0: 23f2 d0bd 9f07 48bf 57f9 4f3f fbbd e03e
00000100: 1622 0ebf 6c1f d2be 22c6 863e 1466 623f
00000110: 4ab9 fdbc 7d6f 0b3f 4532 313f c3b2 37be
00000120: fe68 24be 63aa 743d 36b5 08bf 4dc8 c73e
00000130: b814 533f 2505 333f f149 f9bc 7447 373e
00000140: 0770 583f 4217 0d3f 8568 c23e 560b 243f
00000150: dde8 fc3e 9840 0b3f 6661 76bf 0d44 4fbf
00000160: 1357 2abf c058 4a3e 87bf c9be a68c d73e
00000170: 475d 0c3e e93e 91be d5a5 193f 954a c43d
00000180: f272 6bbc 7724 b23c c494 a3be 2700 a13d
0.61740667 0.11103252 -0.7879988 -0.66205007 0.34173092 0.7397472 0.0125451945 0.7093659
-0.26476327 -0.75293577 -0.15335539 -0.6733317 -0.99534434 0.46122557 0.38234368 0.33291912
0.42808953 0.015923176 -0.13117994 -0.037162654 0.58215725 -0.60493404 0.95674807 0.2815321
-0.2162099 -0.005081414 0.23980413 0.48470148 0.49662504 -0.75628203 0.65530723 -0.6833763
-0.30801958 -0.65151703 -0.7184569 -0.56801456 0.80781543 -0.72752094 -0.1732707 -0.43128496
-0.98522586 -0.84941393 -0.4416153 0.06396809 0.5868089 0.43188855 -0.06450887 -0.026700972
0.58811414 0.15731724 -0.45151886 -0.074632384 0.5441187 -0.95802426 0.90921116 0.295728
-0.03041424 -0.2499694 0.447922 0.4028556 -0.10202434 -0.7813663 0.8123984 0.43894944
-0.5552076 -0.41039598 0.26323038 0.8843701 -0.030972142 0.5446699 0.6921733 -0.17939286
-0.16055676 0.059732806 -0.53401506 0.39020005 0.8245349 0.69929725 -0.030430766 0.17898351
0.8454594 0.55113614 0.37970367 0.640798 0.4939641 0.5439544 -0.9624237 -0.8096321
-0.66539115 0.19760418 -0.39403936 0.42099494 0.13707457 -0.2836831 0.60018665 0.09584538
-0.014370667 0.021745903 -0.31949437 0.07861357

hidden_layers.5.bias f4 [10]
00000000: 6149 0e3d a3f9 2f3e 129b babd fcbf 813d
00000010: 71c6 ce3d 16b2 01be 0504 403c 86dd f13d
00000020: 465f 8dbd c1b9 b2bd
0.03473795 0.17185073 -0.091116086 0.06335446 0.100964434 -0.1266559 0.011719708 0.1180983
-0.069029376 -0.08726836

hidden_layers.6.weight f4 [10, 10]
00000000: 824e 0ebf c7cf 57bf 5798 4bbe 6f48 08be
00000010: 9481 25bf bfdc 573f 8228 e6be 1d97 9b3e
00000020: 6d8b 56be d22f 353f 44f2 32bf 6274 6cbf
00000030: 5781 033f efa4 e6be 0137 203f 3e68 47bd
00000040: a6fb 56bd 6945 27bf 5977 d93e 6e97 5d3c
00000050: da41 3c3e 1d0e ebbe 83e6 453e 1ad8 38bf
00000060: cfb7 c13e 9154 51bd 685c ea3d 11af 6b3f
00000070: 2605 23bf 0fb5 7d3e d799 273f b833 babe
00000080: 299a db3e f748 03bf 5232 be3c db49 93be
00000090: 1766 6bbd 5a0a 48bf ef6e 513f 2f49 203f
000000a0: 45db 743f 741c f0be 637d f9be d573 b2be
000000b0: ef80 613e 6c3d a73c f1ea 473e 578b 09be
000000c0: 3179 323f 1734 aebe d506 713f 2bb2 8cbd
000000d0: 5007 a83e c6ed 1e3f f69d ad3c cc44 df3e
000000e0: 8676 573d 53ac 78bc 17cf 583f 4b51 243f
000000f0: 42d6 99be 8534 f13e 2a74 b0bd 1530 febe
00000100: bf53 61bf 7311 94bd 06e7 233f 346a 5bbf
00000110: 1dd9 aa3e 4b09 9d3e 0e4a d53e 5cd7 c9bc
00000120: 8cda 08bf fea8 0abf 0d71 a8be b0b6 e53e
00000130: 5403 23be 381d 1bbf 7d18 153f d191 e13e
00000140: 39fb 3bbf 1d14 4a3d eb58 4a3f 3c5f 4bbf
00000150: 8f2e f9be 16c2 0f3f 0f17 bd3e 5c40 283f
00000160: 86f1 f13d e692 28bf e22a 9ebd e18a 013e
00000170: 9ad3 953d 4d56 bc3e 208c 4d3f 2d9d 3f3e
00000180: b1bb 3f3f 5c9f a8bd 09f4 e63e 1c7d 453e
-0.55588543 -0.8430142 -0.19882332 -0.13308881 -0.64650846 0.84321207 -0.4495278 0.30388728
-0.20951624 0.70776093 -0.6990092 -0.92365086 0.5136923 -0.4504771 0.6258393 -0.048683397
-0.052486084 -0.65340286 0.42473868 0.013524873 0.18384495 -0.45909205 0.19326214 -0.72204745
0.37835547 -0.05110604 0.11443406 0.92064005 -0.6367973 0.247761 0.65469116 -0.36367583
0.42891052 -0.5128321 0.023217354 -0.28767285 -0.057470407 -0.78140795 0.81809896 0.6261167
0.9564708 -0.46896708 -0.48728475 -0.34853998 0.2202184 0.02041503 0.19523217 -0.1343206
0.69716173 -0.34024116 0.9415105 -0.0686992 0.3281808 0.62081563 0.021193486 0.43607175
0.052603267 -0.015177804 0.84690994 0.64186543 -0.30046278 0.47110382 -0.086159065 -0.4964606
-0.8801841 -0.07229891 0.6402439 -0.8570893 0.3336877 0.30671152 0.41658062 -0.024638824
-0.53458476 -0.5416411 -0.3289875 0.44865942 -0.15919238 -0.6059146 0.5824049 0.44056562
-0.7343021 0.049335588 0.7904193 -0.7944219 -0.48668334 0.56155527 0.36931655 0.65723205
0.11813645 -0.6584915 -0.07723023 0.12650634 0.073157504 0.36784592 0.8029194 0.18712302
0.7489577 -0.082335204 0.4510806 0.19286007

hidden_layers.6.bias f4 [10]
00000000: 842b a4bd 8ba2 22be 71e9 5f3c 139b 8ebd
00000010: 63b1 56bd f7f6 073d 5bb3 0dbc 3a28 19bd
00000020: 2679 36bd 29a7 2ebe
-0.080161124 -0.15882318 0.013666497 -0.06963172 -0.052415263 0.03319451 -0.008648719 -0.03739188
-0.04454913 -0.17055954

hidden_layers.7.weight f4 [10, 10]
00000000: 2103 04be d994 1cbd e3bb 4bbe b948 5fbf
00000010: cfe6 45bf ad7c 57bf 6fd1 4a3f 3896 80be
00000020: 620b 463f 9a6c 43bf 7992 72be 9a6f 83bf
00000030: e65c a13d 3eff 57bf 4aa7 1dbe d50e fdbe
00000040: 5dc8 2abd 3585 403f 9682 8c3e 448b 32bf
00000050: 45d6 953e 966c b2be 7983 a0be 3843 143f
00000060: e7a6 3fbe 9217 eabe edbc f9be cfc7 e0be
00000070: efea 303f d770 5abf b210 fcbd 4690 ad3d
00000080: 98e6 e93e f764 6b3f cd7e 3cbf 1e7b 0cbf
00000090: 1498 a4be cfc5 0bbf a051 8cbd c918 463f
000000a0: 8202 54be 87bc 42bf 3dd6 7fbf b928 a13e
000000b0: b4bf c6be f1f9 91be 4d0e 903e fc40 403e
000000c0: 2266 8a3e cf1e 42be ab14 f7be 42c0 803e
000000d0: 6fe0 e93e 04ca 403f daaa 713e 5bcc 3b3f
000000e0: eb49 b9be 9104 5b3f c8ac 54be bec1 da3e
000000f0: 6c7f 5b3f 5697 f23e ddf5 603e c621 9fbe
00000100: 4190 623f 71a3 f73e d941 8cbe ad47 773e
00000110: 7074 ed3e f80b 32be abbd 62be d594 493f
00000120: d10c 603f 8abb e23d cdf8 d1be ac60 10bf
00000130: 777c 8bbe c6fc 96be 8d58 2fbf d2c5 c33d
00000140: 5f71 b13e 9530 053f 9e1c 87be a0f7 583f
00000150: 302d 8b3f 7005 843f a72b 9b3e e4c7 6abd
00000160: 9d27 94bf f1d8 103f 8a6f 433f 4ee7 b73e
00000170: dbc0 2e3f 341b 7a3e 2dd2 2a3f 6a14 81be
00000180: 00ce bcbd de37 14be 295d 973e 967a d3bc
-0.12891819 -0.03822789 -0.19895892 -0.8722034 -0.7730531 -0.84174615 0.7922582 -0.25114608
0.7736112 -0.7633759 -0.23688687 -1.0268433 0.07879047 -0.84373844 -0.15395847 -0.49425378
-0.041694988 0.7520326 0.2744338 -0.6974375 0.29265037 -0.3484847 -0.31350306 0.5791507
-0.18716012 -0.45721108 -0.4877695 -0.43902442 0.6910848 -0.8532843 -0.12307872 0.084747836
0.45683742 0.91950935 -0.7363098 -0.5487536 -0.32147276 -0.54598707 -0.06851506 0.7738157
-0.20704082 -0.7606892 -0.99936277 0.3147638 -0.38818133 -0.28511003 0.2813591 0.1877479
0.27031046 -0.18957065 -0.48257956 0.2514668 0.45679042 0.7530825 0.23600331 0.73358697
-0.36189207 0.8555384 -0.20769036 0.4272594 0.85741305 0.47381085 0.2196879 -0.31080455
0.88501364 0.48366883 -0.27393988 0.24148436 0.46377897 -0.17387378 -0.22142665 0.78742725
0.87519556 0.110709265 -0.41010132 -0.5639751 -0.27243397 -0.29489726 -0.6849449 0.095592156
0.34656808 0.52027255 -0.2638902 0.84752846 1.0873165 1.0314159 0.30306742 -0.057319537
-1.1574589 0.56581026 0.7634207 0.3591866 0.68263024 0.2442444 0.6672695 -0.25210887
-0.09218979 -0.14474437 0.29563263 -0.02581529

hidden_layers.7.bias f4 [10]
00000000: a6fd 93bc 90b4 bdbd 2d88 afbe 2f8d dabd
00000010: 8ade 573e ef96 433b 161a e13c 6821 7e3c
00000020: 7508 adbe f868 55be
-0.018065285 -0.09262955 -0.3428358 -0.1067146 0.21080986 0.0029844602 0.027478259 0.015510894
-0.33795515 -0.20840824

output_layer.weight f4 [2, 10]
00000000: b41e 9f3e a961 6fbf 9916 04be d19b 09bf
00000010: 66a6 a63e 712b e93e 9db5 8dbc b94d 1f3d
00000020: 7aba 1fbf a1f3 08bf ba26 87be 5eaa 483f
00000030: 4271 6bbf 3097 443f e4a7 17bf 227e ddbe
00000040: 237a febe c028 0dbf 5521 11bf 4dd1 4c3f
0.31078112 -0.9350839 -0.12899245 -0.5375338 0.32548827 0.45540956 -0.017298514 0.03889248
-0.62393916 -0.5349675 -0.26396734 0.7838496 -0.9196969 0.76793194 -0.59240556 -0.43260294
-0.49702558 -0.55140305 -0.56691486 0.8000687

output_layer.bias f4 [2]
00000000: bfbc a03e fc4e 383e
0.31394002 0.1799888
