Task3/models/model_cluster-11_06_2022-18_19_10.pth (torch, 4943 bytes, 8 tensors)

input_layer.weight f4 [5, 100]
000000 9d be a4 be fa c5 fa 3d 77 ee a4 3e 92 f2 a7 be
       -0.32176676 0.12244792 0.32213184 -0.32802254
000010 77 1e a1 3e ad 4d 8c be 31 03 ac be 72 3d 97 be
       0.31468555 -0.27403012 -0.33596185 -0.29539067
000020 cc af 34 bd 2c d3 81 3e 78 15 ea bd 0e 55 98 be
       -0.044112965 0.25356424 -0.11429876 -0.29752392
000030 f3 f2 ff bd 9f fa 67 3b fd 1e c8 3d a7 74 2b be
       -0.12497511 0.0035397185 0.097715355 -0.16743718
000040 6a e0 ad bd 39 8d ce bd eb 47 c7 bd 40 d9 76 3e
       -0.08490069 -0.1008553 -0.09730514 0.24106312
000050 31 3d 99 3e de 77 75 be 29 24 52 be 4c 26 d0 3b
       0.29929498 -0.23971507 -0.20521607 0.0063522216
000060 b9 ab 9a be bf 36 f2 bd f2 71 ac be 0b b6 f4 3c
       -0.3020914 -0.11826848 -0.33680683 0.029871961
000070 01 42 80 be d8 5d a7 be de 4e df bd b9 ce 5d be
       -0.25050357 -0.32688785 -0.109037146 -0.2166089
000080 0d ed 24 be 7c 85 35 be b2 33 12 bd 39 61 86 be
       -0.16106053 -0.17726701 -0.03569383 -0.2624605
000090 bf 1c 94 3e 1e d3 6c be ee 61 4a be b5 75 2f be
       0.28928182 -0.2312741 -0.1976392 -0.17134745
0000a0 ac bf 94 3e ee 98 a5 3e 9d d7 91 be 31 a3 d0 3d
       0.29052484 0.3234324 -0.28484812 0.10187376
0000b0 7a 8c aa 3e a4 7c c5 3d a3 11 83 3d 92 5a 99 3e
       0.333103 0.09642914 0.06399848 0.29951912
0000c0 13 d6 34 be f1 aa 6f bd 84 44 87 3e 03 47 9d be
       -0.17659788 -0.05851263 0.2641946 -0.3071824
0000d0 b4 26 9e be 31 4c dc 3d 57 00 36 be a3 36 1c 3e
       -0.30888903 0.1075672 -0.17773567 0.15255217
0000e0 ed 1a 74 3e 15 45 2a 3d 3e ae 8f be 76 89 c7 3b
       0.23838396 0.041569788 -0.28062624 0.0060893847
0000f0 5d 50 9d 3e 2e 4b 75 be 1c ca 88 3e ab ac 75 3e
       0.30725375 -0.2395446 0.26716697 0.23991649
000100 ab 9a 9e 3d 7f 05 91 3e 09 d4 8f be e3 2f 70 be
       0.07744344 0.28324506 -0.28091457 -0.23455767
000110 fc 4d 46 3e 2a 26 ac bd cb 30 3b be f8 60 7b 3e
       0.19365686 -0.08405717 -0.18280332 0.2454871
000120 91 b1 6c 3e 8d 91 b0 bd 68 e8 20 3e f4 22 f0 3d
       0.23114611 -0.086215116 0.15713656 0.11725417
000130 d6 a4 9c 3e b8 ba ea 3d 0b 70 0e 3e c4 10 68 3d
       0.3059451 0.11461395 0.13909929 0.056656614
000140 ff 5d 22 bd c0 e8 f5 bd ff b9 e4 3d 67 48 a5 3e
       -0.039640423 -0.12007284 0.111682884 0.322818
000150 e7 cc ed bd dc 62 02 bd 75 ae 7f be 0f f0 8b 3b
       -0.11611348 -0.03183256 -0.24968894 0.0042705606
000160 24 f9 1c 3d cc 13 11 3c 1e 7d a0 3e db 8b 91 3e
       0.038323537 0.008854818 0.31345457 0.28427014
000170 d1 48 96 3e f0 7e 83 be 78 55 cc bd 80 e9 ac bd
       0.2935243 -0.25682783 -0.09977239 -0.08442974
000180 4f bf 97 be e3 40 3d bd fd e9 7b 3e 1a 33 a5 3e
       -0.29638144 -0.04620446 0.24600978 0.3226555
000190 48 01 91 3e 36 d8 9c 3d f9 ef 93 3e b9 ea 6c 3e
       0.2832129 0.076584265 0.28894022 0.23136415
0001a0 a9 8f 3d 3d 33 0b a1 3e d6 44 c5 3d 59 ab 17 be
       0.046279583 0.31453857 0.0963227 -0.14811458
0001b0 bd 75 38 3e b0 15 c1 3d 66 fa 95 3e 46 4d 59 be
       0.18013664 0.09427965 0.292926 -0.21220884
0001c0 41 c5 20 be 5c f2 67 3b 11 62 ad be ef 8d 59 3e
       -0.15700246 0.003539226 -0.3386388 0.2124555
0001d0 3d 84 5e 3c 09 ea a0 bd 9c d3 6b be de 49 5b 3e
       0.013581333 -0.07857139 -0.23029941 0.21414897
0001e0 3e 88 98 3e 67 b2 8e 3e 90 c0 01 be 0a 5c b5 3c
       0.29791445 0.27870485 -0.12671113 0.022138614
0001f0 03 e7 8b be 90 59 8d 3e ef f5 c5 3d 9c 16 21 be
       -0.27324685 0.27607393 0.09666049 -0.15731281
000200 d4 ac 23 bd 71 eb 23 be 11 c7 4e 3e 50 fa 7c be
       -0.039959744 -0.16007783 0.20193125 -0.24704862
000210 14 32 bc bd 40 48 15 bc 5c 5f 74 be 8b 35 1e 3e
       -0.09189239 -0.009111464 -0.23864502 0.15450113
000220 83 6f 24 bd 8a f2 f2 bd b6 26 31 be dd 7e ac be
       -0.04014541 -0.11862667 -0.17299923 -0.3369054
000230 6c aa 3c be ac ae 5b 3e 5b 93 b7 bd 6a 72 f2 3d
       -0.18424386 0.21453351 -0.08963653 0.11838229
000240 7e 56 8d be 71 51 13 be 1b 1f 1a 3c f1 44 08 bd
       -0.2760505 -0.14386536 0.00940683 -0.033268873
000250 07 2d 04 be d2 e6 1a bd f3 ea 9f 3e 25 23 e5 bc
       -0.12907802 -0.037817784 0.3123394 -0.02797086
000260 81 06 27 be 03 08 90 3d fe 9d 48 bd bf f4 98 be
       -0.16311075 0.07032778 -0.048978798 -0.29874226
000270 46 fb 73 bd c8 b2 ef 3d 4c 94 73 3e 62 5b 8a 3d
       -0.059565805 0.11704022 0.2378704 0.06755711
000280 c6 9f 8c be de 58 e3 3d 48 04 7a 3e 59 12 80 bc
       -0.27465647 0.111009344 0.24415696 -0.015633749
000290 45 03 90 be b3 ed 84 3e 92 a6 55 3e 3d ea 68 be
       -0.28127494 0.259626 0.20864323 -0.22745605
0002a0 c1 ff 43 be f7 12 9b 3e a4 f2 8d bd 99 ad b5 be
       -0.19140531 0.30287907 -0.06931046 -0.35484007
0002b0 06 24 00 3c 10 02 83 bd dc 9a ac be 56 a0 94 3d
       0.007821089 -0.06396878 -0.33711898 0.07257144
0002c0 27 76 87 be 3a a9 e2 3d 5b 46 ac be 24 a8 88 bc
       -0.2645733 0.11067434 -0.33647427 -0.016681738
0002d0 fb 3d 37 3e 79 25 0a bd c9 ef 8c be ac 30 13 bc
       0.17894737 -0.033727143 -0.27526692 -0.008983772
0002e0 75 8d ab 3d 6c 19 a4 bd 0e 88 6c be 28 91 0d 3e
       0.0837659 -0.08012661 -0.23098776 0.13824904
0002f0 a2 2f ed 3d 3a 37 4c 3e cb c1 10 be e7 ca 16 3e
       0.11581351 0.19942942 -0.14136426 0.14725839
000300 06 7f 67 3e c4 23 8b 3e 8b d9 b3 be bf e7 9c 3e
       0.2260705 0.27175725 -0.3512691 0.30645558
000310 52 78 d9 bd e0 11 23 be c4 e3 6b 3e 6f 3f 9c be
       -0.106186524 -0.15924788 0.23036104 -0.30517146
000320 34 2e 4d be 92 36 a9 3c 29 ff 1a be 41 18 6f be
       -0.20037156 0.020655904 -0.15136398 -0.23349096
000330 4f 87 a4 be 64 2a 00 3e 2f ef a1 3e 72 c0 46 3e
       -0.32134482 0.1251617 0.31627795 0.1940935
000340 c7 ce 20 bd 42 4e 2f 3e 21 3a 59 be 26 19 86 be
       -0.0392597 0.17119697 -0.2121358 -0.26191062
000350 47 0b 52 be 52 ba b7 bd 5f ea 6d 3e 63 be 85 be
       -0.20512114 -0.08971085 0.23233937 -0.26121816
000360 11 ff 09 bd 89 5c 46 3d 3a 19 a5 3d b8 58 a0 be
       -0.033690516 0.048428092 0.08061452 -0.31317687
000370 01 b3 86 3e f6 e3 90 3e 17 1a d7 3d 69 14 80 3e
       0.26308444 0.2829892 0.10503023 0.25015572
000380 93 54 44 bd 31 42 bf be e2 23 50 be a6 cf 7d bd
       -0.04793222 -0.37355188 -0.20326188 -0.061965607
000390 9c 42 9f be da 46 1e be c2 5d f2 3e ea 0a a4 3e
       -0.31105506 -0.15456715 0.47337157 0.32039577
0003a0 ce a0 fa 3a b6 9c 0c be 4e c6 63 bc ea 7d 36 bd
       0.001912141 -0.13731655 -0.01390226 -0.044553675
0003b0 ac 67 a4 3d c9 19 ac bd 26 1c 11 3e 03 55 21 3e
       0.08027586 -0.08403356 0.14170894 0.15755086
0003c0 ae b6 1a 3e 00 e9 d9 bd 46 84 86 be 90 6c a2 be
       0.1510875 -0.10640144 -0.26272792 -0.31723452
0003d0 06 34 33 be 06 0f 24 be 2f 00 a8 3e c4 57 92 3e
       -0.17500314 -0.16021356 0.3281264 0.28582585
0003e0 bd 2e 2a 3e c3 45 06 be 4d d0 96 3d 9e 4b 36 be
       0.16619392 -0.1311255 0.07363949 -0.17802283
0003f0 60 19 fb bd 65 08 1b 3e 73 43 9f bd 64 40 fe 3d
       -0.12260699 0.15139921 -0.07776537 0.12414625

input_layer.bias f4 [5]
000000 00 00 00 00 0d c1 be bc d2 4e aa 3d 00 00 00 00
       0.0 -0.023285413 0.08315815 0.0
000010 bc 72 22 3d
       0.0396602

hidden_layers.0.weight f4 [5, 5]
000000 53 61 45 bd 74 d2 66 3f ab cd a7 3e dd ee f9 3e
       -0.04818852 0.90164876 0.327741 0.4881505
000010 c8 99 0f 3f aa a8 c1 3e 19 f3 e5 3e 2f 78 b5 3e
       0.56094027 0.37823993 0.4491203 0.35443255
000020 af a5 15 3f 8e 17 92 3f 51 da 29 bf 9a 07 8b 3f
       0.5845594 1.1413438 -0.6634875 1.0861695
000030 3d 91 15 3f c0 57 30 3f 05 cd 14 be 4f 67 e1 be
       0.5842474 0.68883896 -0.14531334 -0.4402413
000040 66 ec 00 3f 11 c5 27 bf 06 8f 00 bf ae c2 23 be
       0.50360715 -0.65535074 -0.50218236 -0.15992233
000050 d7 b5 91 be f5 34 22 3f ff c1 c4 3e 7a ae 46 3f
       -0.28459045 0.63362056 0.38429257 0.7760998
000060 cd d6 be 3d
       0.09318314

hidden_layers.0.bias f4 [5]
000000 bf fd bc 3d 72 25 b7 bd 6e 84 ba bc 21 85 53 bc
       0.09228086 -0.08942689 -0.022768226 -0.012910158
000010 3e 68 45 3d
       0.048195116

hidden_layers.1.weight f4 [5, 5]
000000 c6 d1 52 bf 87 6a b9 3e ee 39 8e be eb 33 df 3e
       -0.8235134 0.36214086 -0.27778572 0.43594298
000010 40 1a 3c 3f c5 1b a9 be 5d a6 33 bf e5 36 99 3e
       0.73477554 -0.33029 -0.70175725 0.29924694
000020 60 d8 e6 be bb a9 d1 3e e0 28 f1 be 64 44 02 bf
       -0.45086956 0.40949807 -0.47101498 -0.50885606
000030 9e 21 2d bf 4d cf 26 bf 47 14 84 3f 2d 32 4b 3f
       -0.6762942 -0.65160066 1.0318688 0.7937344
000040 2a f9 3b bf 5f 17 fa 3e 77 9f 3e bf 09 2c a9 3e
       -0.7342707 0.48845956 -0.74462074 0.3304141
000050 ee ad 64 3f 37 2d 99 be 68 8b 44 bf b1 f3 df 3e
       0.89327896 -0.2991731 -0.7677522 0.4374061
000060 d0 5f 47 3f
       0.77880573

hidden_layers.1.bias f4 [5]
000000 9d ec 35 bd 00 00 00 00 00 00 00 00 fc a6 7d bc
       -0.044415105 0.0 0.0 -0.015481707
000010 73 cf 8a 3d
       0.06777849

output_layer.weight f4 [2, 5]
000000 11 64 ab bd c9 12 85 bf 1f 49 88 3f 1a e9 85 bf
       -0.083686955 -1.0396358 1.0647315 -1.0461762
000010 a8 b2 8f 3f ae 0b 34 3f 12 fc 9b bf c8 e7 ed 3e
       1.1226397 0.7033032 -1.2186301 0.46465898
000020 64 08 13 be 46 41 8e 3f
       -0.1435867 1.111367

output_layer.bias f4 [2]
000000 61 0c 8a 3d 22 0b 9b 3d
       0.06740642 0.07570483
