Task5/models/model_cluster-11_06_2022-19_10_52.pth (torch, 2959 bytes, 7 tensors)

input_layer.weight f4 [5, 2]
0	0xbfbd63fc	-1.4796138
1	0x3eb10450	0.34573603
2	0x3fc8e2bf	1.5694197
3	0xbfade68f	-1.3585986
4	0x3fd3a120	1.6533546
5	0xbf87e471	-1.061659
6	0xbf74292e	-0.95375335
7	0xbf8651b1	-1.049368
8	0xbd829002	-0.063751236
9	0x3fa31b3d	1.2742687

input_layer.bias f4 [5]
0	0xbdf12fcf	-0.11776697
1	0x3df78cb8	0.12087387
2	0x3e440305	0.19141777
3	0x3e5bc05a	0.21460095
4	0x3decf6b8	0.11570495

hidden_layers.0.weight f4 [5, 5]
0	0xbec68710	-0.3877492
1	0xbf19a86b	-0.6002261
2	0xbe826868	-0.2547028
3	0x3b797a17	0.0038067156
4	0x3dfdc1db	0.123904906
5	0xbf299624	-0.6624472
6	0xbe87f86b	-0.26556715
7	0xbebdc20b	-0.37062106
8	0xbee660af	-0.4499564
9	0x3f7ef53b	0.9959294
10	0x3f9bc3e6	1.2169158
11	0xbf272db3	-0.65304106
12	0xbf039c32	-0.5141021
13	0x3e5d2ed4	0.21599895
14	0xbfb0b7b4	-1.3806062
15	0xbf0cd441	-0.55011374
16	0xbf876c72	-1.057997
17	0x3ed5a5fd	0.41728202
18	0xbf561a83	-0.83634204
19	0xbfaf9bed	-1.371946
20	0xbeea0f05	-0.45714584
21	0xbf4fce24	-0.8117392
22	0xbf0bbf4a	-0.5458876
23	0xbf20f0c7	-0.628674
24	0xbde80702	-0.11329462

hidden_layers.0.bias f4 [5]
0	0x3d187ed2	0.03723032
1	0xbc9847a7	-0.018588854
2	0xbe38c436	-0.18043599
3	0xbdf6ef57	-0.12057369
4	0xbd71a868	-0.058998495

hidden_layers.1.weight f4 [5, 5]
0	0xbf5bc07f	-0.858406
1	0x3f9d0ce1	1.2269555
2	0xbf6f611e	-0.93507564
3	0xbf275bd3	-0.6537449
4	0xbf032f4d	-0.5124405
5	0x3f55bcf9	0.83491474
6	0x3f8f286a	1.1184208
7	0xbf734867	-0.9503235
8	0x3dd3904c	0.10330257
9	0x3f325fa1	0.6967717
10	0x3edd5845	0.43231407
11	0x3e9d4728	0.3071835
12	0x3f955c27	1.1668748
13	0xbf0a303e	-0.5397986
14	0xbe096fad	-0.13421507
15	0x3f8860ee	1.065458
16	0xbf8dd89f	-1.1081733
17	0xbf9acb5e	-1.2093313
18	0x3f0222dc	0.5083444
19	0xbf186065	-0.59522086
20	0x3f199955	0.5999959
21	0x3f7d884d	0.99036103
22	0xbc2fabc6	-0.010722106
23	0xbf8465cd	-1.0343567
24	0x3d71b738	0.05901262

hidden_layers.1.bias f4 [5]
0	0x3de32d67	0.11092644
1	0xbde932d6	-0.11386649
2	0x3d8087d9	0.06275911
3	0x3d995964	0.07487753
4	0x3e05fdcc	0.13085097

output_layer.weight f4 [1, 5]
0	0x3fb6e36c	1.4288154
1	0xbf8d77f2	-1.105223
2	0x3fa32ae9	1.274747
3	0x3f8a5bec	1.0809302
4	0x3ed2406d	0.41064778
