Task5/models/model.pth (torch, 19561 bytes, 19 tensors)

input_layer.weight f4 [20, 2]
0	0xbefe7ebf	-0.49706075
1	0x3e41b211	0.18915583
2	0x3efec8ab	0.49762473
3	0xbf01b8b4	-0.5067246
4	0x3ef8e4f5	0.4861218
5	0xbed8bd1f	-0.42331788
6	0xbf04dc79	-0.51898915
7	0xbee9a22a	-0.45631534
8	0xbd8b8fa7	-0.06814509
9	0x3ec88d3a	0.39170247
10	0xbe34ce03	-0.17656712
11	0xbeeb521a	-0.45961076
12	0xbe45b177	-0.19305979
13	0x3bb32d57	0.0054680514
14	0x3e1a9275	0.15094931
15	0xbe846e60	-0.2586546
16	0xbe064d13	-0.13115339
17	0xbe1f89ff	-0.15579985
18	0xbe19ec56	-0.15031561
19	0x3ebeaa05	0.3723909
20	0x3eecb8b4	0.46234667
21	0xbebd9913	-0.3703085
22	0xbea24fc6	-0.31701487
23	0x3c20c62f	0.009812876
24	0xbeeeeeeb	-0.46666655
25	0xbe3b1593	-0.18269949
26	0xbf053204	-0.5202944
27	0x3d3d0331	0.04614562
28	0xbec62182	-0.3869744
29	0xbf0145d4	-0.50497174
30	0xbe2c7b49	-0.16843905
31	0xbeab5293	-0.33461437
32	0xbe7ec67d	-0.24880405
33	0xbe8c34b4	-0.2738396
34	0xbd61d9c8	-0.055139333
35	0xbecf9686	-0.40544528
36	0x3ee4cd42	0.4468785
37	0xbeb6ebf6	-0.357269
38	0xbe9c51a0	-0.30531025
39	0xbe87861f	-0.26469514

input_layer.bias f4 [20]
0	0xb163c8e7	-3.3147047e-09
1	0x31ba1b8f	5.4164455e-09
2	0xb1690b7b	-3.3912488e-09
3	0x319dc389	4.591531e-09
4	0xb02a20af	-6.1892086e-10
5	0x32290988	9.839262e-09
6	0x316022c3	3.261605e-09
7	0x3137f8b4	2.6771376e-09
8	0xb18dc90d	-4.126497e-09
9	0xb1529911	-3.064603e-09
10	0x314859ba	2.9154834e-09
11	0xb1b93820	-5.3905893e-09
12	0xb28bd42c	-1.6278214e-08
13	0x31281b75	2.4462825e-09
14	0x31bce78f	5.4978453e-09
15	0x2fec4b33	4.2981582e-10
16	0x31127d54	2.1317037e-09
17	0xaffbe317	-4.581799e-10
18	0xb15acd67	-3.1839933e-09
19	0xaf8d0239	-2.564933e-10

hidden_layers.0.weight f4 [20, 20]
0	0x3eaa69bf	0.33283803
1	0x3ebdb735	0.37053838
2	0xbea71552	-0.32633454
3	0x3def0636	0.116711065
4	0x3ec3635d	0.38161746
5	0x3de23fe9	0.11047346
6	0x3d962886	0.07331948
7	0x3eafb058	0.34314227
8	0xbe4f2c87	-0.2023183
9	0xbd894976	-0.06703465
10	0x3e9af7f3	0.30267295
11	0xbeb42f13	-0.35192165
12	0xbeb52f59	-0.35387686
13	0x3dfc61f5	0.12323371
14	0xbe50823c	-0.2036218
15	0x3e32f709	0.17477049
16	0x3e8bd42d	0.27310315
17	0x3d431193	0.047624182
18	0xbea49b5b	-0.32149777
19	0x3be499aa	0.006976326
20	0x3eb439cb	0.35200343
21	0xbe8c8276	-0.27443284
22	0x3e9cb649	0.30607823
23	0x3e8cba4e	0.2748589
24	0x3db5b434	0.08872262
25	0x3ea6249a	0.324498
26	0xbea4c6a7	-0.3218281
27	0xbe89959d	-0.26871958
28	0x3e632fbf	0.22186182
29	0xbdc538b8	-0.09629959
30	0xbe56742b	-0.20942752
31	0x3e8ffecc	0.28124082
32	0x3e879554	0.26481116
33	0xbdca48e3	-0.09877183
34	0x3e3857d5	0.18002255
35	0x3e098e35	0.13433154
36	0x3eb37548	0.35050416
37	0x3e067549	0.13130678
38	0x3e232ecf	0.15935825
39	0x3d84eea6	0.06490831
40	0xbd3a03d5	-0.04541381
41	0xbe0cdcb8	-0.13756073
42	0x3e030504	0.12794882
43	0x3ebd5af3	0.3698345
44	0xbe0837a1	-0.1330247
45	0xbd15604a	-0.03646878
46	0xbe9275c1	-0.28605464
47	0x3ba0519e	0.004892542
48	0x3d33d5dd	0.043905128
49	0x3c2634fc	0.010144468
50	0x3eb7dceb	0.35910735
51	0x3ea6be87	0.32567236
52	0x3eac2c26	0.33627433
53	0xbe96a5be	-0.29423326
54	0xbdea1807	-0.11430364
55	0xbdc61882	-0.09672643
56	0xbeadd92f	-0.3395476
57	0xbd58d12e	-0.052933864
58	0x3e904d49	0.28183964
59	0x3ebd428c	0.36964834
60	0x3eb3def9	0.35131052
61	0x3deaf5af	0.11472642
62	0x3eb73241	0.35780528
63	0x3e95790c	0.29193914
64	0x3da371ec	0.07980713
65	0x3ec63b25	0.38717
66	0x3e0c72a9	0.13715614
67	0xbe124f55	-0.14288075
68	0x3e6ec332	0.23316649
69	0x3e0a0c62	0.13481286
70	0x3eb97f03	0.36229715
71	0xbe5d87d2	-0.21633843
72	0xbe1cd707	-0.15316401
73	0x3cfc2cec	0.03078314
74	0xbeb90025	-0.36132923
75	0x3e8a47e1	0.27007964
76	0x3d2cafa3	0.042159688
77	0xbd81cdfb	-0.06338116
78	0xbe72f001	-0.23724367
79	0x3e8b3b7e	0.27193826
80	0x3ebc57a6	0.3678562
81	0x3eb11639	0.34587267
82	0xbdf34726	-0.11878805
83	0x3d547996	0.051873766
84	0xbe92dd5d	-0.28684512
85	0x3eaf7039	0.34265307
86	0x3e0c2a6e	0.1368806
87	0xbe1db338	-0.15400398
88	0xbca1d3a7	-0.019754244
89	0xbe210b2f	-0.15726922
90	0x3e83c632	0.2573715
91	0xbe8393a2	-0.25698572
92	0xbda26b55	-0.07930628
93	0x3c7f3655	0.015576919
94	0xbe7d57e1	-0.24740554
95	0x3e4fdd07	0.20299159
96	0xbca30dc1	-0.01990402
97	0xbde10f41	-0.109892376
98	0xbe303ff7	-0.172119
99	0xbeb84688	-0.3599131
100	0xbe3d643f	-0.18495272
101	0x3e8b30d8	0.27185702
102	0xbd9c9dda	-0.07647295
103	0x3e25a3d5	0.16175778
104	0xbe947036	-0.2899186
105	0xbe0df01a	-0.13861123
106	0x3d1952b4	0.037432387
107	0xbc405446	-0.011738842
108	0xbdf7e5c3	-0.121043704
109	0xbc88e467	-0.016710473
110	0x3ec50632	0.3848129
111	0xbbac0b30	-0.005250357
112	0xbe23a018	-0.1597904
113	0x3ddc3482	0.107522026
114	0xbcedae9a	-0.02901392
115	0xbea1617a	-0.3151968
116	0xbd28a188	-0.041169673
117	0x3e250684	0.16115767
118	0x3e996290	0.2995801
119	0x3dd5effb	0.10446163
120	0xbe933aa1	-0.28755668
121	0x3e1df588	0.15425694
122	0x3e9d1b1b	0.30684742
123	0x3c169ef4	0.009193171
124	0xbe971b4f	-0.29513022
125	0x3ea62d41	0.324564
126	0x3e8839f9	0.2660673
127	0xbe6f183e	-0.23349091
128	0xbe4502c1	-0.19239332
129	0x3ebf7ee5	0.374015
130	0xbd575ebb	-0.052580576
131	0xbec25b5c	-0.37960327
132	0x3d125071	0.035721246
133	0xbd3e4763	-0.0464548
134	0xbeb80a98	-0.35945582
135	0x3de12228	0.10992843
136	0xbe8d7b55	-0.27633157
137	0x3e1d419b	0.15357058
138	0xbeb7a950	-0.35871363
139	0x3bfb0a70	0.0076611564
140	0x3e6d440f	0.23170494
141	0xbc42dd32	-0.011893557
142	0xbe93cc1f	-0.2886667
143	0x3c867eea	0.01641794
144	0x3dfb1184	0.122592
145	0xbd85628c	-0.06512937
146	0xbe73bd62	-0.23802713
147	0x3e3d746a	0.1850144
148	0x3e231bd5	0.15928586
149	0x3e829a4f	0.25508353
150	0xbe0aa1b2	-0.13538244
151	0x3e47fbd5	0.1952966
152	0x3e92241b	0.2854317
153	0x3eacfd1a	0.3378685
154	0xbec0949c	-0.3761338
155	0x3ec148de	0.37750906
156	0xbdc36186	-0.095400855
157	0xbe1fe008	-0.15612805
158	0x3e9484c4	0.29007542
159	0xbea5927a	-0.32338315
160	0xbe8eb387	-0.27871343
161	0x3ce5fb5b	0.028073957
162	0xbe5c9fd7	-0.21545349
163	0xbe935df2	-0.28782612
164	0xbec49497	-0.38394615
165	0x3dfb7db8	0.12279838
166	0x3ec17fc7	0.377928
167	0x3e618975	0.22025092
168	0xbb63e8af	-0.0034776141
169	0x3e6175c7	0.22017585
170	0xbe42ebfe	-0.19035336
171	0xbe8422ea	-0.25807887
172	0xbe371555	-0.17879231
173	0xbd50e040	-0.05099511
174	0x3e96cc5d	0.29452792
175	0xbe849182	-0.25892264
176	0xbcc6c4e6	-0.02426381
177	0x3da3698c	0.07979116
178	0x3df00d86	0.117213294
179	0xbeadc893	-0.33942088
180	0x3eb72453	0.357699
181	0x3eb84c0d	0.35995522
182	0x3e5f9e12	0.21837643
183	0x3eb5c378	0.35500693
184	0x3d834e72	0.06411447
185	0xbeaac11d	-0.3335046
186	0xbe4bcc96	-0.19902262
187	0x3ccd8ece	0.025092509
188	0xbeb6d8f5	-0.357124
189	0xbe005a1a	-0.12534371
190	0x3eab7b68	0.3349259
191	0x3eb1d9f8	0.3473661
192	0xbe30caf5	-0.17264922
193	0xbe8da818	-0.27667308
194	0xbdc88c38	-0.097923696
195	0xbe2a9696	-0.16659006
196	0x3e15e787	0.14639102
197	0xbe11dc0d	-0.14244099
198	0x3e9c78e5	0.30560985
199	0x3e6f8156	0.23389181
200	0x3e44fea3	0.19237761
201	0xbc6b8008	-0.014373787
202	0xbea7b00f	-0.3275151
203	0xbe9ad4db	-0.3024052
204	0xbe5c88ed	-0.21536608
205	0xbe2e1975	-0.17001899
206	0x3ebb7ee3	0.36620244
207	0x3ea9408e	0.33057064
208	0x3e492f96	0.19647059
209	0xbe1b3ae7	-0.15159188
210	0x3dc4aeac	0.096036285
211	0xbe49f541	-0.19722463
212	0xbded5af9	-0.11589617
213	0x3e40bb7c	0.1882152
214	0xbd8aa6ed	-0.0677012
215	0x3e27fba0	0.16404581
216	0xbdef5687	-0.11686426
217	0x3e0ade05	0.13561256
218	0x3a191323	0.00058393384
219	0xbe8d859a	-0.27640992
220	0x3dcdf3f7	0.10056298
221	0xbc664ce2	-0.014056416
222	0xbcbcc1dd	-0.02304166
223	0x3dce8d56	0.100855514
224	0x3d11cb12	0.035594054
225	0x3eaba7c3	0.3352643
226	0x3db907c6	0.09034686
227	0xbe88dc77	-0.267307
228	0xbc8c7323	-0.017144745
229	0xbe64a0b2	-0.22326925
230	0xbe45a571	-0.19301392
231	0xbd21ab23	-0.03946985
232	0xbe93931c	-0.28823173
233	0x3d587e3f	0.052854773
234	0xbec1d1cf	-0.37855384
235	0xbe46dadf	-0.1941943
236	0x3e26acf9	0.16276921
237	0xbeb9a2cf	-0.36257026
238	0xbe138956	-0.14407858
239	0x3dfdcc7e	0.123925194
240	0x3e962d02	0.29331213
241	0xbe175ba3	-0.1478105
242	0x3e95d683	0.29265222
243	0xbcb77c39	-0.022398101
244	0x3d24351f	0.040089723
245	0x3e4daf60	0.20086432
246	0xbdcf5898	-0.1012432
247	0x3e2cbbec	0.16868562
248	0x3cb78f64	0.022407241
249	0xbea161d9	-0.31519964
250	0xbca7eecb	-0.020499608
251	0x3ec55b43	0.3854619
252	0xbe2dfc09	-0.16990675
253	0x3d9b470b	0.0758191
254	0x3e7d518a	0.24738136
255	0x3e3ccd33	0.18437652

hidden_layers.0.bias f4 [20]
0	0x323f4d1d	1.1135197e-08
1	0xb2ec71a6	-2.7525697e-08
2	0xb146f855	-2.8953953e-09
3	0xb17f1775	-3.7120718e-09
4	0x324c1ec5	1.1881359e-08
5	0xb13b7c41	-2.7282712e-09
6	0xb10d098f	-2.0523634e-09
7	0xb209a155	-8.011132e-09
8	0x3107ccc8	1.976149e-09
9	0x310f4b50	2.085205e-09
10	0xb202c5fc	-7.612012e-09
11	0x31970e62	4.3963135e-09
12	0xb14e673d	-3.003563e-09
13	0x31152d71	2.1708184e-09
14	0x321f99dd	9.2900025e-09
15	0xb1e47fff	-6.650225e-09
16	0x31bf2017	5.56248e-09
17	0x3255b1b2	1.2438635e-08
18	0xb1252439	-2.403125e-09
19	0x322105c5	9.372745e-09

hidden_layers.1.weight f4 [20, 20]
0	0xbc963566	-0.01833601
1	0x3eb0f6ec	0.34563386
2	0x3e15f95e	0.14645907
3	0x3ec4eb8f	0.38460967
4	0x3dfef5f6	0.12449257
5	0x3c9d0efe	0.019172188
6	0xbebe236d	-0.37136403
7	0x3cf5ac50	0.029989392
8	0x3db53fde	0.08850072
9	0xbe9046ba	-0.2817896
10	0xbe21d24d	-0.1580288
11	0x3eb84099	0.35986784
12	0x3ec483bd	0.38381758
13	0x3da68167	0.0813015
14	0x3e7ef002	0.24896243
15	0xbe8d6ec9	-0.27623585
16	0xbe8f5390	-0.2799344
17	0xbe77cb76	-0.24198708
18	0x3e6684cb	0.22511594
19	0x3dadc3ed	0.084846355
20	0x3e012b63	0.12614207
21	0xbebcd96b	-0.36884627
22	0x3e016de8	0.12639582
23	0xbeab2820	-0.3342905
24	0xbe0a3863	-0.13498072
25	0x3e829e9d	0.25511637
26	0x3dd1cfb2	0.10244693
27	0xbec2e192	-0.38062721
28	0xbdd2136d	-0.102576114
29	0xbe9ddae9	-0.30831078
30	0x3eb714ab	0.35757956
31	0x3e9e945f	0.30972573
32	0xbc8e77fb	-0.017391196
33	0xbe055bf0	-0.13023353
34	0xbe1386ce	-0.14406893
35	0x3e779376	0.24177346
36	0xbe3c6b40	-0.18400288
37	0xbd5fd600	-0.054647446
38	0x3e850be3	0.2598563
39	0xbd517dc8	-0.051145345
40	0xbd834c82	-0.06411077
41	0x3e60631d	0.21912809
42	0xbe29ae3b	-0.1657037
43	0xbd88adaa	-0.06673749
44	0xbdc89226	-0.097935006
45	0xbe90df24	-0.28295243
46	0x3d655377	0.0559878
47	0x3e5ef4d1	0.21773078
48	0x3e41e147	0.18933593
49	0xbe832606	-0.25614947
50	0x3e0f1c04	0.13975531
51	0x3eadfcf8	0.33982062
52	0x3e8e82e9	0.27834252
53	0xbe60cf40	-0.2195406
54	0x3e1305e5	0.14357717
55	0xbcd9df30	-0.026595682
56	0x3c1f9f29	0.009742537
57	0x3e86cf92	0.2633024
58	0x3e9a761f	0.30168244
59	0x3ea5d56c	0.3238939
60	0xbc8b91ae	-0.017037239
61	0x3ea6671b	0.32500538
62	0x3e025d28	0.12730849
63	0x3e30bab6	0.17258725
64	0x3e6f5050	0.2337048
65	0x3e08effe	0.133728
66	0x3e2471c1	0.16059019
67	0x3dda2f8e	0.106536016
68	0x3e53a213	0.20667295
69	0x3ec4340a	0.38320953
70	0xbe703549	-0.23457827
71	0x3ec228c2	0.3792172
72	0x3e5f3731	0.21798398
73	0x3e7962e6	0.24354133
74	0xbda8a158	-0.08233899
75	0xbe1f6268	-0.15564883
76	0x3e3ad539	0.182454
77	0xbe679a3c	-0.2261743
78	0xbe35cf38	-0.17754829
79	0xbd55b108	-0.052170783
80	0xbdce10c0	-0.100617886
81	0x3e6a97ee	0.22909519
82	0x3e2c76e5	0.1684223
83	0x3e8c7d35	0.27439275
84	0x3d82898b	0.063738905
85	0xbe8d0baa	-0.2754796
86	0x3e186690	0.14882874
87	0xbdc15dd1	-0.09441722
88	0x3e21533c	0.15754408
89	0x3e8bd59a	0.27311403
90	0xbdef27cc	-0.116775125
91	0xbe7e1032	-0.24810866
92	0x3dd8ad93	0.10579982
93	0xbe233b71	-0.15940644
94	0x3e144110	0.14477944
95	0xbe2a868e	-0.16652891
96	0xbe3839bc	-0.17990774
97	0xbe74d83a	-0.23910609
98	0xbe6be795	-0.2303756
99	0x3ebac9c8	0.36482072
100	0x3e8fe1ee	0.28102058
101	0xbe841751	-0.2579904
102	0x3e311b92	0.17295673
103	0xbe88eab6	-0.2674157
104	0x3df1343d	0.11777542
105	0x3eaac796	0.33355397
106	0xbda5ee4c	-0.08102092
107	0xbe94ddc4	-0.29075444
108	0x3e22d2c4	0.15900713
109	0x3e9382cd	0.2881073
110	0xbccfa3b6	-0.025346618
111	0xbe9d745e	-0.30752844
112	0x3ea1415e	0.31495184
113	0xbe9e7329	-0.30947235
114	0x3ea8f249	0.3299735
115	0x3e83ca00	0.2574005
116	0xbeb89043	-0.36047563
117	0x3e0cbf2a	0.13744798
118	0xbd15671b	-0.036475282
119	0x3eb81fb7	0.35961697
120	0xbe440e01	-0.19145967
121	0xbe25ed66	-0.16203842
122	0x3ddfc7b7	0.109267645
123	0x3d58ec7a	0.052959897
124	0x3dd969a6	0.10615854
125	0x3e42a4ca	0.19008175
126	0x3dcf6e22	0.10128428
127	0xbea91caa	-0.3302968
128	0xbe3cdf54	-0.18444568
129	0xbe021fa7	-0.12707387
130	0xbdad9fca	-0.08477743
131	0xbe63e371	-0.22254731
132	0x3c7beff3	0.015377033
133	0x3d615d37	0.055020537
134	0xbe19c820	-0.15017748
135	0xbe5ceb42	-0.21574119
136	0x3e8a11e9	0.2696679
137	0x3e37e626	0.17958888
138	0xbdef178c	-0.11674413
139	0xbcadac37	-0.021200282
140	0xbc99be15	-0.018767396
141	0xbbef5a0e	-0.0073044365
142	0xbea098a7	-0.31366464
143	0xbe15140e	-0.14558432
144	0xbd5b95b4	-0.053609565
145	0x3ea341de	0.3188619
146	0xbe569072	-0.20953539
147	0xbe1dfd67	-0.15428697
148	0x3e386138	0.18005836
149	0x3e63c16a	0.2224175
150	0x3e55d5f4	0.20882398
151	0x3d0fa288	0.03506711
152	0x3e8083f6	0.25100678
153	0x3e376811	0.17910792
154	0xbe2a1fca	-0.16613689
155	0x3db3fec4	0.08788827
156	0xbeae98b3	-0.34100875
157	0x3dbf05e8	0.093272984
158	0x3cd269df	0.025685249
159	0x3e08366d	0.13302012
160	0xbe29c2f5	-0.16578276
161	0xbe8161b7	-0.25269863
162	0x3d28ead9	0.041239593
163	0xbdfa8063	-0.12231519
164	0x3dc73ef7	0.097288065
165	0xbe86fbba	-0.26363927
166	0x3d5fd02e	0.054641895
167	0x3e2ef201	0.17084505
168	0xbc35876d	-0.011079651
169	0xbdb64c08	-0.089012206
170	0xbe6cdad4	-0.23130351
171	0xbe752add	-0.23942132
172	0x3e8ef711	0.27922872
173	0xbe9ef5b4	-0.31046832
174	0x3e55ff1b	0.20898096
175	0xbd82b7a6	-0.063826844
176	0x3ddfd060	0.10928416
177	0xbe536d5c	-0.20647186
178	0xbdeeb9c0	-0.11656523
179	0xbe6f8953	-0.23392229
180	0x3d57f1bb	0.052720767
181	0x3e08a51e	0.13344237
182	0x3eb10410	0.34573412
183	0x3e45ba91	0.1930945
184	0x3dd42a70	0.10359657
185	0xbe946c02	-0.28988653
186	0xbd1f1ede	-0.038847797
187	0xbe6db042	-0.23211768
188	0xbe0e2ab6	-0.1388348
189	0x3e23229a	0.15931168
190	0xbeaeb703	-0.34124002
191	0xbcbde41d	-0.023180062
192	0xbe4de715	-0.20107682
193	0x3eae01fb	0.33985886
194	0x3eb4833a	0.35256368
195	0x3d9aeb5c	0.075644225
196	0x3e901750	0.28142786
197	0x3e1d3f5c	0.15356201
198	0xbe8a3764	-0.26995385
199	0xbe8f23dd	-0.2795705
200	0x3e697fef	0.22802709
201	0xbdaf02c9	-0.08545453
202	0x3e9c53b4	0.3053261
203	0xbd82c616	-0.06385438
204	0x3d918c1d	0.071068026
205	0xbd19e67e	-0.03757333
206	0xbe9de15e	-0.30836004
207	0x3c9efab5	0.019406656
208	0x3c6a1057	0.014286122
209	0xbe01f758	-0.1269201
210	0x3d4f49e3	0.050607573
211	0xbc2298fe	-0.0099241715
212	0x3e9d69cd	0.30744782
213	0x3e891e01	0.26780704
214	0x3ea484cd	0.3213257
215	0x3e00a39e	0.12562415
216	0x3eafd21f	0.34339997
217	0x3e177853	0.14791994
218	0x3ea676ce	0.32512516
219	0xbe4ee9c0	-0.20206356
220	0xbeb7dc93	-0.35910472
221	0xbe6860ca	-0.22693172
222	0xbe888a69	-0.266681
223	0x3e3edb79	0.1863841
224	0xbd1f2b28	-0.038859516
225	0x3da9f5db	0.08298846
226	0xbe9a69de	-0.30158895
227	0x3e692c34	0.22770768
228	0x3e33dd43	0.17564873
229	0xbe8d3ca0	-0.27585316
230	0xbe181096	-0.14850077
231	0x3e89fcd3	0.26950702
232	0x3e66377f	0.22482108
233	0x3dd98064	0.10620192
234	0xbe4d6203	-0.2005692
235	0x3dddde3c	0.108334035
236	0x3ec44cd3	0.38339862
237	0xbe7bc491	-0.24586703
238	0x3e541b1c	0.20713466
239	0x3ea4291a	0.32062608
240	0xbe11803d	-0.14209075
241	0x3e27ec7c	0.16398805
242	0x3e895293	0.26820812
243	0xbd638386	-0.055545352
244	0xbd4f3f08	-0.05059722
245	0xbd1162ef	-0.03549474
246	0x3cf00023	0.02929694
247	0x3d9901ce	0.07471047
248	0xbe7b5e46	-0.24547681
249	0xbd0627f9	-0.032752965
250	0xbeabddf4	-0.33567774
251	0x3e0d5f8e	0.13805982
252	0x3d91af7a	0.071135476
253	0xbe1ebfde	-0.15502879
254	0x3d8b3007	0.0679627
255	0xbd9ea054	-0.07745424

hidden_layers.1.bias f4 [20]
0	0xb248647a	-1.1664378e-08
1	0xb1b295da	-5.197518e-09
2	0x330861b9	3.1753846e-08
3	0xb29f446e	-1.8541154e-08
4	0x33dbcf51	1.0235693e-07
5	0x32f9bb89	2.9072696e-08
6	0xb2ab9133	-1.9973049e-08
7	0xb32bbdbe	-3.998661e-08
8	0xb386bc17	-6.2740746e-08
9	0x335897fc	5.0429648e-08
10	0x32a5713a	1.9260018e-08
11	0x3387f199	6.330374e-08
12	0x31d8cd8f	6.3097967e-09
13	0x3341fafe	4.516459e-08
14	0xb3b8d7c8	-8.607418e-08
15	0x3334c880	4.209187e-08
16	0x32c8aa72	2.3360574e-08
17	0x31ea4bf4	6.818931e-09
18	0xb28d99ba	-1.6484467e-08
19	0xb20db111	-8.24754e-09

hidden_layers.2.weight f4 [20, 20]
0	0xbea46403	-0.32107553
1	0xbea02dc4	-0.31284916
2	0xbe9394ac	-0.28824365
3	0xbe6c5cc2	-0.2308226
4	0xbec50e8b	-0.38487658
5	0xbec0ca38	-0.3765428
6	0x3dbb05e8	0.09131986
7	0x3e354be5	0.17704733
8	0xbe18bc67	-0.1491562
9	0x3e96b93b	0.29438195
10	0xbe060018	-0.13085973
11	0xbea57759	-0.32317618
12	0xbe5867be	-0.21133325
13	0xbebca530	-0.36844778
14	0xbe00701c	-0.12542766
15	0x3e78d101	0.24298479
16	0xbeaf8af3	-0.34285697
17	0x3e136fa6	0.14398059
18	0xbeb678e4	-0.35639107
19	0xbe66ad72	-0.22527102
20	0x3e71c333	0.23609619
21	0xbebdda22	-0.37080485
22	0x3ec042b8	0.37550902
23	0xbe64a8c1	-0.2233
24	0xbe780c23	-0.2422338
25	0x3ea57c3f	0.32321355
26	0xbe3f484d	-0.18679924
27	0x3e4d5f2c	0.20055836
28	0x3ec5350d	0.38517037
29	0xbe972d20	-0.29526615
30	0x3d8433c9	0.0645519
31	0x3e277d4f	0.16356395
32	0xbd513ae1	-0.051081542
33	0xbdd56a41	-0.10420657
34	0xbea027a6	-0.3128025
35	0x3e36915b	0.17828886
36	0xbdc453ad	-0.095862724
37	0x3e9d791d	0.30756465
38	0xbe81dd50	-0.2536416
39	0xbe0f148d	-0.13972683
40	0xbe3027f8	-0.17202747
41	0x3e2c46c8	0.16823876
42	0x3e3d0bea	0.18461576
43	0xbe080dd8	-0.13286531
44	0xbda48829	-0.08033783
45	0xbc6b0d31	-0.014346407
46	0x3e340f43	0.17583947
47	0x3e854370	0.26028013
48	0x3eadf889	0.3397868
49	0x3dadf2d4	0.084935814
50	0x3e5d5649	0.21614946
51	0x3d674b72	0.056468435
52	0xbda44108	-0.08020216
53	0x3e87778f	0.26458403
54	0xbe66adb7	-0.22527204
55	0xbe53536a	-0.20637289
56	0xbe34c044	-0.17651469
57	0xbc4f232d	-0.012642664
58	0x3e036258	0.12830484
59	0x3e981fa0	0.29711628
60	0x3e80745a	0.2508877
61	0x3d8e9ee7	0.06963902
62	0xbe864d30	-0.26230764
63	0x3e072c95	0.132006
64	0x3e5d6897	0.21621929
65	0x3c319246	0.010838097
66	0x3e18c5b0	0.14919162
67	0xbe6a3dc2	-0.22875121
68	0xbeb5e959	-0.35529593
69	0x3d0800cd	0.03320389
70	0xbcb9762f	-0.022639362
71	0xbe941454	-0.2892176
72	0x3df9f6bc	0.12205264
73	0xbc9bbdff	-0.019011496
74	0xbeb15c21	-0.346406
75	0x3d617baa	0.055049576
76	0xbd2dd513	-0.04243953
77	0x3e6f261c	0.23354381
78	0xbe865f6c	-0.26244676
79	0xbeb321fb	-0.34986863
80	0xbdfff7ee	-0.12498461
81	0xbe2ee536	-0.17079625
82	0xbe4eaba2	-0.2018266
83	0x3cd99a89	0.026562946
84	0xbbc9742e	-0.006147883
85	0x3e76f043	0.2411509
86	0xbceedafb	-0.029157152
87	0xbec0b002	-0.37634283
88	0x3e8a7263	0.27040395
89	0x3e831cb0	0.25607824
90	0xbe94953a	-0.290201
91	0xbd806d68	-0.062708676
92	0x3da444e4	0.08020952
93	0x3d7ff9c8	0.06249407
94	0x3d0fc983	0.035104286
95	0x3e94c1d9	0.29054144
96	0xbe1ef226	-0.1552206
97	0x3c4b11f7	0.01239442
98	0xbeb90d15	-0.36142793
99	0x3e635055	0.22198613
100	0x3e9a4dc8	0.30137467
101	0x3e75adc2	0.23992065
102	0xbe48897b	-0.19583695
103	0xbe034093	-0.12817602
104	0x3dc032f2	0.09384717
105	0xbe85e7de	-0.26153463
106	0xbe476dcc	-0.19475478
107	0xbe8e9093	-0.27844676
108	0x3d94ae3c	0.07259795
109	0x3d89dded	0.06731782
110	0xbe92ad46	-0.28647822
111	0xbd1bcf3f	-0.038039442
112	0x3e4b458b	0.19850747
113	0x3d200b60	0.039073348
114	0x3d1baec6	0.038008474
115	0x3e9aba8c	0.3022045
116	0x3e366ea4	0.17815644
117	0x3e642add	0.22281976
118	0xbe949990	-0.2902341
119	0x3e5ae297	0.213755
120	0xbeb0cafe	-0.3452987
121	0xbec2c8c3	-0.38043794
122	0x3e16ee17	0.14739262
123	0x3dc7e16e	0.09759794
124	0x3ec1d71e	0.37859434
125	0x3e89257a	0.26786405
126	0xbe317bac	-0.17332333
127	0xbe2231a1	-0.15839244
128	0x3eb826fc	0.35967243
129	0x3da530f3	0.08065977
130	0x3e983e00	0.29734802
131	0xbe81227a	-0.25221616
132	0x3d0be8b7	0.03415748
133	0xbdac9a6f	-0.08427893
134	0xbe97a653	-0.29619083
135	0x3e8c67d4	0.27422965
136	0x3e8ac95b	0.27106747
137	0x3dbfcbea	0.093650654
138	0xbd83f4ce	-0.06443177
139	0xbe39859b	-0.18117373
140	0x3e675cf9	0.2259406
141	0xbebfc863	-0.3745757
142	0x3cca868b	0.024722358
143	0x3e3aec65	0.1825424
144	0x3ea57f70	0.3232379
145	0xbe419788	-0.18905461
146	0x3d2aae09	0.04166988
147	0x3e3faa6f	0.18717359
148	0x3e9f73c1	0.31143
149	0x3ea091f0	0.3136134
150	0xbe7ef4b7	-0.24898039
151	0xbb01ef07	-0.001982631
152	0xbe1bc977	-0.15213571
153	0xbe6f3d8d	-0.23363324
154	0x3dabd8d9	0.0839097
155	0x3e5f70e2	0.21820405
156	0x3e2adeae	0.16686508
157	0xbea54df0	-0.32286024
158	0xbea5676d	-0.3230547
159	0x3ec30389	0.38088635
160	0xbe8bde1d	-0.27317896
161	0x3e5178b0	0.20456195
162	0x3e5ab5c0	0.21358395
163	0xbd868609	-0.06568534
164	0x3dede511	0.116159566
165	0xbe9ab13d	-0.30213347
166	0xbd129ba1	-0.03579295
167	0xbd1c0b29	-0.03809658
168	0xbe91ff7f	-0.2851524
169	0xbea63de4	-0.32469094
170	0xbea36b23	-0.31917676
171	0x3e910cad	0.28329983
172	0xbca405a0	-0.020022213
173	0xbea40567	-0.32035372
174	0x3d05983c	0.032615885
175	0xbe8f9649	-0.28044346
176	0x3e42566f	0.18978284
177	0x3dbdded0	0.09271014
178	0xbdb9eb24	-0.09078053
179	0x3d4867b8	0.04892704
180	0xbe85f809	-0.26165798
181	0xbec1b631	-0.37834314
182	0xbe9b1fe0	-0.30297756
183	0xbeb533dd	-0.3539113
184	0xbca54884	-0.02017618
185	0xbeaacb26	-0.33358115
186	0x3e4b3e01	0.19847871
187	0x3dce3fdf	0.10070776
188	0x3e10218c	0.14075297
189	0xbe248ec3	-0.16070084
190	0xbe87cd14	-0.2652365
191	0xbe97df38	-0.2966249
192	0xbe03fd45	-0.12889583
193	0xbeaa8912	-0.333077
194	0xbe2f1eb0	-0.1710155
195	0xbe9dbe58	-0.30809283
196	0x3e2eecac	0.1708247
197	0xbd8d6769	-0.069044895
198	0x3dad4845	0.0846105
199	0xbe8ded44	-0.27720082
200	0x3ebccc6d	0.36874714
201	0x3e840b6e	0.2578997
202	0x3cd01c2e	0.025404062
203	0x3e21277b	0.15737717
204	0x3e17d1cd	0.14826126
205	0xbdd42a0b	-0.103595816
206	0x3d094290	0.033510745
207	0xbe028836	-0.12747273
208	0x3ebd9362	0.37026507
209	0x3ebd87e7	0.37017748
210	0x3dab2201	0.08356095
211	0x3ea50b24	0.32235062
212	0xbe960aa9	-0.29305008
213	0x3e947068	0.2899201
214	0xbebc627b	-0.36793885
215	0x3eb77718	0.3583305
216	0x3e57e62c	0.21083897
217	0x3e9ecc48	0.3101523
218	0x3ec343f2	0.38137776
219	0xbddb1620	-0.106975794
220	0xbe71c43b	-0.23610012
221	0x3cceabdf	0.025228439
222	0x3ec27c86	0.3798563
223	0xbd4ad356	-0.049517952
224	0x3e92d941	0.28681377
225	0xbd2c2ec1	-0.042036775
226	0xbe8e5351	-0.2779794
227	0xbe9d6dd6	-0.3074786
228	0xbe2c84bb	-0.16847508
229	0x3e96ecc5	0.29477516
230	0x3e1f9a6b	0.1558625
231	0xbd425a6b	-0.04744951
232	0xbe9d730f	-0.30751845
233	0xbe40c840	-0.1882639
234	0xbec4d393	-0.38442668
235	0xbd0d3d0e	-0.034482054
236	0xbe089bbc	-0.13340658
237	0xbe02b6bb	-0.12765019
238	0xbe1b3499	-0.15156783
239	0x3e669819	0.22518958
240	0xbe12ad4c	-0.1432392
241	0xbda9d802	-0.08293153
242	0x3eab72d4	0.33486044
243	0xbe9f97ff	-0.3117065
244	0x3e9288c0	0.28619957
245	0xbe791f33	-0.24328308
246	0x3e03ac12	0.12858608
247	0x3e5f9d49	0.21837343
248	0xbcccbf57	-0.024993582
249	0x3dd60d37	0.10451739
250	0x3e27b384	0.16377074
251	0x3e1b3f5c	0.15160888
252	0x3ea7dafd	0.32784262
253	0x3e271192	0.16315296
254	0xbec17164	-0.37781823
255	0x3e9de96b	0.30842146

hidden_layers.2.bias f4 [20]
0	0x3413259a	1.3704121e-07
1	0xb40f125c	-1.3324592e-07
2	0xb4195606	-1.428053e-07
3	0xb3306c5d	-4.107675e-08
4	0x33c646ea	9.232993e-08
5	0x33b214ef	8.292579e-08
6	0x33f31034	1.13185166e-07
7	0xb4875d54	-2.5213615e-07
8	0xb29f2602	-1.852732e-08
9	0xb40c6499	-1.3075113e-07
10	0x30e7e2b5	1.6871896e-09
11	0xb28965b5	-1.599515e-08
12	0x350a1ebe	5.145374e-07
13	0x341ec117	1.4785142e-07
14	0xb4b1e184	-3.3132903e-07
15	0x33dd2719	1.0298226e-07
16	0x329e9c0b	1.8464581e-08
17	0x32698160	1.35918015e-08
18	0x34bc23bc	3.504373e-07
19	0xb4ac2858	-3.206685e-07

hidden_layers.3.weight f4 [20, 20]
0	0x3e02691f	0.12735413
1	0xbc0aaff1	-0.008464799
2	0xbe7aff96	-0.24511561
3	0x3d78ddb3	0.060758304
4	0x3ec41d6c	0.38303697
5	0xbe86a469	-0.2629731
6	0xbc110609	-0.008851537
7	0x3ea14efb	0.3150557
8	0xbe41193f	-0.18857287
9	0x3dce2c84	0.100670844
10	0xbdb44b05	-0.08803371
11	0xbe3d6169	-0.1849419
12	0x3dccd936	0.10002367
13	0xbd70a148	-0.05874756
14	0xbc3a52dc	-0.011372294
15	0x3e259c03	0.16172795
16	0x3e4fed9a	0.20305482
17	0x3eb79608	0.35856652
18	0x3e2bfdac	0.16795987
19	0xbd55e106	-0.052216552
20	0xbe09e213	-0.13465147
21	0x3b7abf91	0.0038261155
22	0x3e231a5a	0.15928021
23	0xbe706f4a	-0.23479953
24	0x3dc17f06	0.09448056
25	0xbebca865	-0.36847225
26	0x3dc447e0	0.095840216
27	0x3eac9aa0	0.3371172
28	0xbd3a8732	-0.04553909
29	0x3e9f821b	0.3115395
30	0xbeafd85f	-0.34344766
31	0xbea31d38	-0.3185823
32	0xbd2b0b2e	-0.04175871
33	0xbdd63177	-0.104586534
34	0x3e962448	0.29324555
35	0x3e91f6b2	0.28508526
36	0x3e38c952	0.18045548
37	0x3eab0a1d	0.33406153
38	0x3e0863e2	0.13319352
39	0x3e874654	0.26420844
40	0xbea30ae5	-0.3184425
41	0x3cd2fa99	0.02575426
42	0xbb8eb0d7	-0.004354577
43	0xbe9b5f8e	-0.3034634
44	0xbeb50a2f	-0.35359332
45	0xbeaf6ca0	-0.34262562
46	0x3e3680cf	0.17822574
47	0xbe3c794d	-0.18405648
48	0x3ea7fd41	0.32810405
49	0xbe891642	-0.26774794
50	0x3d930c3c	0.07180068
51	0xbe615ef9	-0.22008885
52	0xbeb87c3e	-0.3603229
53	0x3d576bc9	0.052593026
54	0xbc8c706f	-0.017143456
55	0x3e6740ec	0.2258336
56	0xbda4deae	-0.08050285
57	0x3e562ec8	0.20916283
58	0xbe1d4ed4	-0.15362102
59	0x3ea5d3c1	0.32388118
60	0xbdf8d849	-0.12150628
61	0x3c58b2b7	0.013226203
62	0xbc1bbfd4	-0.009506185
63	0x3df335c6	0.11875491
64	0x3de1f8e3	0.110337995
65	0x3e3ff7c0	0.18746853
66	0x3e9d79eb	0.3075708
67	0xbead66d3	-0.3386751
68	0xbe07cfe4	-0.13262898
69	0xbe9959c8	-0.2995131
70	0xbeb9f484	-0.36319363
71	0xbdebff5e	-0.11523317
72	0x3ebdc07f	0.37060925
73	0xbe2cfed8	-0.1689409
74	0xbe7e38c2	-0.24826339
75	0x3e3d55a1	0.18489696
76	0xbeae99b9	-0.34101656
77	0x3e4659c7	0.19370185
78	0x3e1462ff	0.14490889
79	0xbe65b02a	-0.22430483
80	0xbead77df	-0.33880517
81	0xbda2e4e2	-0.07953812
82	0x3e874964	0.2642318
83	0x3e234c2e	0.15947029
84	0xbe6de2b3	-0.2323101
85	0x3e10f99e	0.14157721
86	0x3e6fd931	0.23422696
87	0xbde48971	-0.11159027
88	0xbdf3f7d7	-0.11912506
89	0xbc65e72c	-0.014032166
90	0x3db46b34	0.0880951
91	0x3e04723d	0.12934203
92	0xbeb5fa69	-0.3554261
93	0x3d805e16	0.062679455
94	0x3e7bf941	0.24606802
95	0xbda2f3fe	-0.07956694
96	0x3e8f7429	0.2801831
97	0x3ea1f6e3	0.31633672
98	0x3e5c32ff	0.21503828
99	0xbeadceea	-0.33946925
100	0xbe8e1326	-0.27748984
101	0xbe508bf6	-0.20365891
102	0x3e884c32	0.26620632
103	0x3d7394cc	0.059468076
104	0x3de890da	0.11355753
105	0xbeb0c139	-0.34522417
106	0xbebb220c	-0.36549413
107	0xbe1ce160	-0.15320349
108	0xbebc5ad0	-0.36788034
109	0xbd08d443	-0.033405554
110	0x3de6148a	0.11234386
111	0x3ec1862d	0.3779768
112	0xbe598ec2	-0.21245864
113	0x3dba43d4	0.090949684
114	0x3e64f0e7	0.22357522
115	0xbe763fd6	-0.24047789
116	0x3ea917a3	0.33025846
117	0xbe27ddcb	-0.16393201
118	0x3eb7cf27	0.35900232
119	0xbea4fe2c	-0.32225168
120	0xbe444597	-0.19167171
121	0xbe5862f5	-0.21131499
122	0x3ec2f16a	0.3807481
123	0x3dcfa259	0.10138387
124	0xbe8f7176	-0.2801625
125	0xbe9021a9	-0.2815068
126	0xbec2c084	-0.38037503
127	0xbe5877f6	-0.21139511
128	0xbe0040ed	-0.12524767
129	0xbeacd4e1	-0.33756164
130	0xbe93289b	-0.28741917
131	0xbea2ff99	-0.3183563
132	0x3e8c4f41	0.27404216
133	0xbea134ca	-0.31485587
134	0xbe6725d1	-0.2257302
135	0x3ca6ee7e	0.020377394
136	0xbc9d8c05	-0.019231806
137	0x3eace4b7	0.33768246
138	0x3e9bb559	0.30411795
139	0xbea64f72	-0.32482487
140	0xbca9cffc	-0.020729057
141	0xbca2e7ab	-0.019885859
142	0x3dbb5919	0.091478534
143	0x3e87fbca	0.26559287
144	0xbb46c253	-0.0030328229
145	0x3ec3726e	0.3817324
146	0x3ec324a2	0.38113886
147	0xbe11456f	-0.14186643
148	0x3d1de835	0.038551528
149	0xbdb78103	-0.08960154
150	0x3e905aae	0.28194183
151	0x3e42e16f	0.19031309
152	0x3d66269b	0.05618916
153	0x3e828772	0.25493962
154	0x3e8473b8	0.25869536
155	0xbe4712d0	-0.1944077
156	0xbe9c423f	-0.30519292
157	0x3e82cf1f	0.25548646
158	0x3eb90e6f	0.36143824
159	0x3ebb62c5	0.36598793
160	0xbc9407bb	-0.018070092
161	0xbe868337	-0.26271984
162	0x3e36af47	0.178403
163	0xbe627929	-0.22116531
164	0x3d1306e4	0.035895243
165	0x3e208efb	0.15679543
166	0xbdf2a98a	-0.11848743
167	0x3e939a67	0.28828737
168	0xbdde0e8f	-0.108426206
169	0x3e9acf7b	0.3023642
170	0x3e8d5b00	0.2760849
171	0xbe501dd9	-0.20323886
172	0xbe93f810	-0.28900194
173	0xbe9fdabb	-0.31221566
174	0xbdb462fa	-0.08807941
175	0xbec04a4b	-0.3755668
176	0xbeb9c94d	-0.36286393
177	0xbec390a9	-0.38196304
178	0xbe785d75	-0.24254401
179	0x3e99940b	0.2999576
180	0x3e747bec	0.23875397
181	0xbe507f9f	-0.20361184
182	0x3dc0367f	0.09385394
183	0xbea175de	-0.31535238
184	0x3e14daeb	0.14536636
185	0xbea20790	-0.31646395
186	0x3e2690c7	0.16266166
187	0x3c0a725a	0.008450115
188	0x3ea83da4	0.32859528
189	0xbe99427c	-0.29933536
190	0x3e32fc6d	0.17479105
191	0x3e4941c0	0.19653988
192	0x3e19c93a	0.15018168
193	0x3e546f99	0.20745696
194	0x3e8811d8	0.26576114
195	0xbe229843	-0.15878396
196	0x3e9353f6	0.28774995
197	0x3dccc86b	0.09999164
198	0x3ec4cab4	0.384359
199	0x3e83c528	0.25736356
200	0x3d1c301e	0.038131826
201	0x3e9bd99e	0.30439466
202	0x3ebb7f7d	0.36620703
203	0xbea0e050	-0.31421137
204	0xbeabc035	-0.3354508
205	0x3e95c91b	0.29254994
206	0x3e907def	0.2822108
207	0xbe9e4856	-0.30914563
208	0x3ea42b3f	0.32064244
209	0x3d643f64	0.055724517
210	0xbd297198	-0.041368097
211	0xbe32d44a	-0.17463794
212	0x3da7594c	0.08171329
213	0xbe907fba	-0.28222448
214	0xbe713770	-0.23556304
215	0x3c5603de	0.013062445
216	0x3e38d714	0.18050796
217	0x3d7aef2d	0.061263252
218	0x3eb35de7	0.3503258
219	0xbe6a5ebd	-0.22887702
220	0xbebc5e9a	-0.36790925
221	0xbe0df2af	-0.13862108
222	0xbe59792c	-0.2123763
223	0xbe90ddbb	-0.28294167
224	0xbeac6787	-0.33672735
225	0xbdb58503	-0.088632606
226	0xbde01280	-0.109410286
227	0xbec485fe	-0.38383478
228	0x3e6b081d	0.22952314
229	0x3eb5be41	0.35496715
230	0xbdf4a2b7	-0.11945098
231	0xbdccca5b	-0.09999534
232	0xbd92e2c1	-0.07172156
233	0x3e1e194e	0.1543934
234	0x3ebc68df	0.3679876
235	0x3ec17aa9	0.37788895
236	0x3d48892f	0.048958953
237	0xbdadc315	-0.084844746
238	0x3eae9b47	0.34102842
239	0x3eaacf84	0.33361447
240	0xbe3b39d1	-0.18283774
241	0x3e208d39	0.15678872
242	0x3c30b036	0.010784199
243	0xbdeea801	-0.11653138
244	0x3d80e602	0.062938705
245	0xbe985fa0	-0.29760456
246	0xbda6178f	-0.08109962
247	0xbe715f25	-0.23571451
248	0x3d96a566	0.07355766
249	0x3dd81611	0.10551084
250	0xbde2aec8	-0.11068493
251	0x3ea212ba	0.31654912
252	0xbe33dadb	-0.17563955
253	0xbe804c55	-0.25058237
254	0xbeb28cb7	-0.34872982
255	0x3e4a3fc8	0.19750893

hidden_layers.3.bias f4 [20]
0	0x360ed738	2.1284923e-06
1	0xb600edcb	-1.92119e-06
2	0xb606c2a1	-2.0080845e-06
3	0x3562bf52	8.446997e-07
4	0xb5857be4	-9.945329e-07
5	0xb527dac0	-6.253067e-07
6	0x35c5e03a	1.4742902e-06
7	0x340afd22	1.294434e-07
8	0xb5610922	-8.383232e-07
9	0x35e4a863	1.7036331e-06
10	0x35a20b1b	1.2073173e-06
11	0x354e634d	7.688548e-07
12	0xb39a12bb	-7.174591e-08
13	0x3500e21f	4.8012765e-07
14	0x35560705	7.9731427e-07
15	0xb58323bd	-9.770662e-07
16	0xb55569d1	-7.9502666e-07
17	0xb5bf3330	-1.4245506e-06
18	0xb579c745	-9.3049704e-07
19	0xb3cfcb5f	-9.6761816e-08

hidden_layers.4.weight f4 [20, 20]
0	0xbe77a617	-0.24184452
1	0x3e230565	0.15920027
2	0xbbaa4cf5	-0.0051971623
3	0x3cab190b	0.020885965
4	0x3e1ae53e	0.15126511
5	0xbdb547fe	-0.08851622
6	0xbe9d7672	-0.3075443
7	0x3e234786	0.15945253
8	0xbe945cc6	-0.2897703
9	0xbdbe8ad9	-0.09303827
10	0x3e858ec1	0.26085475
11	0xbe03c7a4	-0.12869126
12	0x3d271fbc	0.04080175
13	0x3dfe5793	0.12419047
14	0x3d0a35ee	0.033742838
15	0x3ea25156	0.3170268
16	0x3d2f13dd	0.042743552
17	0x3ea35fc0	0.3190899
18	0x3e12fbb7	0.14353834
19	0xbd971a23	-0.07378032
20	0x3ea0a64d	0.31376877
21	0xbc3128cd	-0.01081295
22	0x3d2c3d3c	0.042050585
23	0x3d994d43	0.0748544
24	0x3e71950e	0.23592016
25	0x3aec7e6e	0.001804305
26	0xbdd66578	-0.104685724
27	0xbe7e38a8	-0.248263
28	0xbe479f46	-0.19494352
29	0xbe49453a	-0.19655314
30	0xbc816fb2	-0.01580033
31	0x3e6ad27c	0.22931856
32	0xbeadd045	-0.3394796
33	0x3d4e6f15	0.050398905
34	0xbbc81f0f	-0.006107218
35	0x3e4be379	0.19910993
36	0x3c797f5b	0.015228118
37	0xbda4b367	-0.08042031
38	0x3e033cf9	0.12816228
39	0x3dfce9e4	0.123492986
40	0x3ddb105e	0.10696481
41	0xbe7aa1e1	-0.24475814
42	0xbdaaa559	-0.08332319
43	0xbd696e25	-0.056989808
44	0xbe1206ba	-0.14260378
45	0xbe91de10	-0.28489733
46	0xbd999c4c	-0.075005144
47	0x3e5aae51	0.21355559
48	0xbdadce77	-0.08486646
49	0x3eb11061	0.3458281
50	0x3d90cf4f	0.07070791
51	0x3e9b9053	0.30383548
52	0xbe8078d2	-0.2509218
53	0xbd0f99e5	-0.035058875
54	0x3de31a44	0.11088994
55	0x3dea493b	0.11439749
56	0x3e51421d	0.20435376
57	0xbe7ec553	-0.2487996
58	0xbe68aef8	-0.22722995
59	0xbd87ddf6	-0.066341326
60	0xbe36be2f	-0.17845987
61	0xbe64df38	-0.22350776
62	0xbea6702e	-0.3250746
63	0x3eb64692	0.35600716
64	0x3dbddedc	0.09271023
65	0xbebc9f0d	-0.36840096
66	0x3e9f1359	0.3106945
67	0xbd1d2a05	-0.03837015
68	0x3d810533	0.0629982
69	0x3bfdcb95	0.007745216
70	0xbd3e8ae4	-0.046519175
71	0xbe842614	-0.258103
72	0xbec387c3	-0.38189515
73	0x3ea70b40	0.3262577
74	0x3e9e2f54	0.30895483
75	0xbeb4dd30	-0.35325003
76	0xbea5f789	-0.32415417
77	0x3e9a1ed1	0.30101636
78	0xbebb7744	-0.3661443
79	0xbe208e62	-0.15679315
80	0x3df7c6af	0.12098443
81	0xbdae7ed5	-0.08520285
82	0xbeaec72f	-0.3413634
83	0xbd8ec62d	-0.06971393
84	0x3e5aec7a	0.21379271
85	0x3e993479	0.29922846
86	0xbe629448	-0.22126877
87	0xbe9c44f2	-0.3052135
88	0x3e90aab2	0.2825523
89	0xbba752f5	-0.005106325
90	0xbeb9b67c	-0.36272037
91	0xbcf712ff	-0.030160425
92	0x3e0a067a	0.13479033
93	0x3e66d294	0.22541267
94	0xbeafd314	-0.34340727
95	0xbe89a42b	-0.26883063
96	0x3d85e350	0.06537497
97	0x3ce35dd2	0.027754698
98	0x3ec529f6	0.38508576
99	0x3dc11abe	0.09428929
100	0x3e957467	0.2919037
101	0x3ad7a993	0.0016453735
102	0x3eaa4a34	0.33259737
103	0x3e97ba49	0.29634312
104	0x3cb4b23e	0.022057649
105	0xbe0f9be3	-0.1402431
106	0x3d9b3b12	0.07579626
107	0x3e33bef2	0.17553309
108	0xbe67b61a	-0.2262806
109	0xbe16afc9	-0.14715494
110	0x3d888155	0.06665293
111	0xbe61bd35	-0.22044833
112	0xbe9ccaf0	-0.3062358
113	0xbe70c7e5	-0.23513754
114	0xbe454bd4	-0.19267207
115	0x3eb12120	0.34595585
116	0xbe3c16bc	-0.18368047
117	0x3d993c6e	0.07482229
118	0xbdb0c835	-0.086319365
119	0x3e9cd01d	0.30627528
120	0x3dc13565	0.09434012
121	0xbe738b99	-0.23783721
122	0xbe8ff491	-0.28116277
123	0xbe51fc90	-0.20506501
124	0xbe93d55c	-0.28873718
125	0x3e9acb07	0.30233023
126	0x3e765d7b	0.24059097
127	0xbe0d847b	-0.13820069
128	0xbb863c02	-0.004096509
129	0x3e9bfb46	0.30465144
130	0xbeb84154	-0.3598734
131	0xbc94c4d6	-0.018160265
132	0x3e8f68f1	0.2800975
133	0xbe71a157	-0.23596703
134	0x3e8981c1	0.26856807
135	0xbea71b1d	-0.32637873
136	0x3d6d4f0f	0.057936724
137	0x3dbe6815	0.09297196
138	0x3d37660f	0.044775065
139	0x3e3236d2	0.17403725
140	0x3e76e328	0.2411009
141	0x3d9ba4ff	0.0759983
142	0xbe51a726	-0.20473918
143	0xbcb91f43	-0.022597915
144	0xbeaaf484	-0.33389676
145	0xbdd415e4	-0.10355738
146	0xbe8bad5f	-0.2728071
147	0xbe11315c	-0.14178985
148	0xbebbb395	-0.36660448
149	0x3e43d827	0.19125424
150	0x3ec1ce81	0.37852862
151	0x3df72c17	0.12068956
152	0xbc42ab95	-0.011881729
153	0xbdfaf5e7	-0.122539334
154	0xbe90eb51	-0.28304532
155	0x3e33a60b	0.17543809
156	0xbe807265	-0.25087276
157	0x3e8b0eed	0.27159825
158	0x3db70894	0.08937183
159	0x3e9b2a12	0.30305535
160	0x3e531d76	0.20616707
161	0x3e141431	0.14460827
162	0xbea68e40	-0.32530403
163	0xbcc999fb	-0.024609556
164	0xbe8bf9d2	-0.27339035
165	0xbcd2bc73	-0.025724625
166	0xbe0f2077	-0.13977228
167	0xbe51e611	-0.2049792
168	0xbc6ae60f	-0.014337077
169	0x3e7f91ab	0.24957912
170	0x3ddb8374	0.10718432
171	0x3e1baaa6	0.15201816
172	0x3e749879	0.23886289
173	0x3e23bc9f	0.15989922
174	0x3d935874	0.071946055
175	0x3cb13ef1	0.021636458
176	0x3d94148d	0.07230482
177	0xbeb1b70a	-0.3470996
178	0x3e56b0ce	0.20965883
179	0x3e13a547	0.14418517
180	0xbe3bed9c	-0.1835236
181	0xbe9593ff	-0.29214475
182	0x3e6f9280	0.23395729
183	0x3d0e9237	0.03480741
184	0x3e27ef06	0.16399774
185	0xbd98eb9e	-0.074668154
186	0x3ea919b9	0.33027437
187	0x3e66fb55	0.22556813
188	0x3e846f18	0.25866008
189	0xbe8e39cb	-0.27778468
190	0x3e94db90	0.29073763
191	0xbe0d91ec	-0.13825196
192	0x3e984d17	0.29746315
193	0x3ea1f8ea	0.3163522
194	0x3d83ed48	0.06441742
195	0x3da31486	0.07962899
196	0x3eba4d1e	0.3638696
197	0xbe6573c1	-0.22407438
198	0xbe013a3e	-0.12619874
199	0x3e4bab09	0.19889463
200	0xbea52896	-0.32257527
201	0x3d89d04f	0.06729185
202	0x3eaef25a	0.34169275
203	0xbd457e65	-0.048216242
204	0xbd4db54f	-0.050221737
205	0x3e26573c	0.16244215
206	0x3cf03f39	0.029327022
207	0x3e01c4ad	0.12672682
208	0xbec09a08	-0.37617517
209	0xbd77d364	-0.060504332
210	0x3dd8baa7	0.10582476
211	0x3e876db8	0.26450896
212	0xbdddf5bb	-0.10837885
213	0x3ea1754b	0.315348
214	0xbeba5b87	-0.36397955
215	0xbdf8201f	-0.121155016
216	0xbca68f25	-0.020331929
217	0xbe9575ab	-0.29191336
218	0x3e857581	0.2606621
219	0x3e2ce880	0.16885567
220	0x3ea49f19	0.32152632
221	0xbe892efd	-0.26793662
222	0x3e8f085b	0.27936062
223	0x3e1b3a5c	0.15158981
224	0x3e83c3c0	0.25735283
225	0x3e7a9076	0.2446917
226	0xbe5b4ab9	-0.21415223
227	0x3defcbe7	0.11708813
228	0x3ead291a	0.3382042
229	0x3e27013a	0.16309062
230	0x3e06d646	0.13167676
231	0xbd33a963	-0.04386271
232	0x3c2b3693	0.010450023
233	0xba78ece2	-0.00094957475
234	0x3d103765	0.03520908
235	0xbeb3989d	-0.35077372
236	0xbe92462c	-0.28569162
237	0x3e1563c8	0.14588845
238	0xbe1e26c5	-0.15444477
239	0xbdd311de	-0.10306142
240	0x3d827689	0.06370265
241	0xbe8186a1	-0.25298026
242	0xbeb9fa04	-0.3632356
243	0x3d873a9f	0.06602978
244	0xbeb55b77	-0.35421345
245	0x3e640a29	0.22269501
246	0x3eb0119f	0.34388444
247	0xbec09591	-0.3761411
248	0x3de77982	0.11302473
249	0x3e943804	0.28948987
250	0xbeacd42d	-0.33755627
251	0xbe2198db	-0.15780966
252	0x3ebf7742	0.37395674
253	0x3e930293	0.287129
254	0xbd47eccf	-0.048809823
255	0x3bc0a1b9	0.005878654

hidden_layers.4.bias f4 [20]
0	0xb6c24a93	-5.790332e-06
1	0x372b238e	1.02006725e-05
2	0xb60309d2	-1.9526237e-06
3	0x37136273	8.784805e-06
4	0xb6a53391	-4.9233863e-06
5	0xb6181d05	-2.2666657e-06
6	0xb68ee4c9	-4.258564e-06
7	0x360afa8c	2.070944e-06
8	0x36e9a759	6.963423e-06
9	0xb45762bd	-2.0059356e-07
10	0x36742285	3.6378926e-06
11	0x3624c5b5	2.4552985e-06
12	0x33e92a3b	1.085759e-07
13	0xb6be254e	-5.666784e-06
14	0xb6f43f1b	-7.279113e-06
15	0xb65e4420	-3.3120232e-06
16	0xb6a83d53	-5.0139292e-06
17	0x374d110c	1.2222921e-05
18	0x369de3ae	4.70547e-06
19	0x3598bb1a	1.1379336e-06

hidden_layers.5.weight f4 [20, 20]
0	0xbcb29512	-0.021799598
1	0xbe08c60d	-0.133568
2	0x3e03c3a7	0.12867604
3	0x3ead2cea	0.3382333
4	0xbe86525e	-0.26234716
5	0xbe949253	-0.29017887
6	0xbe6ca70f	-0.23110603
7	0x3ec0e457	0.3767421
8	0xbc81297f	-0.015766857
9	0x3e1450cd	0.14483948
10	0x3ec6189c	0.3869065
11	0xbd5c2a86	-0.05375149
12	0xbec30c42	-0.3809529
13	0x3e944909	0.2896197
14	0x3e46ea29	0.19425263
15	0x3d0acbc8	0.033885747
16	0xbe89ec45	-0.26938072
17	0xbebfdba8	-0.37472272
18	0x3eb74d16	0.35801
19	0xbdc4a763	-0.09602239
20	0x3b1c4142	0.0023842608
21	0xbdc07455	-0.093971886
22	0xbe17bee2	-0.1481891
23	0x3ec30a35	0.38093725
24	0xbd0e98be	-0.034813635
25	0xbeb75c8e	-0.358128
26	0xbd910356	-0.070807144
27	0x3e40e681	0.1883793
28	0xbe61a1a6	-0.2203432
29	0xbea292af	-0.31752536
30	0x3c9fef02	0.019523147
31	0x3e644cbd	0.22294898
32	0x3e0aab41	0.1354189
33	0xbd09f80c	-0.03368382
34	0xbe4847c2	-0.19558623
35	0xbe6bcef3	-0.23028164
36	0xbd10b40d	-0.03532796
37	0xbc850897	-0.016239448
38	0x3e5e6d10	0.21721292
39	0x3ea1ea6e	0.31624168
40	0xbc346421	-0.011010201
41	0xbe3546cc	-0.17702788
42	0x3e6bfdf4	0.23046094
43	0xbd5b6d93	-0.053571295
44	0x3e96a421	0.29422095
45	0x3e90255e	0.2815351
46	0xbe075b32	-0.13218382
47	0x3e019982	0.12656215
48	0x3e39cb0b	0.18143861
49	0x3e73ae51	0.23796965
50	0x3ec20df7	0.3790128
51	0xbd0dea60	-0.034647346
52	0x3d9c2ccc	0.07625732
53	0x3d8b465d	0.0680053
54	0xbe85be4e	-0.26121753
55	0xbe9aa582	-0.30204397
56	0x3d4ea8bd	0.05045389
57	0xbdb3399a	-0.08751221
58	0x3e6fbfc0	0.2341299
59	0x3e4bc93c	0.19900984
60	0xbe7f7b21	-0.24949314
61	0x3eb8cc96	0.36093587
62	0x3dcc8ad0	0.09987414
63	0xbea0d400	-0.31411743
64	0xbd92624c	-0.07147655
65	0x3e98af88	0.2982142
66	0xbe9ce008	-0.30639672
67	0x3ec05e4b	0.3757194
68	0xbc8ee9dc	-0.017445497
69	0x3e1718c8	0.14755547
70	0x3ec1b94b	0.3783668
71	0x3eac6ed8	0.33678317
72	0xbe169172	-0.1470392
73	0xbe442540	-0.19154835
74	0x3ec54433	0.38528594
75	0xbeb7a183	-0.3586541
76	0xbe359867	-0.17733918
77	0xbebe4311	-0.37160543
78	0xbe8100a9	-0.25195816
79	0xbeba785e	-0.36419958
80	0x3ea36667	0.31914064
81	0x3eb307a9	0.34966782
82	0x3d6a566c	0.057211325
83	0xbeafaacb	-0.34309992
84	0x3e049fb8	0.12951553
85	0xbe979d39	-0.2961214
86	0x3e9c4cda	0.30527383
87	0x3eb939e6	0.36176986
88	0x3e9f3cb6	0.31101006
89	0x3e34abbb	0.17643635
90	0x3e42795a	0.18991604
91	0x3d08acb6	0.033367835
92	0xbd80abb3	-0.06282749
93	0xbccae5e2	-0.02476782
94	0xbe7b422b	-0.2453696
95	0xbe3f6283	-0.18689923
96	0xbea61cf2	-0.3244396
97	0x3ebf50c2	0.373663
98	0x3e67d17c	0.22638506
99	0xbe4fbb6b	-0.20286338
100	0x3e18f467	0.14936982
101	0xbc552c33	-0.013011026
102	0xbec46ef9	-0.38365915
103	0xbdede9fb	-0.11616894
104	0xbe53a3b3	-0.20667915
105	0x3e94a5ed	0.2903284
106	0x3ea0afe8	0.31384206
107	0x3cd6c36c	0.026216231
108	0xbc95f414	-0.018304862
109	0x3e6a5380	0.22883415
110	0xbeab9c60	-0.33517742
111	0x3ea20ed4	0.31651938
112	0xbd1ca5df	-0.038244125
113	0xbc01d48f	-0.007924213
114	0x3eb29759	0.34881094
115	0xbcd6678c	-0.026172422
116	0x3ea88bb9	0.329191
117	0x3e54c057	0.20776497
118	0xbe4cfa17	-0.20017277
119	0x3e901a6f	0.28145167
120	0xbe5e74ca	-0.21724239
121	0xbe4e74a2	-0.2016168
122	0xbd884ad4	-0.06654897
123	0xbeaa30da	-0.33240396
124	0x3e887806	0.2665407
125	0x3ea23380	0.31679916
126	0xbe50d391	-0.20393206
127	0xbebd9f68	-0.3703568
128	0xbeaa2fc4	-0.33239567
129	0x3e495a99	0.19663467
130	0x3d4b4ed4	0.049635723
131	0xbe7bb674	-0.24581319
132	0x3d5e4d35	0.05427285
133	0x3bbbc54a	0.005730306
134	0x3dbf1ec4	0.0933204
135	0xbe798682	-0.24367717
136	0xbeb1930e	-0.34682506
137	0xbaffff0e	-0.0019530968
138	0xbec3c257	-0.38234207
139	0x3e8fbc6e	0.28073448
140	0x3e801f56	0.25023907
141	0xbec35ff6	-0.3815915
142	0xbebf5566	-0.3736984
143	0xbe2d680c	-0.16934222
144	0x3ebae75b	0.36504635
145	0x3e48a8b3	0.19595604
146	0x3d868391	0.06568063
147	0x3e3d8a83	0.1850987
148	0xbebad93b	-0.3649386
149	0xbe3018af	-0.17196916
150	0x3e06b88b	0.13156335
151	0xbe51510c	-0.20441073
152	0x3da9b808	0.08287054
153	0x3e11dd22	0.14244512
154	0x3e30bb2e	0.17258903
155	0xbe240285	-0.16016586
156	0x3cf0c28b	0.02938964
157	0xbdd9dc52	-0.10637726
158	0xbe706848	-0.2347728
159	0x3eb09a4d	0.34492722
160	0x3e989c81	0.29806903
161	0xbe6c5534	-0.23079377
162	0x3eba0c88	0.36337686
163	0xbea0e694	-0.31425917
164	0x3ec03e96	0.3754775
165	0x3daaddc3	0.08343079
166	0x3e706e0d	0.23479481
167	0x3e168f58	0.14703119
168	0x3e907dc1	0.28220943
169	0xbe90d424	-0.2828685
170	0xbd89a2da	-0.067205146
171	0xbeabc6a9	-0.33550003
172	0x3c4cb9a8	0.012495436
173	0x3d01f3de	0.03172671
174	0x3e47aa38	0.19498527
175	0xbe84bc35	-0.2592484
176	0x3e02c1ed	0.1276929
177	0x3d957c45	0.07299093
178	0x3e54f0d2	0.2079499
179	0xbe9a2082	-0.30102926
180	0xbeb57815	-0.35443178
181	0xbe8b8d62	-0.27256304
182	0x3e521770	0.20516753
183	0x3e9bc4f0	0.3042369
184	0x3eb7bc0c	0.35885656
185	0x3c92ca73	0.017918801
186	0xbeb4c5a4	-0.35307038
187	0x3dfb3437	0.122658186
188	0xbe8feafe	-0.28108972
189	0x3de9e75b	0.11421081
190	0xbeb08773	-0.3447834
191	0xbe85bf70	-0.26122618
192	0xbdae891c	-0.08522245
193	0xbeb5872a	-0.35454684
194	0x3e3bb090	0.18329072
195	0xbe003b46	-0.12522611
196	0xbe3321f9	-0.17493428
197	0xbeb703a2	-0.3574496
198	0xbd5f291e	-0.05448257
199	0x3dca17c4	0.09867814
200	0xbdf8c777	-0.1214742
201	0xbe54c7dd	-0.20779367
202	0xbe8530b8	-0.26013732
203	0x3e34ead1	0.176677
204	0xbd263ba0	-0.040584207
205	0x3e1b23bd	0.15150352
206	0x3eb0cbca	0.3453048
207	0xbe600ad3	-0.21879129
208	0xbda93318	-0.082616985
209	0xbe80375f	-0.25042245
210	0xbc3555c0	-0.011067808
211	0x3ea99170	0.33118773
212	0xbdf84a08	-0.12123495
213	0x3dcad0de	0.099031195
214	0x3e804563	0.25052938
215	0xbe0657ef	-0.13119482
216	0x3d6b07ff	0.057380673
217	0xbe82cc00	-0.25546265
218	0x3e9c2ca4	0.30502808
219	0xbeb3b9dc	-0.35102737
220	0xbec33974	-0.3812977
221	0x3d640267	0.055666354
222	0xbeb1cdc8	-0.3472731
223	0x3ec3f77c	0.38274753
224	0xbea9da14	-0.33174193
225	0x3d121cfb	0.03567217
226	0xbe801bdf	-0.25021264
227	0x3d76b2a9	0.060228977
228	0x3eb94b6e	0.3619036
229	0xbe9b4f0a	-0.3033374
230	0xbe0ac844	-0.13552958
231	0x3c668f0a	0.014072189
232	0x3e566ed2	0.20940712
233	0xbeb4bb74	-0.35299265
234	0x3e43bca9	0.19114937
235	0xbe5a651f	-0.21327637
236	0xbe8c7019	-0.27429274
237	0x3eb8dd94	0.3610655
238	0x3e9ab34f	0.30214927
239	0xbe81be79	-0.25340632
240	0x3c28ca1c	0.010302093
241	0xbeb570f9	-0.35437754
242	0xbe93c451	-0.28860715
243	0x3db75ba9	0.0895303
244	0xbe960aed	-0.2930521
245	0xbe877290	-0.26454592
246	0xbea04d4a	-0.31308967
247	0xbe170a1d	-0.14749952
248	0x3e15d088	0.1463033
249	0x3e61e7b8	0.2206105
250	0xbe396106	-0.18103418
251	0x3eb5189c	0.35370338
252	0xbe97bb74	-0.29635203
253	0x3eabacf7	0.335304
254	0xbe27987d	-0.16366763
255	0xbe4376c8	-0.1908828

hidden_layers.5.bias f4 [20]
0	0xb6166f93	-2.2416687e-06
1	0x38078379	3.230895e-05
2	0x37dfb89d	2.6669639e-05
3	0xb6ec6916	-7.0455817e-06
4	0x37c0c2bf	2.297887e-05
5	0xb73aacce	-1.1126698e-05
6	0x37908253	1.7226825e-05
7	0xb81e0a0e	-3.76795e-05
8	0xb7faafe4	-2.9884228e-05
9	0xb7b50835	-2.1580703e-05
10	0xb7085774	-8.1265935e-06
11	0x385ee723	5.3144187e-05
12	0xb7d5bc80	-2.5479356e-05
13	0x36f2ce88	7.2362054e-06
14	0xb6b61ecb	-5.4276074e-06
15	0xb5bbee61	-1.4001963e-06
16	0xb809a6e7	-3.2818785e-05
17	0xb77b3626	-1.4973373e-05
18	0xb7856e27	-1.590613e-05
19	0x380eb6cf	3.4025692e-05
