Task2/models/model_cluster-11_06_2022-17_53_11.pth (torch, 3087 bytes, 7 tensors)

input_layer.weight f4 [5, 8]
000000 e0 c5 20 be 60 8d c0 3e fe a8 c0 3b 39 2e a8 3e
       -0.15700483 0.3760786 0.0058795204 0.32847765
000010 13 39 99 bc b4 26 c5 3b 14 13 e4 3d 41 74 b4 3f
       -0.018703973 0.0060165767 0.11136451 1.4097978
000020 0b 76 14 3f 0c 4c 09 be 69 19 89 3e 7e 74 05 bf
       0.5799262 -0.13407916 0.267772 -0.5213088
000030 3d 83 04 bd da 46 e5 3e e0 18 48 be 97 fc 50 bf
       -0.03235172 0.44780618 -0.19540739 -0.8163542
000040 ac e0 02 bf 8e 8e 1a bf 6d 8e c2 3e a3 6e ce 3e
       -0.5112407 -0.6037377 0.37999287 0.40318784
000050 04 1a 9d be af ec 44 bf 13 35 cd be 1c d9 ba 3e
       -0.3068391 -0.7692365 -0.40079555 0.36493766
000060 4c 6a 7a 3c 40 7d 3d 3f c3 51 8e 3f 0c fc 94 bd
       0.015284132 0.7401924 1.1118702 -0.072746366
000070 d0 64 f3 bc 53 5c 9a 3d dc da 4a 3e 6a f5 f0 bd
       -0.029711157 0.07537141 0.1981005 -0.11765559
000080 9b 4c 67 3e 58 e0 55 3d 12 ca 18 3f 0c d6 f7 bd
       0.22587816 0.052215904 0.59683335 -0.12101373
000090 89 92 0b bd 4e 72 ff 3f ad a1 ed bd 50 2e 2b be
       -0.034075294 1.9956758 -0.11603103 -0.16716886

input_layer.bias f4 [5]
000000 4b ba ae 3d 30 c0 bf 3e c9 ce 8c be 44 c6 44 3d
       0.08531626 0.37451315 -0.27501515 0.048040643
000010 00 e5 15 3e
       0.14638138

hidden_layers.0.weight f4 [5, 5]
000000 22 c4 f2 bd d9 c3 df 3e 4a ac 41 bf 02 03 a3 3f
       -0.118538156 0.43704107 -0.7565352 1.2735293
000010 59 4b 4b 3d b2 e4 f6 bd f4 d9 30 3f 41 6c 78 bf
       0.049632404 -0.12055339 0.6908257 -0.9704018
000020 96 2f cc bb bf 66 db 3c 32 70 d3 3e c7 ed 87 3e
       -0.0062312586 0.026782392 0.41296536 0.26548597
000030 8c d2 3b be 5e 60 06 bf 51 c8 f1 3e 39 b8 cf 3d
       -0.18342036 -0.52490795 0.47223142 0.101425596
000040 37 88 20 bf 7e 00 4a 3e 62 d7 3b bf 56 ce 29 bf
       -0.6270785 0.1972675 -0.73375523 -0.6633047
000050 e7 75 38 3f 70 30 a7 bf b0 3b c3 3e ad 6b 2d bf
       0.72054905 -1.3061657 0.38131475 -0.67742425
000060 15 38 57 bf
       -0.8406995

hidden_layers.0.bias f4 [5]
000000 8b 1c 5e 3e a8 a5 d1 3d 4c 8c 57 bd 58 af db 3d
       0.21690576 0.102366745 -0.052624032 0.107268035
000010 63 cc 43 bd
       -0.04780234

hidden_layers.1.weight f4 [5, 5]
000000 76 21 de be a6 bb 15 bf cc 90 38 bf aa dc 91 be
       -0.43384904 -0.58489454 -0.7209594 -0.28488666
000010 43 93 87 3e 23 b8 e7 bd 02 b6 ba 3e d2 95 c7 be
       0.2647954 -0.11314418 0.36466986 -0.3898149
000020 95 87 0e bf 68 6c 8c be 9e 97 4b 3f b7 d9 09 3f
       -0.5567563 -0.27426457 0.79528224 0.5384783
000030 ba 78 8b 3e 0a 00 80 be f0 fb 36 bf e2 bc 82 bf
       0.27240545 -0.2500003 -0.71478176 -1.0213892
000040 15 05 7b bf 38 0c b1 3e 8c b0 2b 3f ba 1a 9f 3f
       -0.9805463 0.34579635 0.67066264 1.2430031
000050 4b 0f 06 bf 22 96 88 3e 08 0b 0e 3e f1 01 01 3f
       -0.52367085 0.26677042 0.13871396 0.5039359
000060 68 2c 6e 3f
       0.9303651

hidden_layers.1.bias f4 [5]
000000 c9 e5 dd bd 27 ac b7 bd 02 01 de bd b5 56 06 bd
       -0.10834844 -0.08968382 -0.10840036 -0.032797534
000010 75 bf ca 3d
       0.09899799

output_layer.weight f4 [1, 5]
000000 50 d1 96 3e 1b 50 ae be 7a 04 7c bf 66 2e f9 3f
       0.29456568 -0.3404549 -0.9844433 1.9467285
000010 72 1a 3a 3f
       0.726966
