Task2/models/model_cluster-11_06_2022-17_56_46.pth (torch, 3087 bytes, 7 tensors)

input_layer.weight f4 [5, 8]
0	0xbf38cd10	-0.721879
1	0x3ee12b72	0.4397846
2	0x3f8cd57f	1.1002654
3	0xbf550625	-0.832125
4	0x3f99776c	1.198957
5	0xbf24f410	-0.6443491
6	0xbf80b60f	-1.005556
7	0xbf8c4aee	-1.0960367
8	0x3d1ac0e7	0.037781622
9	0x3ef08d27	0.4698269
10	0xbe62bd53	-0.22142534
11	0xbf043759	-0.51646954
12	0xbe850814	-0.25982726
13	0x3d2de1c7	0.042451646
14	0xbdb2a797	-0.087233715
15	0xbf729b03	-0.9476778
16	0xbe605fd4	-0.21911556
17	0xbe3c7f21	-0.18407871
18	0xbe660b8f	-0.22465347
19	0x3f539c7a	0.8266064
20	0x3f8023e2	1.001095
21	0xbf35dbd8	-0.7103858
22	0xbef2a3e7	-0.47390673
23	0x3e813dd3	0.2524248
24	0xbeb08975	-0.3447987
25	0x3db4dcfb	0.08831211
26	0xbe38d322	-0.18049291
27	0xbe3274ba	-0.1742734
28	0xbe5d86fd	-0.21633525
29	0xbed30031	-0.41211084
30	0xbdac8196	-0.08423154
31	0xbd99f0d0	-0.075166345
32	0xbf30444b	-0.68854207
33	0xbf569048	-0.83813906
34	0xbe71ba47	-0.23606215
35	0xbf87a9a6	-1.0598648
36	0x3f40f0c0	0.75367355
37	0xbf73fdd7	-0.95309204
38	0xbf5cd459	-0.86261517
39	0xbf273ac6	-0.65324056

input_layer.bias f4 [5]
0	0x3daa6764	0.083205014
1	0xbe80e1d0	-0.2517228
2	0x3e167725	0.14693888
3	0xbe76e3fe	-0.2411041
4	0xbe755d60	-0.23961401

hidden_layers.0.weight f4 [5, 5]
0	0x3f377e37	0.71676964
1	0x3f929278	1.1450949
2	0xbf988cf5	-1.1918017
3	0x3ec42ec4	0.3831693
4	0x3f8fd052	1.1235449
5	0x3e493c0d	0.19651814
6	0x3e203fa0	0.15649271
7	0x3f5fae72	0.8737556
8	0xbf52c973	-0.8233864
9	0xbecc786a	-0.3993562
10	0x3f5d82a7	0.86527485
11	0xbf9a9481	-1.207657
12	0xbfb0d6ea	-1.3815587
13	0x3e81b1a0	0.2533083
14	0xbf53eac7	-0.82780117
15	0x3ebca798	0.36846614
16	0x3f142bd0	0.5787935
17	0x3ebb7268	0.36610723
18	0xbf9b23d7	-1.2120312
19	0xbdd0b84d	-0.101914026
20	0x3f8aa46c	1.0831428
21	0xbf68005f	-0.90625566
22	0x3f500178	0.8125224
23	0x3f524daa	0.82149756
24	0x3e8fa843	0.2805806

hidden_layers.0.bias f4 [5]
0	0x3dd88606	0.10572438
1	0x3e2ffdd7	0.17186676
2	0x3e1a302a	0.15057436
3	0x3e08d11f	0.13361023
4	0xbd1744ca	-0.036930837

hidden_layers.1.weight f4 [5, 5]
0	0x3f6fe123	0.93702906
1	0xbf8d5d2e	-1.1044061
2	0xbf5b8f57	-0.85765594
3	0x3f10e6c7	0.5660214
4	0xbedc94d9	-0.43082312
5	0xbf51c68e	-0.81943595
6	0x3f7c15b2	0.98470604
7	0x3f7a4995	0.9776853
8	0xbea529fa	-0.32258588
9	0x3ef8ef31	0.4861999
10	0x3e875309	0.26430538
11	0x3f88deed	1.0693032
12	0x3f2fe247	0.68704647
13	0x3f29c4d9	0.6631599
14	0x3c378041	0.011200012
15	0xbd32ad9c	-0.043622598
16	0xbe253aa4	-0.16135651
17	0x3e9cf252	0.30653626
18	0x3f9724b8	1.1808081
19	0xbe920294	-0.28517592
20	0xbcbaf9b4	-0.022824146
21	0xbf2d4e33	-0.6769745
22	0xbdb43eaf	-0.088010184
23	0x3ebbca11	0.36677602
24	0x3e137832	0.1440132

hidden_layers.1.bias f4 [5]
0	0x3e0cd722	0.13753942
1	0x3df96de7	0.12179165
2	0x3e41becd	0.18920441
3	0xbded5ca1	-0.11589933
4	0xbdc844f6	-0.09778778

output_layer.weight f4 [1, 5]
0	0x3fc29c7b	1.5204004
1	0x3fb408ec	1.4065223
2	0x3f98572b	1.1901602
3	0xbf996c2a	-1.1986134
4	0xbe3fbd07	-0.18724452
